node {
  name: "pixel_projection_y"
  op: "Placeholder"
  attr {
    key: "dtype"
    value {
      type: DT_FLOAT
    }
  }
  attr {
    key: "shape"
    value {
      shape {
        dim {
          size: -1
        }
        dim {
          size: 21
        }
        dim {
          size: 1
        }
      }
    }
  }
}
node {
  name: "cluster_charge"
  op: "Placeholder"
  attr {
    key: "dtype"
    value {
      type: DT_FLOAT
    }
  }
  attr {
    key: "shape"
    value {
      shape {
        dim {
          size: -1
        }
        dim {
          size: 1
        }
      }
    }
  }
}
node {
  name: "angles"
  op: "Placeholder"
  attr {
    key: "dtype"
    value {
      type: DT_FLOAT
    }
  }
  attr {
    key: "shape"
    value {
      shape {
        dim {
          size: -1
        }
        dim {
          size: 2
        }
      }
    }
  }
}
node {
  name: "model_9/flatten_9/Const"
  op: "Const"
  attr {
    key: "dtype"
    value {
      type: DT_INT32
    }
  }
  attr {
    key: "value"
    value {
      tensor {
        dtype: DT_INT32
        tensor_shape {
          dim {
            size: 2
          }
        }
        tensor_content: "\377\377\377\377\025\000\000\000"
      }
    }
  }
}
node {
  name: "model_9/concatenate_18/concat/axis"
  op: "Const"
  attr {
    key: "dtype"
    value {
      type: DT_INT32
    }
  }
  attr {
    key: "value"
    value {
      tensor {
        dtype: DT_INT32
        tensor_shape {
        }
        int_val: 1
      }
    }
  }
}
node {
  name: "model_9/dense_72/MatMul/ReadVariableOp/resource"
  op: "Const"
  attr {
    key: "dtype"
    value {
      type: DT_FLOAT
    }
  }
  attr {
    key: "value"
    value {
      tensor {
        dtype: DT_FLOAT
        tensor_shape {
          dim {
            size: 24
          }
          dim {
            size: 192
          }
        }
        tensor_content: "…"
      }
    }
  }
}
node {
  name: "model_9/dense_72/BiasAdd/ReadVariableOp/resource"
  op: "Const"
  attr {
    key: "dtype"
    value {
      type: DT_FLOAT
    }
  }
  attr {
    key: "value"
    value {
      tensor {
        dtype: DT_FLOAT
        tensor_shape {
          dim {
            size: 192
          }
        }
        tensor_content: "…"
      }
    }
  }
}
node {
  name: "model_9/dense_73/MatMul/ReadVariableOp/resource"
  op: "Const"
  attr {
    key: "dtype"
    value {
      type: DT_FLOAT
    }
  }
  attr {
    key: "value"
    value {
      tensor {
        dtype: DT_FLOAT
        tensor_shape {
          dim {
            size: 192
          }
          dim {
            size: 96
          }
        }
        tensor_content: "…"
      }
    }
  }
}
node {
  name: "model_9/dense_73/BiasAdd/ReadVariableOp/resource"
  op: "Const"
  attr {
    key: "dtype"
    value {
      type: DT_FLOAT
    }
  }
  attr {
    key: "value"
    value {
      tensor {
        dtype: DT_FLOAT
        tensor_shape {
          dim {
            size: 96
          }
        }
        tensor_content: "…"
      }
    }
  }
}
node {
  name: "model_9/batch_normalization_18/batchnorm/ReadVariableOp/resource"
  op: "Const"
  attr {
    key: "dtype"
    value {
      type: DT_FLOAT
    }
  }
  attr {
    key: "value"
    value {
      tensor {
        dtype: DT_FLOAT
        tensor_shape {
          dim {
            size: 96
          }
        }
        tensor_content: "…"
      }
    }
  }
}
node {
  name: "model_9/batch_normalization_18/batchnorm/add/y"
  op: "Const"
  attr {
    key: "dtype"
    value {
      type: DT_FLOAT
    }
  }
  attr {
    key: "value"
    value {
      tensor {
        dtype: DT_FLOAT
        tensor_shape {
        }
        float_val: 0.0010000000474974513
      }
    }
  }
}
node {
  name: "model_9/batch_normalization_18/batchnorm/mul/ReadVariableOp/resource"
  op: "Const"
  attr {
    key: "dtype"
    value {
      type: DT_FLOAT
    }
  }
  attr {
    key: "value"
    value {
      tensor {
        dtype: DT_FLOAT
        tensor_shape {
          dim {
            size: 96
          }
        }
        tensor_content: "…"
      }
    }
  }
}
node {
  name: "model_9/batch_normalization_18/batchnorm/ReadVariableOp_2/resource"
  op: "Const"
  attr {
    key: "dtype"
    value {
      type: DT_FLOAT
    }
  }
  attr {
    key: "value"
    value {
      tensor {
        dtype: DT_FLOAT
        tensor_shape {
          dim {
            size: 96
          }
        }
        tensor_content: "…"
      }
    }
  }
}
node {
  name: "model_9/batch_normalization_18/batchnorm/ReadVariableOp_1/resource"
  op: "Const"
  attr {
    key: "dtype"
    value {
      type: DT_FLOAT
    }
  }
  attr {
    key: "value"
    value {
      tensor {
        dtype: DT_FLOAT
        tensor_shape {
          dim {
            size: 96
          }
        }
        tensor_content: "…"
      }
    }
  }
}
node {
  name: "model_9/dense_74/MatMul/ReadVariableOp/resource"
  op: "Const"
  attr {
    key: "dtype"
    value {
      type: DT_FLOAT
    }
  }
  attr {
    key: "value"
    value {
      tensor {
        dtype: DT_FLOAT
        tensor_shape {
          dim {
            size: 24
          }
          dim {
            size: 96
          }
        }
        tensor_content: "…"
      }
    }
  }
}
node {
  name: "model_9/dense_74/BiasAdd/ReadVariableOp/resource"
  op: "Const"
  attr {
    key: "dtype"
    value {
      type: DT_FLOAT
    }
  }
  attr {
    key: "value"
    value {
      tensor {
        dtype: DT_FLOAT
        tensor_shape {
          dim {
            size: 96
          }
        }
        tensor_content: "…"
      }
    }
  }
}
node {
  name: "model_9/dense_75/MatMul/ReadVariableOp/resource"
  op: "Const"
  attr {
    key: "dtype"
    value {
      type: DT_FLOAT
    }
  }
  attr {
    key: "value"
    value {
      tensor {
        dtype: DT_FLOAT
        tensor_shape {
          dim {
            size: 96
          }
          dim {
            size: 1
          }
        }
        tensor_content: "…"
      }
    }
  }
}
node {
  name: "model_9/dense_75/BiasAdd/ReadVariableOp/resource"
  op: "Const"
  attr {
    key: "dtype"
    value {
      type: DT_FLOAT
    }
  }
  attr {
    key: "value"
    value {
      tensor {
        dtype: DT_FLOAT
        tensor_shape {
          dim {
            size: 1
          }
        }
        float_val: -0.009799503721296787
      }
    }
  }
}
node {
  name: "model_9/dense_76/MatMul/ReadVariableOp/resource"
  op: "Const"
  attr {
    key: "dtype"
    value {
      type: DT_FLOAT
    }
  }
  attr {
    key: "value"
    value {
      tensor {
        dtype: DT_FLOAT
        tensor_shape {
          dim {
            size: 24
          }
          dim {
            size: 192
          }
        }
        tensor_content: "…"
      }
    }
  }
}
node {
  name: "model_9/dense_76/BiasAdd/ReadVariableOp/resource"
  op: "Const"
  attr {
    key: "dtype"
    value {
      type: DT_FLOAT
    }
  }
  attr {
    key: "value"
    value {
      tensor {
        dtype: DT_FLOAT
        tensor_shape {
          dim {
            size: 192
          }
        }
        tensor_content: "…"
      }
    }
  }
}
node {
  name: "model_9/dense_77/MatMul/ReadVariableOp/resource"
  op: "Const"
  attr {
    key: "dtype"
    value {
      type: DT_FLOAT
    }
  }
  attr {
    key: "value"
    value {
      tensor {
        dtype: DT_FLOAT
        tensor_shape {
          dim {
            size: 192
          }
          dim {
            size: 96
          }
        }
        tensor_content: "…"
      }
    }
  }
}
node {
  name: "model_9/dense_77/BiasAdd/ReadVariableOp/resource"
  op: "Const"
  attr {
    key: "dtype"
    value {
      type: DT_FLOAT
    }
  }
  attr {
    key: "value"
    value {
      tensor {
        dtype: DT_FLOAT
        tensor_shape {
          dim {
            size: 96
          }
        }
        tensor_content: "…"
      }
    }
  }
}
node {
  name: "model_9/batch_normalization_19/batchnorm/ReadVariableOp/resource"
  op: "Const"
  attr {
    key: "dtype"
    value {
      type: DT_FLOAT
    }
  }
  attr {
    key: "value"
    value {
      tensor {
        dtype: DT_FLOAT
        tensor_shape {
          dim {
            size: 96
          }
        }
        tensor_content: "…"
      }
    }
  }
}
node {
  name: "model_9/batch_normalization_19/batchnorm/add/y"
  op: "Const"
  attr {
    key: "dtype"
    value {
      type: DT_FLOAT
    }
  }
  attr {
    key: "value"
    value {
      tensor {
        dtype: DT_FLOAT
        tensor_shape {
        }
        float_val: 0.0010000000474974513
      }
    }
  }
}
node {
  name: "model_9/batch_normalization_19/batchnorm/mul/ReadVariableOp/resource"
  op: "Const"
  attr {
    key: "dtype"
    value {
      type: DT_FLOAT
    }
  }
  attr {
    key: "value"
    value {
      tensor {
        dtype: DT_FLOAT
        tensor_shape {
          dim {
            size: 96
          }
        }
        tensor_content: "…"
      }
    }
  }
}
node {
  name: "model_9/batch_normalization_19/batchnorm/ReadVariableOp_2/resource"
  op: "Const"
  attr {
    key: "dtype"
    value {
      type: DT_FLOAT
    }
  }
  attr {
    key: "value"
    value {
      tensor {
        dtype: DT_FLOAT
        tensor_shape {
          dim {
            size: 96
          }
        }
        tensor_content: "…"
      }
    }
  }
}
node {
  name: "model_9/batch_normalization_19/batchnorm/ReadVariableOp_1/resource"
  op: "Const"
  attr {
    key: "dtype"
    value {
      type: DT_FLOAT
    }
  }
  attr {
    key: "value"
    value {
      tensor {
        dtype: DT_FLOAT
        tensor_shape {
          dim {
            size: 96
          }
        }
        tensor_content: "…"
      }
    }
  }
}
node {
  name: "model_9/dense_78/MatMul/ReadVariableOp/resource"
  op: "Const"
  attr {
    key: "dtype"
    value {
      type: DT_FLOAT
    }
  }
  attr {
    key: "value"
    value {
      tensor {
        dtype: DT_FLOAT
        tensor_shape {
          dim {
            size: 24
          }
          dim {
            size: 96
          }
        }
        tensor_content: "…"
      }
    }
  }
}
node {
  name: "model_9/dense_78/BiasAdd/ReadVariableOp/resource"
  op: "Const"
  attr {
    key: "dtype"
    value {
      type: DT_FLOAT
    }
  }
  attr {
    key: "value"
    value {
      tensor {
        dtype: DT_FLOAT
        tensor_shape {
          dim {
            size: 96
          }
        }
        tensor_content: "…"
      }
    }
  }
}
node {
  name: "model_9/dense_79/MatMul/ReadVariableOp/resource"
  op: "Const"
  attr {
    key: "dtype"
    value {
      type: DT_FLOAT
    }
  }
  attr {
    key: "value"
    value {
      tensor {
        dtype: DT_FLOAT
        tensor_shape {
          dim {
            size: 96
          }
          dim {
            size: 1
          }
        }
        tensor_content: "…"
      }
    }
  }
}
node {
  name: "model_9/dense_79/BiasAdd/ReadVariableOp/resource"
  op: "Const"
  attr {
    key: "dtype"
    value {
      type: DT_FLOAT
    }
  }
  attr {
    key: "value"
    value {
      tensor {
        dtype: DT_FLOAT
        tensor_shape {
          dim {
            size: 1
          }
        }
        float_val: 0.34025999903678894
      }
    }
  }
}
node {
  name: "model_9/tf.clip_by_value_9/clip_by_value/Minimum/y"
  op: "Const"
  attr {
    key: "dtype"
    value {
      type: DT_FLOAT
    }
  }
  attr {
    key: "value"
    value {
      tensor {
        dtype: DT_FLOAT
        tensor_shape {
        }
        float_val: 120.0
      }
    }
  }
}
node {
  name: "model_9/tf.clip_by_value_9/clip_by_value/y"
  op: "Const"
  attr {
    key: "dtype"
    value {
      type: DT_FLOAT
    }
  }
  attr {
    key: "value"
    value {
      tensor {
        dtype: DT_FLOAT
        tensor_shape {
        }
        float_val: 3.0
      }
    }
  }
}
node {
  name: "model_9/concatenate_19/concat/axis"
  op: "Const"
  attr {
    key: "dtype"
    value {
      type: DT_INT32
    }
  }
  attr {
    key: "value"
    value {
      tensor {
        dtype: DT_INT32
        tensor_shape {
        }
        int_val: 1
      }
    }
  }
}
node {
  name: "model_9/flatten_9/Reshape"
  op: "Reshape"
  input: "pixel_projection_y"
  input: "model_9/flatten_9/Const"
  attr {
    key: "T"
    value {
      type: DT_FLOAT
    }
  }
  attr {
    key: "Tshape"
    value {
      type: DT_INT32
    }
  }
}
node {
  name: "model_9/concatenate_18/concat"
  op: "ConcatV2"
  input: "model_9/flatten_9/Reshape"
  input: "angles"
  input: "cluster_charge"
  input: "model_9/concatenate_18/concat/axis"
  attr {
    key: "N"
    value {
      i: 3
    }
  }
  attr {
    key: "T"
    value {
      type: DT_FLOAT
    }
  }
  attr {
    key: "Tidx"
    value {
      type: DT_INT32
    }
  }
}
node {
  name: "model_9/dense_72/MatMul/ReadVariableOp"
  op: "Identity"
  input: "model_9/dense_72/MatMul/ReadVariableOp/resource"
  attr {
    key: "T"
    value {
      type: DT_FLOAT
    }
  }
  attr {
    key: "_has_manual_control_dependencies"
    value {
      b: true
    }
  }
}
node {
  name: "model_9/dense_72/MatMul"
  op: "MatMul"
  input: "model_9/concatenate_18/concat"
  input: "model_9/dense_72/MatMul/ReadVariableOp"
  attr {
    key: "T"
    value {
      type: DT_FLOAT
    }
  }
  attr {
    key: "transpose_a"
    value {
      b: false
    }
  }
  attr {
    key: "transpose_b"
    value {
      b: false
    }
  }
}
node {
  name: "model_9/dense_72/BiasAdd/ReadVariableOp"
  op: "Identity"
  input: "model_9/dense_72/BiasAdd/ReadVariableOp/resource"
  attr {
    key: "T"
    value {
      type: DT_FLOAT
    }
  }
  attr {
    key: "_has_manual_control_dependencies"
    value {
      b: true
    }
  }
}
node {
  name: "model_9/dense_72/BiasAdd"
  op: "BiasAdd"
  input: "model_9/dense_72/MatMul"
  input: "model_9/dense_72/BiasAdd/ReadVariableOp"
  attr {
    key: "T"
    value {
      type: DT_FLOAT
    }
  }
  attr {
    key: "data_format"
    value {
      s: "NHWC"
    }
  }
}
node {
  name: "model_9/leaky_re_lu_36/LeakyRelu"
  op: "LeakyRelu"
  input: "model_9/dense_72/BiasAdd"
  attr {
    key: "T"
    value {
      type: DT_FLOAT
    }
  }
  attr {
    key: "alpha"
    value {
      f: 0.009999999776482582
    }
  }
}
node {
  name: "model_9/dense_73/MatMul/ReadVariableOp"
  op: "Identity"
  input: "model_9/dense_73/MatMul/ReadVariableOp/resource"
  attr {
    key: "T"
    value {
      type: DT_FLOAT
    }
  }
  attr {
    key: "_has_manual_control_dependencies"
    value {
      b: true
    }
  }
}
node {
  name: "model_9/dense_73/MatMul"
  op: "MatMul"
  input: "model_9/leaky_re_lu_36/LeakyRelu"
  input: "model_9/dense_73/MatMul/ReadVariableOp"
  attr {
    key: "T"
    value {
      type: DT_FLOAT
    }
  }
  attr {
    key: "transpose_a"
    value {
      b: false
    }
  }
  attr {
    key: "transpose_b"
    value {
      b: false
    }
  }
}
node {
  name: "model_9/dense_73/BiasAdd/ReadVariableOp"
  op: "Identity"
  input: "model_9/dense_73/BiasAdd/ReadVariableOp/resource"
  attr {
    key: "T"
    value {
      type: DT_FLOAT
    }
  }
  attr {
    key: "_has_manual_control_dependencies"
    value {
      b: true
    }
  }
}
node {
  name: "model_9/dense_73/BiasAdd"
  op: "BiasAdd"
  input: "model_9/dense_73/MatMul"
  input: "model_9/dense_73/BiasAdd/ReadVariableOp"
  attr {
    key: "T"
    value {
      type: DT_FLOAT
    }
  }
  attr {
    key: "data_format"
    value {
      s: "NHWC"
    }
  }
}
node {
  name: "model_9/leaky_re_lu_37/LeakyRelu"
  op: "LeakyRelu"
  input: "model_9/dense_73/BiasAdd"
  attr {
    key: "T"
    value {
      type: DT_FLOAT
    }
  }
  attr {
    key: "alpha"
    value {
      f: 0.009999999776482582
    }
  }
}
node {
  name: "model_9/batch_normalization_18/batchnorm/ReadVariableOp"
  op: "Identity"
  input: "model_9/batch_normalization_18/batchnorm/ReadVariableOp/resource"
  attr {
    key: "T"
    value {
      type: DT_FLOAT
    }
  }
  attr {
    key: "_has_manual_control_dependencies"
    value {
      b: true
    }
  }
}
node {
  name: "model_9/batch_normalization_18/batchnorm/add"
  op: "AddV2"
  input: "model_9/batch_normalization_18/batchnorm/ReadVariableOp"
  input: "model_9/batch_normalization_18/batchnorm/add/y"
  attr {
    key: "T"
    value {
      type: DT_FLOAT
    }
  }
}
node {
  name: "model_9/batch_normalization_18/batchnorm/Rsqrt"
  op: "Rsqrt"
  input: "model_9/batch_normalization_18/batchnorm/add"
  attr {
    key: "T"
    value {
      type: DT_FLOAT
    }
  }
}
node {
  name: "model_9/batch_normalization_18/batchnorm/mul/ReadVariableOp"
  op: "Identity"
  input: "model_9/batch_normalization_18/batchnorm/mul/ReadVariableOp/resource"
  attr {
    key: "T"
    value {
      type: DT_FLOAT
    }
  }
  attr {
    key: "_has_manual_control_dependencies"
    value {
      b: true
    }
  }
}
node {
  name: "model_9/batch_normalization_18/batchnorm/mul"
  op: "Mul"
  input: "model_9/batch_normalization_18/batchnorm/Rsqrt"
  input: "model_9/batch_normalization_18/batchnorm/mul/ReadVariableOp"
  attr {
    key: "T"
    value {
      type: DT_FLOAT
    }
  }
}
node {
  name: "model_9/batch_normalization_18/batchnorm/mul_1"
  op: "Mul"
  input: "model_9/leaky_re_lu_37/LeakyRelu"
  input: "model_9/batch_normalization_18/batchnorm/mul"
  attr {
    key: "T"
    value {
      type: DT_FLOAT
    }
  }
}
node {
  name: "model_9/batch_normalization_18/batchnorm/ReadVariableOp_2"
  op: "Identity"
  input: "model_9/batch_normalization_18/batchnorm/ReadVariableOp_2/resource"
  attr {
    key: "T"
    value {
      type: DT_FLOAT
    }
  }
  attr {
    key: "_has_manual_control_dependencies"
    value {
      b: true
    }
  }
}
node {
  name: "model_9/batch_normalization_18/batchnorm/ReadVariableOp_1"
  op: "Identity"
  input: "model_9/batch_normalization_18/batchnorm/ReadVariableOp_1/resource"
  attr {
    key: "T"
    value {
      type: DT_FLOAT
    }
  }
  attr {
    key: "_has_manual_control_dependencies"
    value {
      b: true
    }
  }
}
node {
  name: "model_9/batch_normalization_18/batchnorm/mul_2"
  op: "Mul"
  input: "model_9/batch_normalization_18/batchnorm/ReadVariableOp_1"
  input: "model_9/batch_normalization_18/batchnorm/mul"
  attr {
    key: "T"
    value {
      type: DT_FLOAT
    }
  }
}
node {
  name: "model_9/batch_normalization_18/batchnorm/sub"
  op: "Sub"
  input: "model_9/batch_normalization_18/batchnorm/ReadVariableOp_2"
  input: "model_9/batch_normalization_18/batchnorm/mul_2"
  attr {
    key: "T"
    value {
      type: DT_FLOAT
    }
  }
}
node {
  name: "model_9/batch_normalization_18/batchnorm/add_1"
  op: "AddV2"
  input: "model_9/batch_normalization_18/batchnorm/mul_1"
  input: "model_9/batch_normalization_18/batchnorm/sub"
  attr {
    key: "T"
    value {
      type: DT_FLOAT
    }
  }
}
node {
  name: "model_9/dropout_18/Identity"
  op: "Identity"
  input: "model_9/batch_normalization_18/batchnorm/add_1"
  attr {
    key: "T"
    value {
      type: DT_FLOAT
    }
  }
}
node {
  name: "model_9/dense_74/MatMul/ReadVariableOp"
  op: "Identity"
  input: "model_9/dense_74/MatMul/ReadVariableOp/resource"
  attr {
    key: "T"
    value {
      type: DT_FLOAT
    }
  }
  attr {
    key: "_has_manual_control_dependencies"
    value {
      b: true
    }
  }
}
node {
  name: "model_9/dense_74/MatMul"
  op: "MatMul"
  input: "model_9/concatenate_18/concat"
  input: "model_9/dense_74/MatMul/ReadVariableOp"
  attr {
    key: "T"
    value {
      type: DT_FLOAT
    }
  }
  attr {
    key: "transpose_a"
    value {
      b: false
    }
  }
  attr {
    key: "transpose_b"
    value {
      b: false
    }
  }
}
node {
  name: "model_9/dense_74/BiasAdd/ReadVariableOp"
  op: "Identity"
  input: "model_9/dense_74/BiasAdd/ReadVariableOp/resource"
  attr {
    key: "T"
    value {
      type: DT_FLOAT
    }
  }
  attr {
    key: "_has_manual_control_dependencies"
    value {
      b: true
    }
  }
}
node {
  name: "model_9/dense_74/BiasAdd"
  op: "BiasAdd"
  input: "model_9/dense_74/MatMul"
  input: "model_9/dense_74/BiasAdd/ReadVariableOp"
  attr {
    key: "T"
    value {
      type: DT_FLOAT
    }
  }
  attr {
    key: "data_format"
    value {
      s: "NHWC"
    }
  }
}
node {
  name: "model_9/add_18/add"
  op: "AddV2"
  input: "model_9/dropout_18/Identity"
  input: "model_9/dense_74/BiasAdd"
  attr {
    key: "T"
    value {
      type: DT_FLOAT
    }
  }
}
node {
  name: "model_9/dense_75/MatMul/ReadVariableOp"
  op: "Identity"
  input: "model_9/dense_75/MatMul/ReadVariableOp/resource"
  attr {
    key: "T"
    value {
      type: DT_FLOAT
    }
  }
  attr {
    key: "_has_manual_control_dependencies"
    value {
      b: true
    }
  }
}
node {
  name: "model_9/dense_75/MatMul"
  op: "MatMul"
  input: "model_9/add_18/add"
  input: "model_9/dense_75/MatMul/ReadVariableOp"
  attr {
    key: "T"
    value {
      type: DT_FLOAT
    }
  }
  attr {
    key: "transpose_a"
    value {
      b: false
    }
  }
  attr {
    key: "transpose_b"
    value {
      b: false
    }
  }
}
node {
  name: "model_9/dense_75/BiasAdd/ReadVariableOp"
  op: "Identity"
  input: "model_9/dense_75/BiasAdd/ReadVariableOp/resource"
  attr {
    key: "T"
    value {
      type: DT_FLOAT
    }
  }
  attr {
    key: "_has_manual_control_dependencies"
    value {
      b: true
    }
  }
}
node {
  name: "model_9/dense_75/BiasAdd"
  op: "BiasAdd"
  input: "model_9/dense_75/MatMul"
  input: "model_9/dense_75/BiasAdd/ReadVariableOp"
  attr {
    key: "T"
    value {
      type: DT_FLOAT
    }
  }
  attr {
    key: "data_format"
    value {
      s: "NHWC"
    }
  }
}
node {
  name: "model_9/dense_76/MatMul/ReadVariableOp"
  op: "Identity"
  input: "model_9/dense_76/MatMul/ReadVariableOp/resource"
  attr {
    key: "T"
    value {
      type: DT_FLOAT
    }
  }
  attr {
    key: "_has_manual_control_dependencies"
    value {
      b: true
    }
  }
}
node {
  name: "model_9/dense_76/MatMul"
  op: "MatMul"
  input: "model_9/concatenate_18/concat"
  input: "model_9/dense_76/MatMul/ReadVariableOp"
  attr {
    key: "T"
    value {
      type: DT_FLOAT
    }
  }
  attr {
    key: "transpose_a"
    value {
      b: false
    }
  }
  attr {
    key: "transpose_b"
    value {
      b: false
    }
  }
}
node {
  name: "model_9/dense_76/BiasAdd/ReadVariableOp"
  op: "Identity"
  input: "model_9/dense_76/BiasAdd/ReadVariableOp/resource"
  attr {
    key: "T"
    value {
      type: DT_FLOAT
    }
  }
  attr {
    key: "_has_manual_control_dependencies"
    value {
      b: true
    }
  }
}
node {
  name: "model_9/dense_76/BiasAdd"
  op: "BiasAdd"
  input: "model_9/dense_76/MatMul"
  input: "model_9/dense_76/BiasAdd/ReadVariableOp"
  attr {
    key: "T"
    value {
      type: DT_FLOAT
    }
  }
  attr {
    key: "data_format"
    value {
      s: "NHWC"
    }
  }
}
node {
  name: "model_9/leaky_re_lu_38/LeakyRelu"
  op: "LeakyRelu"
  input: "model_9/dense_76/BiasAdd"
  attr {
    key: "T"
    value {
      type: DT_FLOAT
    }
  }
  attr {
    key: "alpha"
    value {
      f: 0.009999999776482582
    }
  }
}
node {
  name: "model_9/dense_77/MatMul/ReadVariableOp"
  op: "Identity"
  input: "model_9/dense_77/MatMul/ReadVariableOp/resource"
  attr {
    key: "T"
    value {
      type: DT_FLOAT
    }
  }
  attr {
    key: "_has_manual_control_dependencies"
    value {
      b: true
    }
  }
}
node {
  name: "model_9/dense_77/MatMul"
  op: "MatMul"
  input: "model_9/leaky_re_lu_38/LeakyRelu"
  input: "model_9/dense_77/MatMul/ReadVariableOp"
  attr {
    key: "T"
    value {
      type: DT_FLOAT
    }
  }
  attr {
    key: "transpose_a"
    value {
      b: false
    }
  }
  attr {
    key: "transpose_b"
    value {
      b: false
    }
  }
}
node {
  name: "model_9/dense_77/BiasAdd/ReadVariableOp"
  op: "Identity"
  input: "model_9/dense_77/BiasAdd/ReadVariableOp/resource"
  attr {
    key: "T"
    value {
      type: DT_FLOAT
    }
  }
  attr {
    key: "_has_manual_control_dependencies"
    value {
      b: true
    }
  }
}
node {
  name: "model_9/dense_77/BiasAdd"
  op: "BiasAdd"
  input: "model_9/dense_77/MatMul"
  input: "model_9/dense_77/BiasAdd/ReadVariableOp"
  attr {
    key: "T"
    value {
      type: DT_FLOAT
    }
  }
  attr {
    key: "data_format"
    value {
      s: "NHWC"
    }
  }
}
node {
  name: "model_9/leaky_re_lu_39/LeakyRelu"
  op: "LeakyRelu"
  input: "model_9/dense_77/BiasAdd"
  attr {
    key: "T"
    value {
      type: DT_FLOAT
    }
  }
  attr {
    key: "alpha"
    value {
      f: 0.009999999776482582
    }
  }
}
node {
  name: "model_9/batch_normalization_19/batchnorm/ReadVariableOp"
  op: "Identity"
  input: "model_9/batch_normalization_19/batchnorm/ReadVariableOp/resource"
  attr {
    key: "T"
    value {
      type: DT_FLOAT
    }
  }
  attr {
    key: "_has_manual_control_dependencies"
    value {
      b: true
    }
  }
}
node {
  name: "model_9/batch_normalization_19/batchnorm/add"
  op: "AddV2"
  input: "model_9/batch_normalization_19/batchnorm/ReadVariableOp"
  input: "model_9/batch_normalization_19/batchnorm/add/y"
  attr {
    key: "T"
    value {
      type: DT_FLOAT
    }
  }
}
node {
  name: "model_9/batch_normalization_19/batchnorm/Rsqrt"
  op: "Rsqrt"
  input: "model_9/batch_normalization_19/batchnorm/add"
  attr {
    key: "T"
    value {
      type: DT_FLOAT
    }
  }
}
node {
  name: "model_9/batch_normalization_19/batchnorm/mul/ReadVariableOp"
  op: "Identity"
  input: "model_9/batch_normalization_19/batchnorm/mul/ReadVariableOp/resource"
  attr {
    key: "T"
    value {
      type: DT_FLOAT
    }
  }
  attr {
    key: "_has_manual_control_dependencies"
    value {
      b: true
    }
  }
}
node {
  name: "model_9/batch_normalization_19/batchnorm/mul"
  op: "Mul"
  input: "model_9/batch_normalization_19/batchnorm/Rsqrt"
  input: "model_9/batch_normalization_19/batchnorm/mul/ReadVariableOp"
  attr {
    key: "T"
    value {
      type: DT_FLOAT
    }
  }
}
node {
  name: "model_9/batch_normalization_19/batchnorm/mul_1"
  op: "Mul"
  input: "model_9/leaky_re_lu_39/LeakyRelu"
  input: "model_9/batch_normalization_19/batchnorm/mul"
  attr {
    key: "T"
    value {
      type: DT_FLOAT
    }
  }
}
node {
  name: "model_9/batch_normalization_19/batchnorm/ReadVariableOp_2"
  op: "Identity"
  input: "model_9/batch_normalization_19/batchnorm/ReadVariableOp_2/resource"
  attr {
    key: "T"
    value {
      type: DT_FLOAT
    }
  }
  attr {
    key: "_has_manual_control_dependencies"
    value {
      b: true
    }
  }
}
node {
  name: "model_9/batch_normalization_19/batchnorm/ReadVariableOp_1"
  op: "Identity"
  input: "model_9/batch_normalization_19/batchnorm/ReadVariableOp_1/resource"
  attr {
    key: "T"
    value {
      type: DT_FLOAT
    }
  }
  attr {
    key: "_has_manual_control_dependencies"
    value {
      b: true
    }
  }
}
node {
  name: "model_9/batch_normalization_19/batchnorm/mul_2"
  op: "Mul"
  input: "model_9/batch_normalization_19/batchnorm/ReadVariableOp_1"
  input: "model_9/batch_normalization_19/batchnorm/mul"
  attr {
    key: "T"
    value {
      type: DT_FLOAT
    }
  }
}
node {
  name: "model_9/batch_normalization_19/batchnorm/sub"
  op: "Sub"
  input: "model_9/batch_normalization_19/batchnorm/ReadVariableOp_2"
  input: "model_9/batch_normalization_19/batchnorm/mul_2"
  attr {
    key: "T"
    value {
      type: DT_FLOAT
    }
  }
}
node {
  name: "model_9/batch_normalization_19/batchnorm/add_1"
  op: "AddV2"
  input: "model_9/batch_normalization_19/batchnorm/mul_1"
  input: "model_9/batch_normalization_19/batchnorm/sub"
  attr {
    key: "T"
    value {
      type: DT_FLOAT
    }
  }
}
node {
  name: "model_9/dropout_19/Identity"
  op: "Identity"
  input: "model_9/batch_normalization_19/batchnorm/add_1"
  attr {
    key: "T"
    value {
      type: DT_FLOAT
    }
  }
}
node {
  name: "model_9/dense_78/MatMul/ReadVariableOp"
  op: "Identity"
  input: "model_9/dense_78/MatMul/ReadVariableOp/resource"
  attr {
    key: "T"
    value {
      type: DT_FLOAT
    }
  }
  attr {
    key: "_has_manual_control_dependencies"
    value {
      b: true
    }
  }
}
node {
  name: "model_9/dense_78/MatMul"
  op: "MatMul"
  input: "model_9/concatenate_18/concat"
  input: "model_9/dense_78/MatMul/ReadVariableOp"
  attr {
    key: "T"
    value {
      type: DT_FLOAT
    }
  }
  attr {
    key: "transpose_a"
    value {
      b: false
    }
  }
  attr {
    key: "transpose_b"
    value {
      b: false
    }
  }
}
node {
  name: "model_9/dense_78/BiasAdd/ReadVariableOp"
  op: "Identity"
  input: "model_9/dense_78/BiasAdd/ReadVariableOp/resource"
  attr {
    key: "T"
    value {
      type: DT_FLOAT
    }
  }
  attr {
    key: "_has_manual_control_dependencies"
    value {
      b: true
    }
  }
}
node {
  name: "model_9/dense_78/BiasAdd"
  op: "BiasAdd"
  input: "model_9/dense_78/MatMul"
  input: "model_9/dense_78/BiasAdd/ReadVariableOp"
  attr {
    key: "T"
    value {
      type: DT_FLOAT
    }
  }
  attr {
    key: "data_format"
    value {
      s: "NHWC"
    }
  }
}
node {
  name: "model_9/add_19/add"
  op: "AddV2"
  input: "model_9/dropout_19/Identity"
  input: "model_9/dense_78/BiasAdd"
  attr {
    key: "T"
    value {
      type: DT_FLOAT
    }
  }
}
node {
  name: "model_9/dense_79/MatMul/ReadVariableOp"
  op: "Identity"
  input: "model_9/dense_79/MatMul/ReadVariableOp/resource"
  attr {
    key: "T"
    value {
      type: DT_FLOAT
    }
  }
  attr {
    key: "_has_manual_control_dependencies"
    value {
      b: true
    }
  }
}
node {
  name: "model_9/dense_79/MatMul"
  op: "MatMul"
  input: "model_9/add_19/add"
  input: "model_9/dense_79/MatMul/ReadVariableOp"
  attr {
    key: "T"
    value {
      type: DT_FLOAT
    }
  }
  attr {
    key: "transpose_a"
    value {
      b: false
    }
  }
  attr {
    key: "transpose_b"
    value {
      b: false
    }
  }
}
node {
  name: "model_9/dense_79/BiasAdd/ReadVariableOp"
  op: "Identity"
  input: "model_9/dense_79/BiasAdd/ReadVariableOp/resource"
  attr {
    key: "T"
    value {
      type: DT_FLOAT
    }
  }
  attr {
    key: "_has_manual_control_dependencies"
    value {
      b: true
    }
  }
}
node {
  name: "model_9/dense_79/BiasAdd"
  op: "BiasAdd"
  input: "model_9/dense_79/MatMul"
  input: "model_9/dense_79/BiasAdd/ReadVariableOp"
  attr {
    key: "T"
    value {
      type: DT_FLOAT
    }
  }
  attr {
    key: "data_format"
    value {
      s: "NHWC"
    }
  }
}
node {
  name: "model_9/dense_79/Softplus"
  op: "Softplus"
  input: "model_9/dense_79/BiasAdd"
  attr {
    key: "T"
    value {
      type: DT_FLOAT
    }
  }
}
node {
  name: "model_9/tf.clip_by_value_9/clip_by_value/Minimum"
  op: "Minimum"
  input: "model_9/dense_79/Softplus"
  input: "model_9/tf.clip_by_value_9/clip_by_value/Minimum/y"
  attr {
    key: "T"
    value {
      type: DT_FLOAT
    }
  }
}
node {
  name: "model_9/tf.clip_by_value_9/clip_by_value"
  op: "Maximum"
  input: "model_9/tf.clip_by_value_9/clip_by_value/Minimum"
  input: "model_9/tf.clip_by_value_9/clip_by_value/y"
  attr {
    key: "T"
    value {
      type: DT_FLOAT
    }
  }
}
node {
  name: "model_9/concatenate_19/concat"
  op: "ConcatV2"
  input: "model_9/dense_75/BiasAdd"
  input: "model_9/tf.clip_by_value_9/clip_by_value"
  input: "model_9/concatenate_19/concat/axis"
  attr {
    key: "N"
    value {
      i: 2
    }
  }
  attr {
    key: "T"
    value {
      type: DT_FLOAT
    }
  }
  attr {
    key: "Tidx"
    value {
      type: DT_INT32
    }
  }
}
node {
  name: "NoOp"
  op: "NoOp"
  input: "^model_9/batch_normalization_18/batchnorm/ReadVariableOp"
  input: "^model_9/batch_normalization_18/batchnorm/ReadVariableOp_1"
  input: "^model_9/batch_normalization_18/batchnorm/ReadVariableOp_2"
  input: "^model_9/batch_normalization_18/batchnorm/mul/ReadVariableOp"
  input: "^model_9/batch_normalization_19/batchnorm/ReadVariableOp"
  input: "^model_9/batch_normalization_19/batchnorm/ReadVariableOp_1"
  input: "^model_9/batch_normalization_19/batchnorm/ReadVariableOp_2"
  input: "^model_9/batch_normalization_19/batchnorm/mul/ReadVariableOp"
  input: "^model_9/dense_72/BiasAdd/ReadVariableOp"
  input: "^model_9/dense_72/MatMul/ReadVariableOp"
  input: "^model_9/dense_73/BiasAdd/ReadVariableOp"
  input: "^model_9/dense_73/MatMul/ReadVariableOp"
  input: "^model_9/dense_74/BiasAdd/ReadVariableOp"
  input: "^model_9/dense_74/MatMul/ReadVariableOp"
  input: "^model_9/dense_75/BiasAdd/ReadVariableOp"
  input: "^model_9/dense_75/MatMul/ReadVariableOp"
  input: "^model_9/dense_76/BiasAdd/ReadVariableOp"
  input: "^model_9/dense_76/MatMul/ReadVariableOp"
  input: "^model_9/dense_77/BiasAdd/ReadVariableOp"
  input: "^model_9/dense_77/MatMul/ReadVariableOp"
  input: "^model_9/dense_78/BiasAdd/ReadVariableOp"
  input: "^model_9/dense_78/MatMul/ReadVariableOp"
  input: "^model_9/dense_79/BiasAdd/ReadVariableOp"
  input: "^model_9/dense_79/MatMul/ReadVariableOp"
  attr {
    key: "_has_manual_control_dependencies"
    value {
      b: true
    }
  }
}
node {
  name: "Identity"
  op: "Identity"
  input: "model_9/concatenate_19/concat"
  input: "^NoOp"
  attr {
    key: "T"
    value {
      type: DT_FLOAT
    }
  }
}
versions {
  producer: 1482
}
