node {
  name: "pixel_projection_y"
  op: "Placeholder"
  attr {
    key: "dtype"
    value {
      type: DT_FLOAT
    }
  }
  attr {
    key: "shape"
    value {
      shape {
        dim {
          size: -1
        }
        dim {
          size: 21
        }
        dim {
          size: 1
        }
      }
    }
  }
}
node {
  name: "angles"
  op: "Placeholder"
  attr {
    key: "dtype"
    value {
      type: DT_FLOAT
    }
  }
  attr {
    key: "shape"
    value {
      shape {
        dim {
          size: -1
        }
        dim {
          size: 2
        }
      }
    }
  }
}
node {
  name: "cluster_charge"
  op: "Placeholder"
  attr {
    key: "dtype"
    value {
      type: DT_FLOAT
    }
  }
  attr {
    key: "shape"
    value {
      shape {
        dim {
          size: -1
        }
        dim {
          size: 1
        }
      }
    }
  }
}
node {
  name: "model_11/flatten_11/Const"
  op: "Const"
  attr {
    key: "dtype"
    value {
      type: DT_INT32
    }
  }
  attr {
    key: "value"
    value {
      tensor {
        dtype: DT_INT32
        tensor_shape {
          dim {
            size: 2
          }
        }
        tensor_content: "\377\377\377\377\025\000\000\000"
      }
    }
  }
}
node {
  name: "model_11/concatenate_22/concat/axis"
  op: "Const"
  attr {
    key: "dtype"
    value {
      type: DT_INT32
    }
  }
  attr {
    key: "value"
    value {
      tensor {
        dtype: DT_INT32
        tensor_shape {
        }
        int_val: 1
      }
    }
  }
}
node {
  name: "model_11/dense_88/MatMul/ReadVariableOp/resource"
  op: "Const"
  attr {
    key: "dtype"
    value {
      type: DT_FLOAT
    }
  }
  attr {
    key: "value"
    value {
      tensor {
        dtype: DT_FLOAT
        tensor_shape {
          dim {
            size: 24
          }
          dim {
            size: 192
          }
        }
        tensor_content: "…"
      }
    }
  }
}
node {
  name: "model_11/dense_88/BiasAdd/ReadVariableOp/resource"
  op: "Const"
  attr {
    key: "dtype"
    value {
      type: DT_FLOAT
    }
  }
  attr {
    key: "value"
    value {
      tensor {
        dtype: DT_FLOAT
        tensor_shape {
          dim {
            size: 192
          }
        }
        tensor_content: "…"
      }
    }
  }
}
node {
  name: "model_11/dense_89/MatMul/ReadVariableOp/resource"
  op: "Const"
  attr {
    key: "dtype"
    value {
      type: DT_FLOAT
    }
  }
  attr {
    key: "value"
    value {
      tensor {
        dtype: DT_FLOAT
        tensor_shape {
          dim {
            size: 192
          }
          dim {
            size: 96
          }
        }
        tensor_content: "…"
      }
    }
  }
}
node {
  name: "model_11/dense_89/BiasAdd/ReadVariableOp/resource"
  op: "Const"
  attr {
    key: "dtype"
    value {
      type: DT_FLOAT
    }
  }
  attr {
    key: "value"
    value {
      tensor {
        dtype: DT_FLOAT
        tensor_shape {
          dim {
            size: 96
          }
        }
        tensor_content: "…"
      }
    }
  }
}
node {
  name: "model_11/batch_normalization_22/batchnorm/ReadVariableOp/resource"
  op: "Const"
  attr {
    key: "dtype"
    value {
      type: DT_FLOAT
    }
  }
  attr {
    key: "value"
    value {
      tensor {
        dtype: DT_FLOAT
        tensor_shape {
          dim {
            size: 96
          }
        }
        tensor_content: "…"
      }
    }
  }
}
node {
  name: "model_11/batch_normalization_22/batchnorm/add/y"
  op: "Const"
  attr {
    key: "dtype"
    value {
      type: DT_FLOAT
    }
  }
  attr {
    key: "value"
    value {
      tensor {
        dtype: DT_FLOAT
        tensor_shape {
        }
        float_val: 0.0010000000474974513
      }
    }
  }
}
node {
  name: "model_11/batch_normalization_22/batchnorm/mul/ReadVariableOp/resource"
  op: "Const"
  attr {
    key: "dtype"
    value {
      type: DT_FLOAT
    }
  }
  attr {
    key: "value"
    value {
      tensor {
        dtype: DT_FLOAT
        tensor_shape {
          dim {
            size: 96
          }
        }
        tensor_content: "…"
      }
    }
  }
}
node {
  name: "model_11/batch_normalization_22/batchnorm/ReadVariableOp_2/resource"
  op: "Const"
  attr {
    key: "dtype"
    value {
      type: DT_FLOAT
    }
  }
  attr {
    key: "value"
    value {
      tensor {
        dtype: DT_FLOAT
        tensor_shape {
          dim {
            size: 96
          }
        }
        tensor_content: "…"
      }
    }
  }
}
node {
  name: "model_11/batch_normalization_22/batchnorm/ReadVariableOp_1/resource"
  op: "Const"
  attr {
    key: "dtype"
    value {
      type: DT_FLOAT
    }
  }
  attr {
    key: "value"
    value {
      tensor {
        dtype: DT_FLOAT
        tensor_shape {
          dim {
            size: 96
          }
        }
        tensor_content: "…"
      }
    }
  }
}
node {
  name: "model_11/dense_90/MatMul/ReadVariableOp/resource"
  op: "Const"
  attr {
    key: "dtype"
    value {
      type: DT_FLOAT
    }
  }
  attr {
    key: "value"
    value {
      tensor {
        dtype: DT_FLOAT
        tensor_shape {
          dim {
            size: 24
          }
          dim {
            size: 96
          }
        }
        tensor_content: "…"
      }
    }
  }
}
node {
  name: "model_11/dense_90/BiasAdd/ReadVariableOp/resource"
  op: "Const"
  attr {
    key: "dtype"
    value {
      type: DT_FLOAT
    }
  }
  attr {
    key: "value"
    value {
      tensor {
        dtype: DT_FLOAT
        tensor_shape {
          dim {
            size: 96
          }
        }
        tensor_content: "…"
      }
    }
  }
}
node {
  name: "model_11/dense_91/MatMul/ReadVariableOp/resource"
  op: "Const"
  attr {
    key: "dtype"
    value {
      type: DT_FLOAT
    }
  }
  attr {
    key: "value"
    value {
      tensor {
        dtype: DT_FLOAT
        tensor_shape {
          dim {
            size: 96
          }
          dim {
            size: 1
          }
        }
        tensor_content: "…"
      }
    }
  }
}
node {
  name: "model_11/dense_91/BiasAdd/ReadVariableOp/resource"
  op: "Const"
  attr {
    key: "dtype"
    value {
      type: DT_FLOAT
    }
  }
  attr {
    key: "value"
    value {
      tensor {
        dtype: DT_FLOAT
        tensor_shape {
          dim {
            size: 1
          }
        }
        float_val: -0.019038496538996696
      }
    }
  }
}
node {
  name: "model_11/dense_92/MatMul/ReadVariableOp/resource"
  op: "Const"
  attr {
    key: "dtype"
    value {
      type: DT_FLOAT
    }
  }
  attr {
    key: "value"
    value {
      tensor {
        dtype: DT_FLOAT
        tensor_shape {
          dim {
            size: 24
          }
          dim {
            size: 192
          }
        }
        tensor_content: "…"
      }
    }
  }
}
node {
  name: "model_11/dense_92/BiasAdd/ReadVariableOp/resource"
  op: "Const"
  attr {
    key: "dtype"
    value {
      type: DT_FLOAT
    }
  }
  attr {
    key: "value"
    value {
      tensor {
        dtype: DT_FLOAT
        tensor_shape {
          dim {
            size: 192
          }
        }
        tensor_content: "…"
      }
    }
  }
}
node {
  name: "model_11/dense_93/MatMul/ReadVariableOp/resource"
  op: "Const"
  attr {
    key: "dtype"
    value {
      type: DT_FLOAT
    }
  }
  attr {
    key: "value"
    value {
      tensor {
        dtype: DT_FLOAT
        tensor_shape {
          dim {
            size: 192
          }
          dim {
            size: 96
          }
        }
        tensor_content: "…"
      }
    }
  }
}
node {
  name: "model_11/dense_93/BiasAdd/ReadVariableOp/resource"
  op: "Const"
  attr {
    key: "dtype"
    value {
      type: DT_FLOAT
    }
  }
  attr {
    key: "value"
    value {
      tensor {
        dtype: DT_FLOAT
        tensor_shape {
          dim {
            size: 96
          }
        }
        tensor_content: "…"
      }
    }
  }
}
node {
  name: "model_11/batch_normalization_23/batchnorm/ReadVariableOp/resource"
  op: "Const"
  attr {
    key: "dtype"
    value {
      type: DT_FLOAT
    }
  }
  attr {
    key: "value"
    value {
      tensor {
        dtype: DT_FLOAT
        tensor_shape {
          dim {
            size: 96
          }
        }
        tensor_content: "…"
      }
    }
  }
}
node {
  name: "model_11/batch_normalization_23/batchnorm/add/y"
  op: "Const"
  attr {
    key: "dtype"
    value {
      type: DT_FLOAT
    }
  }
  attr {
    key: "value"
    value {
      tensor {
        dtype: DT_FLOAT
        tensor_shape {
        }
        float_val: 0.0010000000474974513
      }
    }
  }
}
node {
  name: "model_11/batch_normalization_23/batchnorm/mul/ReadVariableOp/resource"
  op: "Const"
  attr {
    key: "dtype"
    value {
      type: DT_FLOAT
    }
  }
  attr {
    key: "value"
    value {
      tensor {
        dtype: DT_FLOAT
        tensor_shape {
          dim {
            size: 96
          }
        }
        tensor_content: "…"
      }
    }
  }
}
node {
  name: "model_11/batch_normalization_23/batchnorm/ReadVariableOp_2/resource"
  op: "Const"
  attr {
    key: "dtype"
    value {
      type: DT_FLOAT
    }
  }
  attr {
    key: "value"
    value {
      tensor {
        dtype: DT_FLOAT
        tensor_shape {
          dim {
            size: 96
          }
        }
        tensor_content: "…"
      }
    }
  }
}
node {
  name: "model_11/batch_normalization_23/batchnorm/ReadVariableOp_1/resource"
  op: "Const"
  attr {
    key: "dtype"
    value {
      type: DT_FLOAT
    }
  }
  attr {
    key: "value"
    value {
      tensor {
        dtype: DT_FLOAT
        tensor_shape {
          dim {
            size: 96
          }
        }
        tensor_content: "…"
      }
    }
  }
}
node {
  name: "model_11/dense_94/MatMul/ReadVariableOp/resource"
  op: "Const"
  attr {
    key: "dtype"
    value {
      type: DT_FLOAT
    }
  }
  attr {
    key: "value"
    value {
      tensor {
        dtype: DT_FLOAT
        tensor_shape {
          dim {
            size: 24
          }
          dim {
            size: 96
          }
        }
        tensor_content: "…"
      }
    }
  }
}
node {
  name: "model_11/dense_94/BiasAdd/ReadVariableOp/resource"
  op: "Const"
  attr {
    key: "dtype"
    value {
      type: DT_FLOAT
    }
  }
  attr {
    key: "value"
    value {
      tensor {
        dtype: DT_FLOAT
        tensor_shape {
          dim {
            size: 96
          }
        }
        tensor_content: "…"
      }
    }
  }
}
node {
  name: "model_11/dense_95/MatMul/ReadVariableOp/resource"
  op: "Const"
  attr {
    key: "dtype"
    value {
      type: DT_FLOAT
    }
  }
  attr {
    key: "value"
    value {
      tensor {
        dtype: DT_FLOAT
        tensor_shape {
          dim {
            size: 96
          }
          dim {
            size: 1
          }
        }
        tensor_content: "…"
      }
    }
  }
}
node {
  name: "model_11/dense_95/BiasAdd/ReadVariableOp/resource"
  op: "Const"
  attr {
    key: "dtype"
    value {
      type: DT_FLOAT
    }
  }
  attr {
    key: "value"
    value {
      tensor {
        dtype: DT_FLOAT
        tensor_shape {
          dim {
            size: 1
          }
        }
        float_val: 0.08404994010925293
      }
    }
  }
}
node {
  name: "model_11/tf.clip_by_value_11/clip_by_value/Minimum/y"
  op: "Const"
  attr {
    key: "dtype"
    value {
      type: DT_FLOAT
    }
  }
  attr {
    key: "value"
    value {
      tensor {
        dtype: DT_FLOAT
        tensor_shape {
        }
        float_val: 120.0
      }
    }
  }
}
node {
  name: "model_11/tf.clip_by_value_11/clip_by_value/y"
  op: "Const"
  attr {
    key: "dtype"
    value {
      type: DT_FLOAT
    }
  }
  attr {
    key: "value"
    value {
      tensor {
        dtype: DT_FLOAT
        tensor_shape {
        }
        float_val: 3.0
      }
    }
  }
}
node {
  name: "model_11/concatenate_23/concat/axis"
  op: "Const"
  attr {
    key: "dtype"
    value {
      type: DT_INT32
    }
  }
  attr {
    key: "value"
    value {
      tensor {
        dtype: DT_INT32
        tensor_shape {
        }
        int_val: 1
      }
    }
  }
}
node {
  name: "model_11/flatten_11/Reshape"
  op: "Reshape"
  input: "pixel_projection_y"
  input: "model_11/flatten_11/Const"
  attr {
    key: "T"
    value {
      type: DT_FLOAT
    }
  }
  attr {
    key: "Tshape"
    value {
      type: DT_INT32
    }
  }
}
node {
  name: "model_11/concatenate_22/concat"
  op: "ConcatV2"
  input: "model_11/flatten_11/Reshape"
  input: "angles"
  input: "cluster_charge"
  input: "model_11/concatenate_22/concat/axis"
  attr {
    key: "N"
    value {
      i: 3
    }
  }
  attr {
    key: "T"
    value {
      type: DT_FLOAT
    }
  }
  attr {
    key: "Tidx"
    value {
      type: DT_INT32
    }
  }
}
node {
  name: "model_11/dense_88/MatMul/ReadVariableOp"
  op: "Identity"
  input: "model_11/dense_88/MatMul/ReadVariableOp/resource"
  attr {
    key: "T"
    value {
      type: DT_FLOAT
    }
  }
  attr {
    key: "_has_manual_control_dependencies"
    value {
      b: true
    }
  }
}
node {
  name: "model_11/dense_88/MatMul"
  op: "MatMul"
  input: "model_11/concatenate_22/concat"
  input: "model_11/dense_88/MatMul/ReadVariableOp"
  attr {
    key: "T"
    value {
      type: DT_FLOAT
    }
  }
  attr {
    key: "transpose_a"
    value {
      b: false
    }
  }
  attr {
    key: "transpose_b"
    value {
      b: false
    }
  }
}
node {
  name: "model_11/dense_88/BiasAdd/ReadVariableOp"
  op: "Identity"
  input: "model_11/dense_88/BiasAdd/ReadVariableOp/resource"
  attr {
    key: "T"
    value {
      type: DT_FLOAT
    }
  }
  attr {
    key: "_has_manual_control_dependencies"
    value {
      b: true
    }
  }
}
node {
  name: "model_11/dense_88/BiasAdd"
  op: "BiasAdd"
  input: "model_11/dense_88/MatMul"
  input: "model_11/dense_88/BiasAdd/ReadVariableOp"
  attr {
    key: "T"
    value {
      type: DT_FLOAT
    }
  }
  attr {
    key: "data_format"
    value {
      s: "NHWC"
    }
  }
}
node {
  name: "model_11/leaky_re_lu_44/LeakyRelu"
  op: "LeakyRelu"
  input: "model_11/dense_88/BiasAdd"
  attr {
    key: "T"
    value {
      type: DT_FLOAT
    }
  }
  attr {
    key: "alpha"
    value {
      f: 0.009999999776482582
    }
  }
}
node {
  name: "model_11/dense_89/MatMul/ReadVariableOp"
  op: "Identity"
  input: "model_11/dense_89/MatMul/ReadVariableOp/resource"
  attr {
    key: "T"
    value {
      type: DT_FLOAT
    }
  }
  attr {
    key: "_has_manual_control_dependencies"
    value {
      b: true
    }
  }
}
node {
  name: "model_11/dense_89/MatMul"
  op: "MatMul"
  input: "model_11/leaky_re_lu_44/LeakyRelu"
  input: "model_11/dense_89/MatMul/ReadVariableOp"
  attr {
    key: "T"
    value {
      type: DT_FLOAT
    }
  }
  attr {
    key: "transpose_a"
    value {
      b: false
    }
  }
  attr {
    key: "transpose_b"
    value {
      b: false
    }
  }
}
node {
  name: "model_11/dense_89/BiasAdd/ReadVariableOp"
  op: "Identity"
  input: "model_11/dense_89/BiasAdd/ReadVariableOp/resource"
  attr {
    key: "T"
    value {
      type: DT_FLOAT
    }
  }
  attr {
    key: "_has_manual_control_dependencies"
    value {
      b: true
    }
  }
}
node {
  name: "model_11/dense_89/BiasAdd"
  op: "BiasAdd"
  input: "model_11/dense_89/MatMul"
  input: "model_11/dense_89/BiasAdd/ReadVariableOp"
  attr {
    key: "T"
    value {
      type: DT_FLOAT
    }
  }
  attr {
    key: "data_format"
    value {
      s: "NHWC"
    }
  }
}
node {
  name: "model_11/leaky_re_lu_45/LeakyRelu"
  op: "LeakyRelu"
  input: "model_11/dense_89/BiasAdd"
  attr {
    key: "T"
    value {
      type: DT_FLOAT
    }
  }
  attr {
    key: "alpha"
    value {
      f: 0.009999999776482582
    }
  }
}
node {
  name: "model_11/batch_normalization_22/batchnorm/ReadVariableOp"
  op: "Identity"
  input: "model_11/batch_normalization_22/batchnorm/ReadVariableOp/resource"
  attr {
    key: "T"
    value {
      type: DT_FLOAT
    }
  }
  attr {
    key: "_has_manual_control_dependencies"
    value {
      b: true
    }
  }
}
node {
  name: "model_11/batch_normalization_22/batchnorm/add"
  op: "AddV2"
  input: "model_11/batch_normalization_22/batchnorm/ReadVariableOp"
  input: "model_11/batch_normalization_22/batchnorm/add/y"
  attr {
    key: "T"
    value {
      type: DT_FLOAT
    }
  }
}
node {
  name: "model_11/batch_normalization_22/batchnorm/Rsqrt"
  op: "Rsqrt"
  input: "model_11/batch_normalization_22/batchnorm/add"
  attr {
    key: "T"
    value {
      type: DT_FLOAT
    }
  }
}
node {
  name: "model_11/batch_normalization_22/batchnorm/mul/ReadVariableOp"
  op: "Identity"
  input: "model_11/batch_normalization_22/batchnorm/mul/ReadVariableOp/resource"
  attr {
    key: "T"
    value {
      type: DT_FLOAT
    }
  }
  attr {
    key: "_has_manual_control_dependencies"
    value {
      b: true
    }
  }
}
node {
  name: "model_11/batch_normalization_22/batchnorm/mul"
  op: "Mul"
  input: "model_11/batch_normalization_22/batchnorm/Rsqrt"
  input: "model_11/batch_normalization_22/batchnorm/mul/ReadVariableOp"
  attr {
    key: "T"
    value {
      type: DT_FLOAT
    }
  }
}
node {
  name: "model_11/batch_normalization_22/batchnorm/mul_1"
  op: "Mul"
  input: "model_11/leaky_re_lu_45/LeakyRelu"
  input: "model_11/batch_normalization_22/batchnorm/mul"
  attr {
    key: "T"
    value {
      type: DT_FLOAT
    }
  }
}
node {
  name: "model_11/batch_normalization_22/batchnorm/ReadVariableOp_2"
  op: "Identity"
  input: "model_11/batch_normalization_22/batchnorm/ReadVariableOp_2/resource"
  attr {
    key: "T"
    value {
      type: DT_FLOAT
    }
  }
  attr {
    key: "_has_manual_control_dependencies"
    value {
      b: true
    }
  }
}
node {
  name: "model_11/batch_normalization_22/batchnorm/ReadVariableOp_1"
  op: "Identity"
  input: "model_11/batch_normalization_22/batchnorm/ReadVariableOp_1/resource"
  attr {
    key: "T"
    value {
      type: DT_FLOAT
    }
  }
  attr {
    key: "_has_manual_control_dependencies"
    value {
      b: true
    }
  }
}
node {
  name: "model_11/batch_normalization_22/batchnorm/mul_2"
  op: "Mul"
  input: "model_11/batch_normalization_22/batchnorm/ReadVariableOp_1"
  input: "model_11/batch_normalization_22/batchnorm/mul"
  attr {
    key: "T"
    value {
      type: DT_FLOAT
    }
  }
}
node {
  name: "model_11/batch_normalization_22/batchnorm/sub"
  op: "Sub"
  input: "model_11/batch_normalization_22/batchnorm/ReadVariableOp_2"
  input: "model_11/batch_normalization_22/batchnorm/mul_2"
  attr {
    key: "T"
    value {
      type: DT_FLOAT
    }
  }
}
node {
  name: "model_11/batch_normalization_22/batchnorm/add_1"
  op: "AddV2"
  input: "model_11/batch_normalization_22/batchnorm/mul_1"
  input: "model_11/batch_normalization_22/batchnorm/sub"
  attr {
    key: "T"
    value {
      type: DT_FLOAT
    }
  }
}
node {
  name: "model_11/dropout_22/Identity"
  op: "Identity"
  input: "model_11/batch_normalization_22/batchnorm/add_1"
  attr {
    key: "T"
    value {
      type: DT_FLOAT
    }
  }
}
node {
  name: "model_11/dense_90/MatMul/ReadVariableOp"
  op: "Identity"
  input: "model_11/dense_90/MatMul/ReadVariableOp/resource"
  attr {
    key: "T"
    value {
      type: DT_FLOAT
    }
  }
  attr {
    key: "_has_manual_control_dependencies"
    value {
      b: true
    }
  }
}
node {
  name: "model_11/dense_90/MatMul"
  op: "MatMul"
  input: "model_11/concatenate_22/concat"
  input: "model_11/dense_90/MatMul/ReadVariableOp"
  attr {
    key: "T"
    value {
      type: DT_FLOAT
    }
  }
  attr {
    key: "transpose_a"
    value {
      b: false
    }
  }
  attr {
    key: "transpose_b"
    value {
      b: false
    }
  }
}
node {
  name: "model_11/dense_90/BiasAdd/ReadVariableOp"
  op: "Identity"
  input: "model_11/dense_90/BiasAdd/ReadVariableOp/resource"
  attr {
    key: "T"
    value {
      type: DT_FLOAT
    }
  }
  attr {
    key: "_has_manual_control_dependencies"
    value {
      b: true
    }
  }
}
node {
  name: "model_11/dense_90/BiasAdd"
  op: "BiasAdd"
  input: "model_11/dense_90/MatMul"
  input: "model_11/dense_90/BiasAdd/ReadVariableOp"
  attr {
    key: "T"
    value {
      type: DT_FLOAT
    }
  }
  attr {
    key: "data_format"
    value {
      s: "NHWC"
    }
  }
}
node {
  name: "model_11/add_22/add"
  op: "AddV2"
  input: "model_11/dropout_22/Identity"
  input: "model_11/dense_90/BiasAdd"
  attr {
    key: "T"
    value {
      type: DT_FLOAT
    }
  }
}
node {
  name: "model_11/dense_91/MatMul/ReadVariableOp"
  op: "Identity"
  input: "model_11/dense_91/MatMul/ReadVariableOp/resource"
  attr {
    key: "T"
    value {
      type: DT_FLOAT
    }
  }
  attr {
    key: "_has_manual_control_dependencies"
    value {
      b: true
    }
  }
}
node {
  name: "model_11/dense_91/MatMul"
  op: "MatMul"
  input: "model_11/add_22/add"
  input: "model_11/dense_91/MatMul/ReadVariableOp"
  attr {
    key: "T"
    value {
      type: DT_FLOAT
    }
  }
  attr {
    key: "transpose_a"
    value {
      b: false
    }
  }
  attr {
    key: "transpose_b"
    value {
      b: false
    }
  }
}
node {
  name: "model_11/dense_91/BiasAdd/ReadVariableOp"
  op: "Identity"
  input: "model_11/dense_91/BiasAdd/ReadVariableOp/resource"
  attr {
    key: "T"
    value {
      type: DT_FLOAT
    }
  }
  attr {
    key: "_has_manual_control_dependencies"
    value {
      b: true
    }
  }
}
node {
  name: "model_11/dense_91/BiasAdd"
  op: "BiasAdd"
  input: "model_11/dense_91/MatMul"
  input: "model_11/dense_91/BiasAdd/ReadVariableOp"
  attr {
    key: "T"
    value {
      type: DT_FLOAT
    }
  }
  attr {
    key: "data_format"
    value {
      s: "NHWC"
    }
  }
}
node {
  name: "model_11/dense_92/MatMul/ReadVariableOp"
  op: "Identity"
  input: "model_11/dense_92/MatMul/ReadVariableOp/resource"
  attr {
    key: "T"
    value {
      type: DT_FLOAT
    }
  }
  attr {
    key: "_has_manual_control_dependencies"
    value {
      b: true
    }
  }
}
node {
  name: "model_11/dense_92/MatMul"
  op: "MatMul"
  input: "model_11/concatenate_22/concat"
  input: "model_11/dense_92/MatMul/ReadVariableOp"
  attr {
    key: "T"
    value {
      type: DT_FLOAT
    }
  }
  attr {
    key: "transpose_a"
    value {
      b: false
    }
  }
  attr {
    key: "transpose_b"
    value {
      b: false
    }
  }
}
node {
  name: "model_11/dense_92/BiasAdd/ReadVariableOp"
  op: "Identity"
  input: "model_11/dense_92/BiasAdd/ReadVariableOp/resource"
  attr {
    key: "T"
    value {
      type: DT_FLOAT
    }
  }
  attr {
    key: "_has_manual_control_dependencies"
    value {
      b: true
    }
  }
}
node {
  name: "model_11/dense_92/BiasAdd"
  op: "BiasAdd"
  input: "model_11/dense_92/MatMul"
  input: "model_11/dense_92/BiasAdd/ReadVariableOp"
  attr {
    key: "T"
    value {
      type: DT_FLOAT
    }
  }
  attr {
    key: "data_format"
    value {
      s: "NHWC"
    }
  }
}
node {
  name: "model_11/leaky_re_lu_46/LeakyRelu"
  op: "LeakyRelu"
  input: "model_11/dense_92/BiasAdd"
  attr {
    key: "T"
    value {
      type: DT_FLOAT
    }
  }
  attr {
    key: "alpha"
    value {
      f: 0.009999999776482582
    }
  }
}
node {
  name: "model_11/dense_93/MatMul/ReadVariableOp"
  op: "Identity"
  input: "model_11/dense_93/MatMul/ReadVariableOp/resource"
  attr {
    key: "T"
    value {
      type: DT_FLOAT
    }
  }
  attr {
    key: "_has_manual_control_dependencies"
    value {
      b: true
    }
  }
}
node {
  name: "model_11/dense_93/MatMul"
  op: "MatMul"
  input: "model_11/leaky_re_lu_46/LeakyRelu"
  input: "model_11/dense_93/MatMul/ReadVariableOp"
  attr {
    key: "T"
    value {
      type: DT_FLOAT
    }
  }
  attr {
    key: "transpose_a"
    value {
      b: false
    }
  }
  attr {
    key: "transpose_b"
    value {
      b: false
    }
  }
}
node {
  name: "model_11/dense_93/BiasAdd/ReadVariableOp"
  op: "Identity"
  input: "model_11/dense_93/BiasAdd/ReadVariableOp/resource"
  attr {
    key: "T"
    value {
      type: DT_FLOAT
    }
  }
  attr {
    key: "_has_manual_control_dependencies"
    value {
      b: true
    }
  }
}
node {
  name: "model_11/dense_93/BiasAdd"
  op: "BiasAdd"
  input: "model_11/dense_93/MatMul"
  input: "model_11/dense_93/BiasAdd/ReadVariableOp"
  attr {
    key: "T"
    value {
      type: DT_FLOAT
    }
  }
  attr {
    key: "data_format"
    value {
      s: "NHWC"
    }
  }
}
node {
  name: "model_11/leaky_re_lu_47/LeakyRelu"
  op: "LeakyRelu"
  input: "model_11/dense_93/BiasAdd"
  attr {
    key: "T"
    value {
      type: DT_FLOAT
    }
  }
  attr {
    key: "alpha"
    value {
      f: 0.009999999776482582
    }
  }
}
node {
  name: "model_11/batch_normalization_23/batchnorm/ReadVariableOp"
  op: "Identity"
  input: "model_11/batch_normalization_23/batchnorm/ReadVariableOp/resource"
  attr {
    key: "T"
    value {
      type: DT_FLOAT
    }
  }
  attr {
    key: "_has_manual_control_dependencies"
    value {
      b: true
    }
  }
}
node {
  name: "model_11/batch_normalization_23/batchnorm/add"
  op: "AddV2"
  input: "model_11/batch_normalization_23/batchnorm/ReadVariableOp"
  input: "model_11/batch_normalization_23/batchnorm/add/y"
  attr {
    key: "T"
    value {
      type: DT_FLOAT
    }
  }
}
node {
  name: "model_11/batch_normalization_23/batchnorm/Rsqrt"
  op: "Rsqrt"
  input: "model_11/batch_normalization_23/batchnorm/add"
  attr {
    key: "T"
    value {
      type: DT_FLOAT
    }
  }
}
node {
  name: "model_11/batch_normalization_23/batchnorm/mul/ReadVariableOp"
  op: "Identity"
  input: "model_11/batch_normalization_23/batchnorm/mul/ReadVariableOp/resource"
  attr {
    key: "T"
    value {
      type: DT_FLOAT
    }
  }
  attr {
    key: "_has_manual_control_dependencies"
    value {
      b: true
    }
  }
}
node {
  name: "model_11/batch_normalization_23/batchnorm/mul"
  op: "Mul"
  input: "model_11/batch_normalization_23/batchnorm/Rsqrt"
  input: "model_11/batch_normalization_23/batchnorm/mul/ReadVariableOp"
  attr {
    key: "T"
    value {
      type: DT_FLOAT
    }
  }
}
node {
  name: "model_11/batch_normalization_23/batchnorm/mul_1"
  op: "Mul"
  input: "model_11/leaky_re_lu_47/LeakyRelu"
  input: "model_11/batch_normalization_23/batchnorm/mul"
  attr {
    key: "T"
    value {
      type: DT_FLOAT
    }
  }
}
node {
  name: "model_11/batch_normalization_23/batchnorm/ReadVariableOp_2"
  op: "Identity"
  input: "model_11/batch_normalization_23/batchnorm/ReadVariableOp_2/resource"
  attr {
    key: "T"
    value {
      type: DT_FLOAT
    }
  }
  attr {
    key: "_has_manual_control_dependencies"
    value {
      b: true
    }
  }
}
node {
  name: "model_11/batch_normalization_23/batchnorm/ReadVariableOp_1"
  op: "Identity"
  input: "model_11/batch_normalization_23/batchnorm/ReadVariableOp_1/resource"
  attr {
    key: "T"
    value {
      type: DT_FLOAT
    }
  }
  attr {
    key: "_has_manual_control_dependencies"
    value {
      b: true
    }
  }
}
node {
  name: "model_11/batch_normalization_23/batchnorm/mul_2"
  op: "Mul"
  input: "model_11/batch_normalization_23/batchnorm/ReadVariableOp_1"
  input: "model_11/batch_normalization_23/batchnorm/mul"
  attr {
    key: "T"
    value {
      type: DT_FLOAT
    }
  }
}
node {
  name: "model_11/batch_normalization_23/batchnorm/sub"
  op: "Sub"
  input: "model_11/batch_normalization_23/batchnorm/ReadVariableOp_2"
  input: "model_11/batch_normalization_23/batchnorm/mul_2"
  attr {
    key: "T"
    value {
      type: DT_FLOAT
    }
  }
}
node {
  name: "model_11/batch_normalization_23/batchnorm/add_1"
  op: "AddV2"
  input: "model_11/batch_normalization_23/batchnorm/mul_1"
  input: "model_11/batch_normalization_23/batchnorm/sub"
  attr {
    key: "T"
    value {
      type: DT_FLOAT
    }
  }
}
node {
  name: "model_11/dropout_23/Identity"
  op: "Identity"
  input: "model_11/batch_normalization_23/batchnorm/add_1"
  attr {
    key: "T"
    value {
      type: DT_FLOAT
    }
  }
}
node {
  name: "model_11/dense_94/MatMul/ReadVariableOp"
  op: "Identity"
  input: "model_11/dense_94/MatMul/ReadVariableOp/resource"
  attr {
    key: "T"
    value {
      type: DT_FLOAT
    }
  }
  attr {
    key: "_has_manual_control_dependencies"
    value {
      b: true
    }
  }
}
node {
  name: "model_11/dense_94/MatMul"
  op: "MatMul"
  input: "model_11/concatenate_22/concat"
  input: "model_11/dense_94/MatMul/ReadVariableOp"
  attr {
    key: "T"
    value {
      type: DT_FLOAT
    }
  }
  attr {
    key: "transpose_a"
    value {
      b: false
    }
  }
  attr {
    key: "transpose_b"
    value {
      b: false
    }
  }
}
node {
  name: "model_11/dense_94/BiasAdd/ReadVariableOp"
  op: "Identity"
  input: "model_11/dense_94/BiasAdd/ReadVariableOp/resource"
  attr {
    key: "T"
    value {
      type: DT_FLOAT
    }
  }
  attr {
    key: "_has_manual_control_dependencies"
    value {
      b: true
    }
  }
}
node {
  name: "model_11/dense_94/BiasAdd"
  op: "BiasAdd"
  input: "model_11/dense_94/MatMul"
  input: "model_11/dense_94/BiasAdd/ReadVariableOp"
  attr {
    key: "T"
    value {
      type: DT_FLOAT
    }
  }
  attr {
    key: "data_format"
    value {
      s: "NHWC"
    }
  }
}
node {
  name: "model_11/add_23/add"
  op: "AddV2"
  input: "model_11/dropout_23/Identity"
  input: "model_11/dense_94/BiasAdd"
  attr {
    key: "T"
    value {
      type: DT_FLOAT
    }
  }
}
node {
  name: "model_11/dense_95/MatMul/ReadVariableOp"
  op: "Identity"
  input: "model_11/dense_95/MatMul/ReadVariableOp/resource"
  attr {
    key: "T"
    value {
      type: DT_FLOAT
    }
  }
  attr {
    key: "_has_manual_control_dependencies"
    value {
      b: true
    }
  }
}
node {
  name: "model_11/dense_95/MatMul"
  op: "MatMul"
  input: "model_11/add_23/add"
  input: "model_11/dense_95/MatMul/ReadVariableOp"
  attr {
    key: "T"
    value {
      type: DT_FLOAT
    }
  }
  attr {
    key: "transpose_a"
    value {
      b: false
    }
  }
  attr {
    key: "transpose_b"
    value {
      b: false
    }
  }
}
node {
  name: "model_11/dense_95/BiasAdd/ReadVariableOp"
  op: "Identity"
  input: "model_11/dense_95/BiasAdd/ReadVariableOp/resource"
  attr {
    key: "T"
    value {
      type: DT_FLOAT
    }
  }
  attr {
    key: "_has_manual_control_dependencies"
    value {
      b: true
    }
  }
}
node {
  name: "model_11/dense_95/BiasAdd"
  op: "BiasAdd"
  input: "model_11/dense_95/MatMul"
  input: "model_11/dense_95/BiasAdd/ReadVariableOp"
  attr {
    key: "T"
    value {
      type: DT_FLOAT
    }
  }
  attr {
    key: "data_format"
    value {
      s: "NHWC"
    }
  }
}
node {
  name: "model_11/dense_95/Softplus"
  op: "Softplus"
  input: "model_11/dense_95/BiasAdd"
  attr {
    key: "T"
    value {
      type: DT_FLOAT
    }
  }
}
node {
  name: "model_11/tf.clip_by_value_11/clip_by_value/Minimum"
  op: "Minimum"
  input: "model_11/dense_95/Softplus"
  input: "model_11/tf.clip_by_value_11/clip_by_value/Minimum/y"
  attr {
    key: "T"
    value {
      type: DT_FLOAT
    }
  }
}
node {
  name: "model_11/tf.clip_by_value_11/clip_by_value"
  op: "Maximum"
  input: "model_11/tf.clip_by_value_11/clip_by_value/Minimum"
  input: "model_11/tf.clip_by_value_11/clip_by_value/y"
  attr {
    key: "T"
    value {
      type: DT_FLOAT
    }
  }
}
node {
  name: "model_11/concatenate_23/concat"
  op: "ConcatV2"
  input: "model_11/dense_91/BiasAdd"
  input: "model_11/tf.clip_by_value_11/clip_by_value"
  input: "model_11/concatenate_23/concat/axis"
  attr {
    key: "N"
    value {
      i: 2
    }
  }
  attr {
    key: "T"
    value {
      type: DT_FLOAT
    }
  }
  attr {
    key: "Tidx"
    value {
      type: DT_INT32
    }
  }
}
node {
  name: "NoOp"
  op: "NoOp"
  input: "^model_11/batch_normalization_22/batchnorm/ReadVariableOp"
  input: "^model_11/batch_normalization_22/batchnorm/ReadVariableOp_1"
  input: "^model_11/batch_normalization_22/batchnorm/ReadVariableOp_2"
  input: "^model_11/batch_normalization_22/batchnorm/mul/ReadVariableOp"
  input: "^model_11/batch_normalization_23/batchnorm/ReadVariableOp"
  input: "^model_11/batch_normalization_23/batchnorm/ReadVariableOp_1"
  input: "^model_11/batch_normalization_23/batchnorm/ReadVariableOp_2"
  input: "^model_11/batch_normalization_23/batchnorm/mul/ReadVariableOp"
  input: "^model_11/dense_88/BiasAdd/ReadVariableOp"
  input: "^model_11/dense_88/MatMul/ReadVariableOp"
  input: "^model_11/dense_89/BiasAdd/ReadVariableOp"
  input: "^model_11/dense_89/MatMul/ReadVariableOp"
  input: "^model_11/dense_90/BiasAdd/ReadVariableOp"
  input: "^model_11/dense_90/MatMul/ReadVariableOp"
  input: "^model_11/dense_91/BiasAdd/ReadVariableOp"
  input: "^model_11/dense_91/MatMul/ReadVariableOp"
  input: "^model_11/dense_92/BiasAdd/ReadVariableOp"
  input: "^model_11/dense_92/MatMul/ReadVariableOp"
  input: "^model_11/dense_93/BiasAdd/ReadVariableOp"
  input: "^model_11/dense_93/MatMul/ReadVariableOp"
  input: "^model_11/dense_94/BiasAdd/ReadVariableOp"
  input: "^model_11/dense_94/MatMul/ReadVariableOp"
  input: "^model_11/dense_95/BiasAdd/ReadVariableOp"
  input: "^model_11/dense_95/MatMul/ReadVariableOp"
  attr {
    key: "_has_manual_control_dependencies"
    value {
      b: true
    }
  }
}
node {
  name: "Identity"
  op: "Identity"
  input: "model_11/concatenate_23/concat"
  input: "^NoOp"
  attr {
    key: "T"
    value {
      type: DT_FLOAT
    }
  }
}
versions {
  producer: 1482
}
