node {
  name: "pixel_projection_x"
  op: "Placeholder"
  attr {
    key: "dtype"
    value {
      type: DT_FLOAT
    }
  }
  attr {
    key: "shape"
    value {
      shape {
        dim {
          size: -1
        }
        dim {
          size: 13
        }
        dim {
          size: 1
        }
      }
    }
  }
}
node {
  name: "angles"
  op: "Placeholder"
  attr {
    key: "dtype"
    value {
      type: DT_FLOAT
    }
  }
  attr {
    key: "shape"
    value {
      shape {
        dim {
          size: -1
        }
        dim {
          size: 2
        }
      }
    }
  }
}
node {
  name: "cluster_charge"
  op: "Placeholder"
  attr {
    key: "dtype"
    value {
      type: DT_FLOAT
    }
  }
  attr {
    key: "shape"
    value {
      shape {
        dim {
          size: -1
        }
        dim {
          size: 1
        }
      }
    }
  }
}
node {
  name: "model_10/flatten_10/Const"
  op: "Const"
  attr {
    key: "dtype"
    value {
      type: DT_INT32
    }
  }
  attr {
    key: "value"
    value {
      tensor {
        dtype: DT_INT32
        tensor_shape {
          dim {
            size: 2
          }
        }
        tensor_content: "\377\377\377\377\r\000\000\000"
      }
    }
  }
}
node {
  name: "model_10/concatenate_20/concat/axis"
  op: "Const"
  attr {
    key: "dtype"
    value {
      type: DT_INT32
    }
  }
  attr {
    key: "value"
    value {
      tensor {
        dtype: DT_INT32
        tensor_shape {
        }
        int_val: 1
      }
    }
  }
}
node {
  name: "model_10/dense_80/MatMul/ReadVariableOp/resource"
  op: "Const"
  attr {
    key: "dtype"
    value {
      type: DT_FLOAT
    }
  }
  attr {
    key: "value"
    value {
      tensor {
        dtype: DT_FLOAT
        tensor_shape {
          dim {
            size: 16
          }
          dim {
            size: 128
          }
        }
        tensor_content: "…"
      }
    }
  }
}
node {
  name: "model_10/dense_80/BiasAdd/ReadVariableOp/resource"
  op: "Const"
  attr {
    key: "dtype"
    value {
      type: DT_FLOAT
    }
  }
  attr {
    key: "value"
    value {
      tensor {
        dtype: DT_FLOAT
        tensor_shape {
          dim {
            size: 128
          }
        }
        tensor_content: "…"
      }
    }
  }
}
node {
  name: "model_10/dense_81/MatMul/ReadVariableOp/resource"
  op: "Const"
  attr {
    key: "dtype"
    value {
      type: DT_FLOAT
    }
  }
  attr {
    key: "value"
    value {
      tensor {
        dtype: DT_FLOAT
        tensor_shape {
          dim {
            size: 128
          }
          dim {
            size: 64
          }
        }
        tensor_content: "…"
      }
    }
  }
}
node {
  name: "model_10/dense_81/BiasAdd/ReadVariableOp/resource"
  op: "Const"
  attr {
    key: "dtype"
    value {
      type: DT_FLOAT
    }
  }
  attr {
    key: "value"
    value {
      tensor {
        dtype: DT_FLOAT
        tensor_shape {
          dim {
            size: 64
          }
        }
        tensor_content: "…"
      }
    }
  }
}
node {
  name: "model_10/batch_normalization_20/batchnorm/ReadVariableOp/resource"
  op: "Const"
  attr {
    key: "dtype"
    value {
      type: DT_FLOAT
    }
  }
  attr {
    key: "value"
    value {
      tensor {
        dtype: DT_FLOAT
        tensor_shape {
          dim {
            size: 64
          }
        }
        tensor_content: "…"
      }
    }
  }
}
node {
  name: "model_10/batch_normalization_20/batchnorm/add/y"
  op: "Const"
  attr {
    key: "dtype"
    value {
      type: DT_FLOAT
    }
  }
  attr {
    key: "value"
    value {
      tensor {
        dtype: DT_FLOAT
        tensor_shape {
        }
        float_val: 0.0010000000474974513
      }
    }
  }
}
node {
  name: "model_10/batch_normalization_20/batchnorm/mul/ReadVariableOp/resource"
  op: "Const"
  attr {
    key: "dtype"
    value {
      type: DT_FLOAT
    }
  }
  attr {
    key: "value"
    value {
      tensor {
        dtype: DT_FLOAT
        tensor_shape {
          dim {
            size: 64
          }
        }
        tensor_content: "…"
      }
    }
  }
}
node {
  name: "model_10/batch_normalization_20/batchnorm/ReadVariableOp_2/resource"
  op: "Const"
  attr {
    key: "dtype"
    value {
      type: DT_FLOAT
    }
  }
  attr {
    key: "value"
    value {
      tensor {
        dtype: DT_FLOAT
        tensor_shape {
          dim {
            size: 64
          }
        }
        tensor_content: "…"
      }
    }
  }
}
node {
  name: "model_10/batch_normalization_20/batchnorm/ReadVariableOp_1/resource"
  op: "Const"
  attr {
    key: "dtype"
    value {
      type: DT_FLOAT
    }
  }
  attr {
    key: "value"
    value {
      tensor {
        dtype: DT_FLOAT
        tensor_shape {
          dim {
            size: 64
          }
        }
        tensor_content: "…"
      }
    }
  }
}
node {
  name: "model_10/dense_82/MatMul/ReadVariableOp/resource"
  op: "Const"
  attr {
    key: "dtype"
    value {
      type: DT_FLOAT
    }
  }
  attr {
    key: "value"
    value {
      tensor {
        dtype: DT_FLOAT
        tensor_shape {
          dim {
            size: 16
          }
          dim {
            size: 64
          }
        }
        tensor_content: "…"
      }
    }
  }
}
node {
  name: "model_10/dense_82/BiasAdd/ReadVariableOp/resource"
  op: "Const"
  attr {
    key: "dtype"
    value {
      type: DT_FLOAT
    }
  }
  attr {
    key: "value"
    value {
      tensor {
        dtype: DT_FLOAT
        tensor_shape {
          dim {
            size: 64
          }
        }
        tensor_content: "…"
      }
    }
  }
}
node {
  name: "model_10/dense_83/MatMul/ReadVariableOp/resource"
  op: "Const"
  attr {
    key: "dtype"
    value {
      type: DT_FLOAT
    }
  }
  attr {
    key: "value"
    value {
      tensor {
        dtype: DT_FLOAT
        tensor_shape {
          dim {
            size: 64
          }
          dim {
            size: 1
          }
        }
        tensor_content: "…"
      }
    }
  }
}
node {
  name: "model_10/dense_83/BiasAdd/ReadVariableOp/resource"
  op: "Const"
  attr {
    key: "dtype"
    value {
      type: DT_FLOAT
    }
  }
  attr {
    key: "value"
    value {
      tensor {
        dtype: DT_FLOAT
        tensor_shape {
          dim {
            size: 1
          }
        }
        float_val: -0.14647677540779114
      }
    }
  }
}
node {
  name: "model_10/dense_84/MatMul/ReadVariableOp/resource"
  op: "Const"
  attr {
    key: "dtype"
    value {
      type: DT_FLOAT
    }
  }
  attr {
    key: "value"
    value {
      tensor {
        dtype: DT_FLOAT
        tensor_shape {
          dim {
            size: 16
          }
          dim {
            size: 128
          }
        }
        tensor_content: "…"
      }
    }
  }
}
node {
  name: "model_10/dense_84/BiasAdd/ReadVariableOp/resource"
  op: "Const"
  attr {
    key: "dtype"
    value {
      type: DT_FLOAT
    }
  }
  attr {
    key: "value"
    value {
      tensor {
        dtype: DT_FLOAT
        tensor_shape {
          dim {
            size: 128
          }
        }
        tensor_content: "…"
      }
    }
  }
}
node {
  name: "model_10/dense_85/MatMul/ReadVariableOp/resource"
  op: "Const"
  attr {
    key: "dtype"
    value {
      type: DT_FLOAT
    }
  }
  attr {
    key: "value"
    value {
      tensor {
        dtype: DT_FLOAT
        tensor_shape {
          dim {
            size: 128
          }
          dim {
            size: 64
          }
        }
        tensor_content: "…"
      }
    }
  }
}
node {
  name: "model_10/dense_85/BiasAdd/ReadVariableOp/resource"
  op: "Const"
  attr {
    key: "dtype"
    value {
      type: DT_FLOAT
    }
  }
  attr {
    key: "value"
    value {
      tensor {
        dtype: DT_FLOAT
        tensor_shape {
          dim {
            size: 64
          }
        }
        tensor_content: "…"
      }
    }
  }
}
node {
  name: "model_10/batch_normalization_21/batchnorm/ReadVariableOp/resource"
  op: "Const"
  attr {
    key: "dtype"
    value {
      type: DT_FLOAT
    }
  }
  attr {
    key: "value"
    value {
      tensor {
        dtype: DT_FLOAT
        tensor_shape {
          dim {
            size: 64
          }
        }
        tensor_content: "…"
      }
    }
  }
}
node {
  name: "model_10/batch_normalization_21/batchnorm/add/y"
  op: "Const"
  attr {
    key: "dtype"
    value {
      type: DT_FLOAT
    }
  }
  attr {
    key: "value"
    value {
      tensor {
        dtype: DT_FLOAT
        tensor_shape {
        }
        float_val: 0.0010000000474974513
      }
    }
  }
}
node {
  name: "model_10/batch_normalization_21/batchnorm/mul/ReadVariableOp/resource"
  op: "Const"
  attr {
    key: "dtype"
    value {
      type: DT_FLOAT
    }
  }
  attr {
    key: "value"
    value {
      tensor {
        dtype: DT_FLOAT
        tensor_shape {
          dim {
            size: 64
          }
        }
        tensor_content: "…"
      }
    }
  }
}
node {
  name: "model_10/batch_normalization_21/batchnorm/ReadVariableOp_2/resource"
  op: "Const"
  attr {
    key: "dtype"
    value {
      type: DT_FLOAT
    }
  }
  attr {
    key: "value"
    value {
      tensor {
        dtype: DT_FLOAT
        tensor_shape {
          dim {
            size: 64
          }
        }
        tensor_content: "…"
      }
    }
  }
}
node {
  name: "model_10/batch_normalization_21/batchnorm/ReadVariableOp_1/resource"
  op: "Const"
  attr {
    key: "dtype"
    value {
      type: DT_FLOAT
    }
  }
  attr {
    key: "value"
    value {
      tensor {
        dtype: DT_FLOAT
        tensor_shape {
          dim {
            size: 64
          }
        }
        tensor_content: "…"
      }
    }
  }
}
node {
  name: "model_10/dense_86/MatMul/ReadVariableOp/resource"
  op: "Const"
  attr {
    key: "dtype"
    value {
      type: DT_FLOAT
    }
  }
  attr {
    key: "value"
    value {
      tensor {
        dtype: DT_FLOAT
        tensor_shape {
          dim {
            size: 16
          }
          dim {
            size: 64
          }
        }
        tensor_content: "…"
      }
    }
  }
}
node {
  name: "model_10/dense_86/BiasAdd/ReadVariableOp/resource"
  op: "Const"
  attr {
    key: "dtype"
    value {
      type: DT_FLOAT
    }
  }
  attr {
    key: "value"
    value {
      tensor {
        dtype: DT_FLOAT
        tensor_shape {
          dim {
            size: 64
          }
        }
        tensor_content: "…"
      }
    }
  }
}
node {
  name: "model_10/dense_87/MatMul/ReadVariableOp/resource"
  op: "Const"
  attr {
    key: "dtype"
    value {
      type: DT_FLOAT
    }
  }
  attr {
    key: "value"
    value {
      tensor {
        dtype: DT_FLOAT
        tensor_shape {
          dim {
            size: 64
          }
          dim {
            size: 1
          }
        }
        tensor_content: "…"
      }
    }
  }
}
node {
  name: "model_10/dense_87/BiasAdd/ReadVariableOp/resource"
  op: "Const"
  attr {
    key: "dtype"
    value {
      type: DT_FLOAT
    }
  }
  attr {
    key: "value"
    value {
      tensor {
        dtype: DT_FLOAT
        tensor_shape {
          dim {
            size: 1
          }
        }
        float_val: 0.05672725290060043
      }
    }
  }
}
node {
  name: "model_10/tf.clip_by_value_10/clip_by_value/Minimum/y"
  op: "Const"
  attr {
    key: "dtype"
    value {
      type: DT_FLOAT
    }
  }
  attr {
    key: "value"
    value {
      tensor {
        dtype: DT_FLOAT
        tensor_shape {
        }
        float_val: 120.0
      }
    }
  }
}
node {
  name: "model_10/tf.clip_by_value_10/clip_by_value/y"
  op: "Const"
  attr {
    key: "dtype"
    value {
      type: DT_FLOAT
    }
  }
  attr {
    key: "value"
    value {
      tensor {
        dtype: DT_FLOAT
        tensor_shape {
        }
        float_val: 3.0
      }
    }
  }
}
node {
  name: "model_10/concatenate_21/concat/axis"
  op: "Const"
  attr {
    key: "dtype"
    value {
      type: DT_INT32
    }
  }
  attr {
    key: "value"
    value {
      tensor {
        dtype: DT_INT32
        tensor_shape {
        }
        int_val: 1
      }
    }
  }
}
node {
  name: "model_10/flatten_10/Reshape"
  op: "Reshape"
  input: "pixel_projection_x"
  input: "model_10/flatten_10/Const"
  attr {
    key: "T"
    value {
      type: DT_FLOAT
    }
  }
  attr {
    key: "Tshape"
    value {
      type: DT_INT32
    }
  }
}
node {
  name: "model_10/concatenate_20/concat"
  op: "ConcatV2"
  input: "model_10/flatten_10/Reshape"
  input: "angles"
  input: "cluster_charge"
  input: "model_10/concatenate_20/concat/axis"
  attr {
    key: "N"
    value {
      i: 3
    }
  }
  attr {
    key: "T"
    value {
      type: DT_FLOAT
    }
  }
  attr {
    key: "Tidx"
    value {
      type: DT_INT32
    }
  }
}
node {
  name: "model_10/dense_80/MatMul/ReadVariableOp"
  op: "Identity"
  input: "model_10/dense_80/MatMul/ReadVariableOp/resource"
  attr {
    key: "T"
    value {
      type: DT_FLOAT
    }
  }
  attr {
    key: "_has_manual_control_dependencies"
    value {
      b: true
    }
  }
}
node {
  name: "model_10/dense_80/MatMul"
  op: "MatMul"
  input: "model_10/concatenate_20/concat"
  input: "model_10/dense_80/MatMul/ReadVariableOp"
  attr {
    key: "T"
    value {
      type: DT_FLOAT
    }
  }
  attr {
    key: "transpose_a"
    value {
      b: false
    }
  }
  attr {
    key: "transpose_b"
    value {
      b: false
    }
  }
}
node {
  name: "model_10/dense_80/BiasAdd/ReadVariableOp"
  op: "Identity"
  input: "model_10/dense_80/BiasAdd/ReadVariableOp/resource"
  attr {
    key: "T"
    value {
      type: DT_FLOAT
    }
  }
  attr {
    key: "_has_manual_control_dependencies"
    value {
      b: true
    }
  }
}
node {
  name: "model_10/dense_80/BiasAdd"
  op: "BiasAdd"
  input: "model_10/dense_80/MatMul"
  input: "model_10/dense_80/BiasAdd/ReadVariableOp"
  attr {
    key: "T"
    value {
      type: DT_FLOAT
    }
  }
  attr {
    key: "data_format"
    value {
      s: "NHWC"
    }
  }
}
node {
  name: "model_10/leaky_re_lu_40/LeakyRelu"
  op: "LeakyRelu"
  input: "model_10/dense_80/BiasAdd"
  attr {
    key: "T"
    value {
      type: DT_FLOAT
    }
  }
  attr {
    key: "alpha"
    value {
      f: 0.009999999776482582
    }
  }
}
node {
  name: "model_10/dense_81/MatMul/ReadVariableOp"
  op: "Identity"
  input: "model_10/dense_81/MatMul/ReadVariableOp/resource"
  attr {
    key: "T"
    value {
      type: DT_FLOAT
    }
  }
  attr {
    key: "_has_manual_control_dependencies"
    value {
      b: true
    }
  }
}
node {
  name: "model_10/dense_81/MatMul"
  op: "MatMul"
  input: "model_10/leaky_re_lu_40/LeakyRelu"
  input: "model_10/dense_81/MatMul/ReadVariableOp"
  attr {
    key: "T"
    value {
      type: DT_FLOAT
    }
  }
  attr {
    key: "transpose_a"
    value {
      b: false
    }
  }
  attr {
    key: "transpose_b"
    value {
      b: false
    }
  }
}
node {
  name: "model_10/dense_81/BiasAdd/ReadVariableOp"
  op: "Identity"
  input: "model_10/dense_81/BiasAdd/ReadVariableOp/resource"
  attr {
    key: "T"
    value {
      type: DT_FLOAT
    }
  }
  attr {
    key: "_has_manual_control_dependencies"
    value {
      b: true
    }
  }
}
node {
  name: "model_10/dense_81/BiasAdd"
  op: "BiasAdd"
  input: "model_10/dense_81/MatMul"
  input: "model_10/dense_81/BiasAdd/ReadVariableOp"
  attr {
    key: "T"
    value {
      type: DT_FLOAT
    }
  }
  attr {
    key: "data_format"
    value {
      s: "NHWC"
    }
  }
}
node {
  name: "model_10/leaky_re_lu_41/LeakyRelu"
  op: "LeakyRelu"
  input: "model_10/dense_81/BiasAdd"
  attr {
    key: "T"
    value {
      type: DT_FLOAT
    }
  }
  attr {
    key: "alpha"
    value {
      f: 0.009999999776482582
    }
  }
}
node {
  name: "model_10/batch_normalization_20/batchnorm/ReadVariableOp"
  op: "Identity"
  input: "model_10/batch_normalization_20/batchnorm/ReadVariableOp/resource"
  attr {
    key: "T"
    value {
      type: DT_FLOAT
    }
  }
  attr {
    key: "_has_manual_control_dependencies"
    value {
      b: true
    }
  }
}
node {
  name: "model_10/batch_normalization_20/batchnorm/add"
  op: "AddV2"
  input: "model_10/batch_normalization_20/batchnorm/ReadVariableOp"
  input: "model_10/batch_normalization_20/batchnorm/add/y"
  attr {
    key: "T"
    value {
      type: DT_FLOAT
    }
  }
}
node {
  name: "model_10/batch_normalization_20/batchnorm/Rsqrt"
  op: "Rsqrt"
  input: "model_10/batch_normalization_20/batchnorm/add"
  attr {
    key: "T"
    value {
      type: DT_FLOAT
    }
  }
}
node {
  name: "model_10/batch_normalization_20/batchnorm/mul/ReadVariableOp"
  op: "Identity"
  input: "model_10/batch_normalization_20/batchnorm/mul/ReadVariableOp/resource"
  attr {
    key: "T"
    value {
      type: DT_FLOAT
    }
  }
  attr {
    key: "_has_manual_control_dependencies"
    value {
      b: true
    }
  }
}
node {
  name: "model_10/batch_normalization_20/batchnorm/mul"
  op: "Mul"
  input: "model_10/batch_normalization_20/batchnorm/Rsqrt"
  input: "model_10/batch_normalization_20/batchnorm/mul/ReadVariableOp"
  attr {
    key: "T"
    value {
      type: DT_FLOAT
    }
  }
}
node {
  name: "model_10/batch_normalization_20/batchnorm/mul_1"
  op: "Mul"
  input: "model_10/leaky_re_lu_41/LeakyRelu"
  input: "model_10/batch_normalization_20/batchnorm/mul"
  attr {
    key: "T"
    value {
      type: DT_FLOAT
    }
  }
}
node {
  name: "model_10/batch_normalization_20/batchnorm/ReadVariableOp_2"
  op: "Identity"
  input: "model_10/batch_normalization_20/batchnorm/ReadVariableOp_2/resource"
  attr {
    key: "T"
    value {
      type: DT_FLOAT
    }
  }
  attr {
    key: "_has_manual_control_dependencies"
    value {
      b: true
    }
  }
}
node {
  name: "model_10/batch_normalization_20/batchnorm/ReadVariableOp_1"
  op: "Identity"
  input: "model_10/batch_normalization_20/batchnorm/ReadVariableOp_1/resource"
  attr {
    key: "T"
    value {
      type: DT_FLOAT
    }
  }
  attr {
    key: "_has_manual_control_dependencies"
    value {
      b: true
    }
  }
}
node {
  name: "model_10/batch_normalization_20/batchnorm/mul_2"
  op: "Mul"
  input: "model_10/batch_normalization_20/batchnorm/ReadVariableOp_1"
  input: "model_10/batch_normalization_20/batchnorm/mul"
  attr {
    key: "T"
    value {
      type: DT_FLOAT
    }
  }
}
node {
  name: "model_10/batch_normalization_20/batchnorm/sub"
  op: "Sub"
  input: "model_10/batch_normalization_20/batchnorm/ReadVariableOp_2"
  input: "model_10/batch_normalization_20/batchnorm/mul_2"
  attr {
    key: "T"
    value {
      type: DT_FLOAT
    }
  }
}
node {
  name: "model_10/batch_normalization_20/batchnorm/add_1"
  op: "AddV2"
  input: "model_10/batch_normalization_20/batchnorm/mul_1"
  input: "model_10/batch_normalization_20/batchnorm/sub"
  attr {
    key: "T"
    value {
      type: DT_FLOAT
    }
  }
}
node {
  name: "model_10/dropout_20/Identity"
  op: "Identity"
  input: "model_10/batch_normalization_20/batchnorm/add_1"
  attr {
    key: "T"
    value {
      type: DT_FLOAT
    }
  }
}
node {
  name: "model_10/dense_82/MatMul/ReadVariableOp"
  op: "Identity"
  input: "model_10/dense_82/MatMul/ReadVariableOp/resource"
  attr {
    key: "T"
    value {
      type: DT_FLOAT
    }
  }
  attr {
    key: "_has_manual_control_dependencies"
    value {
      b: true
    }
  }
}
node {
  name: "model_10/dense_82/MatMul"
  op: "MatMul"
  input: "model_10/concatenate_20/concat"
  input: "model_10/dense_82/MatMul/ReadVariableOp"
  attr {
    key: "T"
    value {
      type: DT_FLOAT
    }
  }
  attr {
    key: "transpose_a"
    value {
      b: false
    }
  }
  attr {
    key: "transpose_b"
    value {
      b: false
    }
  }
}
node {
  name: "model_10/dense_82/BiasAdd/ReadVariableOp"
  op: "Identity"
  input: "model_10/dense_82/BiasAdd/ReadVariableOp/resource"
  attr {
    key: "T"
    value {
      type: DT_FLOAT
    }
  }
  attr {
    key: "_has_manual_control_dependencies"
    value {
      b: true
    }
  }
}
node {
  name: "model_10/dense_82/BiasAdd"
  op: "BiasAdd"
  input: "model_10/dense_82/MatMul"
  input: "model_10/dense_82/BiasAdd/ReadVariableOp"
  attr {
    key: "T"
    value {
      type: DT_FLOAT
    }
  }
  attr {
    key: "data_format"
    value {
      s: "NHWC"
    }
  }
}
node {
  name: "model_10/add_20/add"
  op: "AddV2"
  input: "model_10/dropout_20/Identity"
  input: "model_10/dense_82/BiasAdd"
  attr {
    key: "T"
    value {
      type: DT_FLOAT
    }
  }
}
node {
  name: "model_10/dense_83/MatMul/ReadVariableOp"
  op: "Identity"
  input: "model_10/dense_83/MatMul/ReadVariableOp/resource"
  attr {
    key: "T"
    value {
      type: DT_FLOAT
    }
  }
  attr {
    key: "_has_manual_control_dependencies"
    value {
      b: true
    }
  }
}
node {
  name: "model_10/dense_83/MatMul"
  op: "MatMul"
  input: "model_10/add_20/add"
  input: "model_10/dense_83/MatMul/ReadVariableOp"
  attr {
    key: "T"
    value {
      type: DT_FLOAT
    }
  }
  attr {
    key: "transpose_a"
    value {
      b: false
    }
  }
  attr {
    key: "transpose_b"
    value {
      b: false
    }
  }
}
node {
  name: "model_10/dense_83/BiasAdd/ReadVariableOp"
  op: "Identity"
  input: "model_10/dense_83/BiasAdd/ReadVariableOp/resource"
  attr {
    key: "T"
    value {
      type: DT_FLOAT
    }
  }
  attr {
    key: "_has_manual_control_dependencies"
    value {
      b: true
    }
  }
}
node {
  name: "model_10/dense_83/BiasAdd"
  op: "BiasAdd"
  input: "model_10/dense_83/MatMul"
  input: "model_10/dense_83/BiasAdd/ReadVariableOp"
  attr {
    key: "T"
    value {
      type: DT_FLOAT
    }
  }
  attr {
    key: "data_format"
    value {
      s: "NHWC"
    }
  }
}
node {
  name: "model_10/dense_84/MatMul/ReadVariableOp"
  op: "Identity"
  input: "model_10/dense_84/MatMul/ReadVariableOp/resource"
  attr {
    key: "T"
    value {
      type: DT_FLOAT
    }
  }
  attr {
    key: "_has_manual_control_dependencies"
    value {
      b: true
    }
  }
}
node {
  name: "model_10/dense_84/MatMul"
  op: "MatMul"
  input: "model_10/concatenate_20/concat"
  input: "model_10/dense_84/MatMul/ReadVariableOp"
  attr {
    key: "T"
    value {
      type: DT_FLOAT
    }
  }
  attr {
    key: "transpose_a"
    value {
      b: false
    }
  }
  attr {
    key: "transpose_b"
    value {
      b: false
    }
  }
}
node {
  name: "model_10/dense_84/BiasAdd/ReadVariableOp"
  op: "Identity"
  input: "model_10/dense_84/BiasAdd/ReadVariableOp/resource"
  attr {
    key: "T"
    value {
      type: DT_FLOAT
    }
  }
  attr {
    key: "_has_manual_control_dependencies"
    value {
      b: true
    }
  }
}
node {
  name: "model_10/dense_84/BiasAdd"
  op: "BiasAdd"
  input: "model_10/dense_84/MatMul"
  input: "model_10/dense_84/BiasAdd/ReadVariableOp"
  attr {
    key: "T"
    value {
      type: DT_FLOAT
    }
  }
  attr {
    key: "data_format"
    value {
      s: "NHWC"
    }
  }
}
node {
  name: "model_10/leaky_re_lu_42/LeakyRelu"
  op: "LeakyRelu"
  input: "model_10/dense_84/BiasAdd"
  attr {
    key: "T"
    value {
      type: DT_FLOAT
    }
  }
  attr {
    key: "alpha"
    value {
      f: 0.009999999776482582
    }
  }
}
node {
  name: "model_10/dense_85/MatMul/ReadVariableOp"
  op: "Identity"
  input: "model_10/dense_85/MatMul/ReadVariableOp/resource"
  attr {
    key: "T"
    value {
      type: DT_FLOAT
    }
  }
  attr {
    key: "_has_manual_control_dependencies"
    value {
      b: true
    }
  }
}
node {
  name: "model_10/dense_85/MatMul"
  op: "MatMul"
  input: "model_10/leaky_re_lu_42/LeakyRelu"
  input: "model_10/dense_85/MatMul/ReadVariableOp"
  attr {
    key: "T"
    value {
      type: DT_FLOAT
    }
  }
  attr {
    key: "transpose_a"
    value {
      b: false
    }
  }
  attr {
    key: "transpose_b"
    value {
      b: false
    }
  }
}
node {
  name: "model_10/dense_85/BiasAdd/ReadVariableOp"
  op: "Identity"
  input: "model_10/dense_85/BiasAdd/ReadVariableOp/resource"
  attr {
    key: "T"
    value {
      type: DT_FLOAT
    }
  }
  attr {
    key: "_has_manual_control_dependencies"
    value {
      b: true
    }
  }
}
node {
  name: "model_10/dense_85/BiasAdd"
  op: "BiasAdd"
  input: "model_10/dense_85/MatMul"
  input: "model_10/dense_85/BiasAdd/ReadVariableOp"
  attr {
    key: "T"
    value {
      type: DT_FLOAT
    }
  }
  attr {
    key: "data_format"
    value {
      s: "NHWC"
    }
  }
}
node {
  name: "model_10/leaky_re_lu_43/LeakyRelu"
  op: "LeakyRelu"
  input: "model_10/dense_85/BiasAdd"
  attr {
    key: "T"
    value {
      type: DT_FLOAT
    }
  }
  attr {
    key: "alpha"
    value {
      f: 0.009999999776482582
    }
  }
}
node {
  name: "model_10/batch_normalization_21/batchnorm/ReadVariableOp"
  op: "Identity"
  input: "model_10/batch_normalization_21/batchnorm/ReadVariableOp/resource"
  attr {
    key: "T"
    value {
      type: DT_FLOAT
    }
  }
  attr {
    key: "_has_manual_control_dependencies"
    value {
      b: true
    }
  }
}
node {
  name: "model_10/batch_normalization_21/batchnorm/add"
  op: "AddV2"
  input: "model_10/batch_normalization_21/batchnorm/ReadVariableOp"
  input: "model_10/batch_normalization_21/batchnorm/add/y"
  attr {
    key: "T"
    value {
      type: DT_FLOAT
    }
  }
}
node {
  name: "model_10/batch_normalization_21/batchnorm/Rsqrt"
  op: "Rsqrt"
  input: "model_10/batch_normalization_21/batchnorm/add"
  attr {
    key: "T"
    value {
      type: DT_FLOAT
    }
  }
}
node {
  name: "model_10/batch_normalization_21/batchnorm/mul/ReadVariableOp"
  op: "Identity"
  input: "model_10/batch_normalization_21/batchnorm/mul/ReadVariableOp/resource"
  attr {
    key: "T"
    value {
      type: DT_FLOAT
    }
  }
  attr {
    key: "_has_manual_control_dependencies"
    value {
      b: true
    }
  }
}
node {
  name: "model_10/batch_normalization_21/batchnorm/mul"
  op: "Mul"
  input: "model_10/batch_normalization_21/batchnorm/Rsqrt"
  input: "model_10/batch_normalization_21/batchnorm/mul/ReadVariableOp"
  attr {
    key: "T"
    value {
      type: DT_FLOAT
    }
  }
}
node {
  name: "model_10/batch_normalization_21/batchnorm/mul_1"
  op: "Mul"
  input: "model_10/leaky_re_lu_43/LeakyRelu"
  input: "model_10/batch_normalization_21/batchnorm/mul"
  attr {
    key: "T"
    value {
      type: DT_FLOAT
    }
  }
}
node {
  name: "model_10/batch_normalization_21/batchnorm/ReadVariableOp_2"
  op: "Identity"
  input: "model_10/batch_normalization_21/batchnorm/ReadVariableOp_2/resource"
  attr {
    key: "T"
    value {
      type: DT_FLOAT
    }
  }
  attr {
    key: "_has_manual_control_dependencies"
    value {
      b: true
    }
  }
}
node {
  name: "model_10/batch_normalization_21/batchnorm/ReadVariableOp_1"
  op: "Identity"
  input: "model_10/batch_normalization_21/batchnorm/ReadVariableOp_1/resource"
  attr {
    key: "T"
    value {
      type: DT_FLOAT
    }
  }
  attr {
    key: "_has_manual_control_dependencies"
    value {
      b: true
    }
  }
}
node {
  name: "model_10/batch_normalization_21/batchnorm/mul_2"
  op: "Mul"
  input: "model_10/batch_normalization_21/batchnorm/ReadVariableOp_1"
  input: "model_10/batch_normalization_21/batchnorm/mul"
  attr {
    key: "T"
    value {
      type: DT_FLOAT
    }
  }
}
node {
  name: "model_10/batch_normalization_21/batchnorm/sub"
  op: "Sub"
  input: "model_10/batch_normalization_21/batchnorm/ReadVariableOp_2"
  input: "model_10/batch_normalization_21/batchnorm/mul_2"
  attr {
    key: "T"
    value {
      type: DT_FLOAT
    }
  }
}
node {
  name: "model_10/batch_normalization_21/batchnorm/add_1"
  op: "AddV2"
  input: "model_10/batch_normalization_21/batchnorm/mul_1"
  input: "model_10/batch_normalization_21/batchnorm/sub"
  attr {
    key: "T"
    value {
      type: DT_FLOAT
    }
  }
}
node {
  name: "model_10/dropout_21/Identity"
  op: "Identity"
  input: "model_10/batch_normalization_21/batchnorm/add_1"
  attr {
    key: "T"
    value {
      type: DT_FLOAT
    }
  }
}
node {
  name: "model_10/dense_86/MatMul/ReadVariableOp"
  op: "Identity"
  input: "model_10/dense_86/MatMul/ReadVariableOp/resource"
  attr {
    key: "T"
    value {
      type: DT_FLOAT
    }
  }
  attr {
    key: "_has_manual_control_dependencies"
    value {
      b: true
    }
  }
}
node {
  name: "model_10/dense_86/MatMul"
  op: "MatMul"
  input: "model_10/concatenate_20/concat"
  input: "model_10/dense_86/MatMul/ReadVariableOp"
  attr {
    key: "T"
    value {
      type: DT_FLOAT
    }
  }
  attr {
    key: "transpose_a"
    value {
      b: false
    }
  }
  attr {
    key: "transpose_b"
    value {
      b: false
    }
  }
}
node {
  name: "model_10/dense_86/BiasAdd/ReadVariableOp"
  op: "Identity"
  input: "model_10/dense_86/BiasAdd/ReadVariableOp/resource"
  attr {
    key: "T"
    value {
      type: DT_FLOAT
    }
  }
  attr {
    key: "_has_manual_control_dependencies"
    value {
      b: true
    }
  }
}
node {
  name: "model_10/dense_86/BiasAdd"
  op: "BiasAdd"
  input: "model_10/dense_86/MatMul"
  input: "model_10/dense_86/BiasAdd/ReadVariableOp"
  attr {
    key: "T"
    value {
      type: DT_FLOAT
    }
  }
  attr {
    key: "data_format"
    value {
      s: "NHWC"
    }
  }
}
node {
  name: "model_10/add_21/add"
  op: "AddV2"
  input: "model_10/dropout_21/Identity"
  input: "model_10/dense_86/BiasAdd"
  attr {
    key: "T"
    value {
      type: DT_FLOAT
    }
  }
}
node {
  name: "model_10/dense_87/MatMul/ReadVariableOp"
  op: "Identity"
  input: "model_10/dense_87/MatMul/ReadVariableOp/resource"
  attr {
    key: "T"
    value {
      type: DT_FLOAT
    }
  }
  attr {
    key: "_has_manual_control_dependencies"
    value {
      b: true
    }
  }
}
node {
  name: "model_10/dense_87/MatMul"
  op: "MatMul"
  input: "model_10/add_21/add"
  input: "model_10/dense_87/MatMul/ReadVariableOp"
  attr {
    key: "T"
    value {
      type: DT_FLOAT
    }
  }
  attr {
    key: "transpose_a"
    value {
      b: false
    }
  }
  attr {
    key: "transpose_b"
    value {
      b: false
    }
  }
}
node {
  name: "model_10/dense_87/BiasAdd/ReadVariableOp"
  op: "Identity"
  input: "model_10/dense_87/BiasAdd/ReadVariableOp/resource"
  attr {
    key: "T"
    value {
      type: DT_FLOAT
    }
  }
  attr {
    key: "_has_manual_control_dependencies"
    value {
      b: true
    }
  }
}
node {
  name: "model_10/dense_87/BiasAdd"
  op: "BiasAdd"
  input: "model_10/dense_87/MatMul"
  input: "model_10/dense_87/BiasAdd/ReadVariableOp"
  attr {
    key: "T"
    value {
      type: DT_FLOAT
    }
  }
  attr {
    key: "data_format"
    value {
      s: "NHWC"
    }
  }
}
node {
  name: "model_10/dense_87/Softplus"
  op: "Softplus"
  input: "model_10/dense_87/BiasAdd"
  attr {
    key: "T"
    value {
      type: DT_FLOAT
    }
  }
}
node {
  name: "model_10/tf.clip_by_value_10/clip_by_value/Minimum"
  op: "Minimum"
  input: "model_10/dense_87/Softplus"
  input: "model_10/tf.clip_by_value_10/clip_by_value/Minimum/y"
  attr {
    key: "T"
    value {
      type: DT_FLOAT
    }
  }
}
node {
  name: "model_10/tf.clip_by_value_10/clip_by_value"
  op: "Maximum"
  input: "model_10/tf.clip_by_value_10/clip_by_value/Minimum"
  input: "model_10/tf.clip_by_value_10/clip_by_value/y"
  attr {
    key: "T"
    value {
      type: DT_FLOAT
    }
  }
}
node {
  name: "model_10/concatenate_21/concat"
  op: "ConcatV2"
  input: "model_10/dense_83/BiasAdd"
  input: "model_10/tf.clip_by_value_10/clip_by_value"
  input: "model_10/concatenate_21/concat/axis"
  attr {
    key: "N"
    value {
      i: 2
    }
  }
  attr {
    key: "T"
    value {
      type: DT_FLOAT
    }
  }
  attr {
    key: "Tidx"
    value {
      type: DT_INT32
    }
  }
}
node {
  name: "NoOp"
  op: "NoOp"
  input: "^model_10/batch_normalization_20/batchnorm/ReadVariableOp"
  input: "^model_10/batch_normalization_20/batchnorm/ReadVariableOp_1"
  input: "^model_10/batch_normalization_20/batchnorm/ReadVariableOp_2"
  input: "^model_10/batch_normalization_20/batchnorm/mul/ReadVariableOp"
  input: "^model_10/batch_normalization_21/batchnorm/ReadVariableOp"
  input: "^model_10/batch_normalization_21/batchnorm/ReadVariableOp_1"
  input: "^model_10/batch_normalization_21/batchnorm/ReadVariableOp_2"
  input: "^model_10/batch_normalization_21/batchnorm/mul/ReadVariableOp"
  input: "^model_10/dense_80/BiasAdd/ReadVariableOp"
  input: "^model_10/dense_80/MatMul/ReadVariableOp"
  input: "^model_10/dense_81/BiasAdd/ReadVariableOp"
  input: "^model_10/dense_81/MatMul/ReadVariableOp"
  input: "^model_10/dense_82/BiasAdd/ReadVariableOp"
  input: "^model_10/dense_82/MatMul/ReadVariableOp"
  input: "^model_10/dense_83/BiasAdd/ReadVariableOp"
  input: "^model_10/dense_83/MatMul/ReadVariableOp"
  input: "^model_10/dense_84/BiasAdd/ReadVariableOp"
  input: "^model_10/dense_84/MatMul/ReadVariableOp"
  input: "^model_10/dense_85/BiasAdd/ReadVariableOp"
  input: "^model_10/dense_85/MatMul/ReadVariableOp"
  input: "^model_10/dense_86/BiasAdd/ReadVariableOp"
  input: "^model_10/dense_86/MatMul/ReadVariableOp"
  input: "^model_10/dense_87/BiasAdd/ReadVariableOp"
  input: "^model_10/dense_87/MatMul/ReadVariableOp"
  attr {
    key: "_has_manual_control_dependencies"
    value {
      b: true
    }
  }
}
node {
  name: "Identity"
  op: "Identity"
  input: "model_10/concatenate_21/concat"
  input: "^NoOp"
  attr {
    key: "T"
    value {
      type: DT_FLOAT
    }
  }
}
versions {
  producer: 1482
}
