node {
  name: "pixel_projection_x"
  op: "Placeholder"
  attr {
    key: "dtype"
    value {
      type: DT_FLOAT
    }
  }
  attr {
    key: "shape"
    value {
      shape {
        dim {
          size: -1
        }
        dim {
          size: 13
        }
        dim {
          size: 1
        }
      }
    }
  }
}
node {
  name: "angles"
  op: "Placeholder"
  attr {
    key: "dtype"
    value {
      type: DT_FLOAT
    }
  }
  attr {
    key: "shape"
    value {
      shape {
        dim {
          size: -1
        }
        dim {
          size: 2
        }
      }
    }
  }
}
node {
  name: "cluster_charge"
  op: "Placeholder"
  attr {
    key: "dtype"
    value {
      type: DT_FLOAT
    }
  }
  attr {
    key: "shape"
    value {
      shape {
        dim {
          size: -1
        }
        dim {
          size: 1
        }
      }
    }
  }
}
node {
  name: "model_6/flatten_6/Const"
  op: "Const"
  attr {
    key: "dtype"
    value {
      type: DT_INT32
    }
  }
  attr {
    key: "value"
    value {
      tensor {
        dtype: DT_INT32
        tensor_shape {
          dim {
            size: 2
          }
        }
        tensor_content: "\377\377\377\377\r\000\000\000"
      }
    }
  }
}
node {
  name: "model_6/concatenate_12/concat/axis"
  op: "Const"
  attr {
    key: "dtype"
    value {
      type: DT_INT32
    }
  }
  attr {
    key: "value"
    value {
      tensor {
        dtype: DT_INT32
        tensor_shape {
        }
        int_val: 1
      }
    }
  }
}
node {
  name: "model_6/dense_48/MatMul/ReadVariableOp/resource"
  op: "Const"
  attr {
    key: "dtype"
    value {
      type: DT_FLOAT
    }
  }
  attr {
    key: "value"
    value {
      tensor {
        dtype: DT_FLOAT
        tensor_shape {
          dim {
            size: 16
          }
          dim {
            size: 128
          }
        }
        tensor_content: "…"
      }
    }
  }
}
node {
  name: "model_6/dense_48/BiasAdd/ReadVariableOp/resource"
  op: "Const"
  attr {
    key: "dtype"
    value {
      type: DT_FLOAT
    }
  }
  attr {
    key: "value"
    value {
      tensor {
        dtype: DT_FLOAT
        tensor_shape {
          dim {
            size: 128
          }
        }
        tensor_content: "…"
      }
    }
  }
}
node {
  name: "model_6/dense_49/MatMul/ReadVariableOp/resource"
  op: "Const"
  attr {
    key: "dtype"
    value {
      type: DT_FLOAT
    }
  }
  attr {
    key: "value"
    value {
      tensor {
        dtype: DT_FLOAT
        tensor_shape {
          dim {
            size: 128
          }
          dim {
            size: 64
          }
        }
        tensor_content: "…"
      }
    }
  }
}
node {
  name: "model_6/dense_49/BiasAdd/ReadVariableOp/resource"
  op: "Const"
  attr {
    key: "dtype"
    value {
      type: DT_FLOAT
    }
  }
  attr {
    key: "value"
    value {
      tensor {
        dtype: DT_FLOAT
        tensor_shape {
          dim {
            size: 64
          }
        }
        tensor_content: "…"
      }
    }
  }
}
node {
  name: "model_6/batch_normalization_12/batchnorm/ReadVariableOp/resource"
  op: "Const"
  attr {
    key: "dtype"
    value {
      type: DT_FLOAT
    }
  }
  attr {
    key: "value"
    value {
      tensor {
        dtype: DT_FLOAT
        tensor_shape {
          dim {
            size: 64
          }
        }
        tensor_content: "…"
      }
    }
  }
}
node {
  name: "model_6/batch_normalization_12/batchnorm/add/y"
  op: "Const"
  attr {
    key: "dtype"
    value {
      type: DT_FLOAT
    }
  }
  attr {
    key: "value"
    value {
      tensor {
        dtype: DT_FLOAT
        tensor_shape {
        }
        float_val: 0.0010000000474974513
      }
    }
  }
}
node {
  name: "model_6/batch_normalization_12/batchnorm/mul/ReadVariableOp/resource"
  op: "Const"
  attr {
    key: "dtype"
    value {
      type: DT_FLOAT
    }
  }
  attr {
    key: "value"
    value {
      tensor {
        dtype: DT_FLOAT
        tensor_shape {
          dim {
            size: 64
          }
        }
        tensor_content: "…"
      }
    }
  }
}
node {
  name: "model_6/batch_normalization_12/batchnorm/ReadVariableOp_2/resource"
  op: "Const"
  attr {
    key: "dtype"
    value {
      type: DT_FLOAT
    }
  }
  attr {
    key: "value"
    value {
      tensor {
        dtype: DT_FLOAT
        tensor_shape {
          dim {
            size: 64
          }
        }
        tensor_content: "…"
      }
    }
  }
}
node {
  name: "model_6/batch_normalization_12/batchnorm/ReadVariableOp_1/resource"
  op: "Const"
  attr {
    key: "dtype"
    value {
      type: DT_FLOAT
    }
  }
  attr {
    key: "value"
    value {
      tensor {
        dtype: DT_FLOAT
        tensor_shape {
          dim {
            size: 64
          }
        }
        tensor_content: "…"
      }
    }
  }
}
node {
  name: "model_6/dense_50/MatMul/ReadVariableOp/resource"
  op: "Const"
  attr {
    key: "dtype"
    value {
      type: DT_FLOAT
    }
  }
  attr {
    key: "value"
    value {
      tensor {
        dtype: DT_FLOAT
        tensor_shape {
          dim {
            size: 16
          }
          dim {
            size: 64
          }
        }
        tensor_content: "…"
      }
    }
  }
}
node {
  name: "model_6/dense_50/BiasAdd/ReadVariableOp/resource"
  op: "Const"
  attr {
    key: "dtype"
    value {
      type: DT_FLOAT
    }
  }
  attr {
    key: "value"
    value {
      tensor {
        dtype: DT_FLOAT
        tensor_shape {
          dim {
            size: 64
          }
        }
        tensor_content: "…"
      }
    }
  }
}
node {
  name: "model_6/dense_51/MatMul/ReadVariableOp/resource"
  op: "Const"
  attr {
    key: "dtype"
    value {
      type: DT_FLOAT
    }
  }
  attr {
    key: "value"
    value {
      tensor {
        dtype: DT_FLOAT
        tensor_shape {
          dim {
            size: 64
          }
          dim {
            size: 1
          }
        }
        tensor_content: "…"
      }
    }
  }
}
node {
  name: "model_6/dense_51/BiasAdd/ReadVariableOp/resource"
  op: "Const"
  attr {
    key: "dtype"
    value {
      type: DT_FLOAT
    }
  }
  attr {
    key: "value"
    value {
      tensor {
        dtype: DT_FLOAT
        tensor_shape {
          dim {
            size: 1
          }
        }
        float_val: -1.0141247510910034
      }
    }
  }
}
node {
  name: "model_6/dense_52/MatMul/ReadVariableOp/resource"
  op: "Const"
  attr {
    key: "dtype"
    value {
      type: DT_FLOAT
    }
  }
  attr {
    key: "value"
    value {
      tensor {
        dtype: DT_FLOAT
        tensor_shape {
          dim {
            size: 16
          }
          dim {
            size: 128
          }
        }
        tensor_content: "…"
      }
    }
  }
}
node {
  name: "model_6/dense_52/BiasAdd/ReadVariableOp/resource"
  op: "Const"
  attr {
    key: "dtype"
    value {
      type: DT_FLOAT
    }
  }
  attr {
    key: "value"
    value {
      tensor {
        dtype: DT_FLOAT
        tensor_shape {
          dim {
            size: 128
          }
        }
        tensor_content: "…"
      }
    }
  }
}
node {
  name: "model_6/dense_53/MatMul/ReadVariableOp/resource"
  op: "Const"
  attr {
    key: "dtype"
    value {
      type: DT_FLOAT
    }
  }
  attr {
    key: "value"
    value {
      tensor {
        dtype: DT_FLOAT
        tensor_shape {
          dim {
            size: 128
          }
          dim {
            size: 64
          }
        }
        tensor_content: "…"
      }
    }
  }
}
node {
  name: "model_6/dense_53/BiasAdd/ReadVariableOp/resource"
  op: "Const"
  attr {
    key: "dtype"
    value {
      type: DT_FLOAT
    }
  }
  attr {
    key: "value"
    value {
      tensor {
        dtype: DT_FLOAT
        tensor_shape {
          dim {
            size: 64
          }
        }
        tensor_content: "…"
      }
    }
  }
}
node {
  name: "model_6/batch_normalization_13/batchnorm/ReadVariableOp/resource"
  op: "Const"
  attr {
    key: "dtype"
    value {
      type: DT_FLOAT
    }
  }
  attr {
    key: "value"
    value {
      tensor {
        dtype: DT_FLOAT
        tensor_shape {
          dim {
            size: 64
          }
        }
        tensor_content: "…"
      }
    }
  }
}
node {
  name: "model_6/batch_normalization_13/batchnorm/add/y"
  op: "Const"
  attr {
    key: "dtype"
    value {
      type: DT_FLOAT
    }
  }
  attr {
    key: "value"
    value {
      tensor {
        dtype: DT_FLOAT
        tensor_shape {
        }
        float_val: 0.0010000000474974513
      }
    }
  }
}
node {
  name: "model_6/batch_normalization_13/batchnorm/mul/ReadVariableOp/resource"
  op: "Const"
  attr {
    key: "dtype"
    value {
      type: DT_FLOAT
    }
  }
  attr {
    key: "value"
    value {
      tensor {
        dtype: DT_FLOAT
        tensor_shape {
          dim {
            size: 64
          }
        }
        tensor_content: "…"
      }
    }
  }
}
node {
  name: "model_6/batch_normalization_13/batchnorm/ReadVariableOp_2/resource"
  op: "Const"
  attr {
    key: "dtype"
    value {
      type: DT_FLOAT
    }
  }
  attr {
    key: "value"
    value {
      tensor {
        dtype: DT_FLOAT
        tensor_shape {
          dim {
            size: 64
          }
        }
        tensor_content: "…"
      }
    }
  }
}
node {
  name: "model_6/batch_normalization_13/batchnorm/ReadVariableOp_1/resource"
  op: "Const"
  attr {
    key: "dtype"
    value {
      type: DT_FLOAT
    }
  }
  attr {
    key: "value"
    value {
      tensor {
        dtype: DT_FLOAT
        tensor_shape {
          dim {
            size: 64
          }
        }
        tensor_content: "…"
      }
    }
  }
}
node {
  name: "model_6/dense_54/MatMul/ReadVariableOp/resource"
  op: "Const"
  attr {
    key: "dtype"
    value {
      type: DT_FLOAT
    }
  }
  attr {
    key: "value"
    value {
      tensor {
        dtype: DT_FLOAT
        tensor_shape {
          dim {
            size: 16
          }
          dim {
            size: 64
          }
        }
        tensor_content: "…"
      }
    }
  }
}
node {
  name: "model_6/dense_54/BiasAdd/ReadVariableOp/resource"
  op: "Const"
  attr {
    key: "dtype"
    value {
      type: DT_FLOAT
    }
  }
  attr {
    key: "value"
    value {
      tensor {
        dtype: DT_FLOAT
        tensor_shape {
          dim {
            size: 64
          }
        }
        tensor_content: "…"
      }
    }
  }
}
node {
  name: "model_6/dense_55/MatMul/ReadVariableOp/resource"
  op: "Const"
  attr {
    key: "dtype"
    value {
      type: DT_FLOAT
    }
  }
  attr {
    key: "value"
    value {
      tensor {
        dtype: DT_FLOAT
        tensor_shape {
          dim {
            size: 64
          }
          dim {
            size: 1
          }
        }
        tensor_content: "…"
      }
    }
  }
}
node {
  name: "model_6/dense_55/BiasAdd/ReadVariableOp/resource"
  op: "Const"
  attr {
    key: "dtype"
    value {
      type: DT_FLOAT
    }
  }
  attr {
    key: "value"
    value {
      tensor {
        dtype: DT_FLOAT
        tensor_shape {
          dim {
            size: 1
          }
        }
        float_val: 0.6895699501037598
      }
    }
  }
}
node {
  name: "model_6/tf.clip_by_value_6/clip_by_value/Minimum/y"
  op: "Const"
  attr {
    key: "dtype"
    value {
      type: DT_FLOAT
    }
  }
  attr {
    key: "value"
    value {
      tensor {
        dtype: DT_FLOAT
        tensor_shape {
        }
        float_val: 120.0
      }
    }
  }
}
node {
  name: "model_6/tf.clip_by_value_6/clip_by_value/y"
  op: "Const"
  attr {
    key: "dtype"
    value {
      type: DT_FLOAT
    }
  }
  attr {
    key: "value"
    value {
      tensor {
        dtype: DT_FLOAT
        tensor_shape {
        }
        float_val: 3.0
      }
    }
  }
}
node {
  name: "model_6/concatenate_13/concat/axis"
  op: "Const"
  attr {
    key: "dtype"
    value {
      type: DT_INT32
    }
  }
  attr {
    key: "value"
    value {
      tensor {
        dtype: DT_INT32
        tensor_shape {
        }
        int_val: 1
      }
    }
  }
}
node {
  name: "model_6/flatten_6/Reshape"
  op: "Reshape"
  input: "pixel_projection_x"
  input: "model_6/flatten_6/Const"
  attr {
    key: "T"
    value {
      type: DT_FLOAT
    }
  }
  attr {
    key: "Tshape"
    value {
      type: DT_INT32
    }
  }
}
node {
  name: "model_6/concatenate_12/concat"
  op: "ConcatV2"
  input: "model_6/flatten_6/Reshape"
  input: "angles"
  input: "cluster_charge"
  input: "model_6/concatenate_12/concat/axis"
  attr {
    key: "N"
    value {
      i: 3
    }
  }
  attr {
    key: "T"
    value {
      type: DT_FLOAT
    }
  }
  attr {
    key: "Tidx"
    value {
      type: DT_INT32
    }
  }
}
node {
  name: "model_6/dense_48/MatMul/ReadVariableOp"
  op: "Identity"
  input: "model_6/dense_48/MatMul/ReadVariableOp/resource"
  attr {
    key: "T"
    value {
      type: DT_FLOAT
    }
  }
  attr {
    key: "_has_manual_control_dependencies"
    value {
      b: true
    }
  }
}
node {
  name: "model_6/dense_48/MatMul"
  op: "MatMul"
  input: "model_6/concatenate_12/concat"
  input: "model_6/dense_48/MatMul/ReadVariableOp"
  attr {
    key: "T"
    value {
      type: DT_FLOAT
    }
  }
  attr {
    key: "transpose_a"
    value {
      b: false
    }
  }
  attr {
    key: "transpose_b"
    value {
      b: false
    }
  }
}
node {
  name: "model_6/dense_48/BiasAdd/ReadVariableOp"
  op: "Identity"
  input: "model_6/dense_48/BiasAdd/ReadVariableOp/resource"
  attr {
    key: "T"
    value {
      type: DT_FLOAT
    }
  }
  attr {
    key: "_has_manual_control_dependencies"
    value {
      b: true
    }
  }
}
node {
  name: "model_6/dense_48/BiasAdd"
  op: "BiasAdd"
  input: "model_6/dense_48/MatMul"
  input: "model_6/dense_48/BiasAdd/ReadVariableOp"
  attr {
    key: "T"
    value {
      type: DT_FLOAT
    }
  }
  attr {
    key: "data_format"
    value {
      s: "NHWC"
    }
  }
}
node {
  name: "model_6/leaky_re_lu_24/LeakyRelu"
  op: "LeakyRelu"
  input: "model_6/dense_48/BiasAdd"
  attr {
    key: "T"
    value {
      type: DT_FLOAT
    }
  }
  attr {
    key: "alpha"
    value {
      f: 0.009999999776482582
    }
  }
}
node {
  name: "model_6/dense_49/MatMul/ReadVariableOp"
  op: "Identity"
  input: "model_6/dense_49/MatMul/ReadVariableOp/resource"
  attr {
    key: "T"
    value {
      type: DT_FLOAT
    }
  }
  attr {
    key: "_has_manual_control_dependencies"
    value {
      b: true
    }
  }
}
node {
  name: "model_6/dense_49/MatMul"
  op: "MatMul"
  input: "model_6/leaky_re_lu_24/LeakyRelu"
  input: "model_6/dense_49/MatMul/ReadVariableOp"
  attr {
    key: "T"
    value {
      type: DT_FLOAT
    }
  }
  attr {
    key: "transpose_a"
    value {
      b: false
    }
  }
  attr {
    key: "transpose_b"
    value {
      b: false
    }
  }
}
node {
  name: "model_6/dense_49/BiasAdd/ReadVariableOp"
  op: "Identity"
  input: "model_6/dense_49/BiasAdd/ReadVariableOp/resource"
  attr {
    key: "T"
    value {
      type: DT_FLOAT
    }
  }
  attr {
    key: "_has_manual_control_dependencies"
    value {
      b: true
    }
  }
}
node {
  name: "model_6/dense_49/BiasAdd"
  op: "BiasAdd"
  input: "model_6/dense_49/MatMul"
  input: "model_6/dense_49/BiasAdd/ReadVariableOp"
  attr {
    key: "T"
    value {
      type: DT_FLOAT
    }
  }
  attr {
    key: "data_format"
    value {
      s: "NHWC"
    }
  }
}
node {
  name: "model_6/leaky_re_lu_25/LeakyRelu"
  op: "LeakyRelu"
  input: "model_6/dense_49/BiasAdd"
  attr {
    key: "T"
    value {
      type: DT_FLOAT
    }
  }
  attr {
    key: "alpha"
    value {
      f: 0.009999999776482582
    }
  }
}
node {
  name: "model_6/batch_normalization_12/batchnorm/ReadVariableOp"
  op: "Identity"
  input: "model_6/batch_normalization_12/batchnorm/ReadVariableOp/resource"
  attr {
    key: "T"
    value {
      type: DT_FLOAT
    }
  }
  attr {
    key: "_has_manual_control_dependencies"
    value {
      b: true
    }
  }
}
node {
  name: "model_6/batch_normalization_12/batchnorm/add"
  op: "AddV2"
  input: "model_6/batch_normalization_12/batchnorm/ReadVariableOp"
  input: "model_6/batch_normalization_12/batchnorm/add/y"
  attr {
    key: "T"
    value {
      type: DT_FLOAT
    }
  }
}
node {
  name: "model_6/batch_normalization_12/batchnorm/Rsqrt"
  op: "Rsqrt"
  input: "model_6/batch_normalization_12/batchnorm/add"
  attr {
    key: "T"
    value {
      type: DT_FLOAT
    }
  }
}
node {
  name: "model_6/batch_normalization_12/batchnorm/mul/ReadVariableOp"
  op: "Identity"
  input: "model_6/batch_normalization_12/batchnorm/mul/ReadVariableOp/resource"
  attr {
    key: "T"
    value {
      type: DT_FLOAT
    }
  }
  attr {
    key: "_has_manual_control_dependencies"
    value {
      b: true
    }
  }
}
node {
  name: "model_6/batch_normalization_12/batchnorm/mul"
  op: "Mul"
  input: "model_6/batch_normalization_12/batchnorm/Rsqrt"
  input: "model_6/batch_normalization_12/batchnorm/mul/ReadVariableOp"
  attr {
    key: "T"
    value {
      type: DT_FLOAT
    }
  }
}
node {
  name: "model_6/batch_normalization_12/batchnorm/mul_1"
  op: "Mul"
  input: "model_6/leaky_re_lu_25/LeakyRelu"
  input: "model_6/batch_normalization_12/batchnorm/mul"
  attr {
    key: "T"
    value {
      type: DT_FLOAT
    }
  }
}
node {
  name: "model_6/batch_normalization_12/batchnorm/ReadVariableOp_2"
  op: "Identity"
  input: "model_6/batch_normalization_12/batchnorm/ReadVariableOp_2/resource"
  attr {
    key: "T"
    value {
      type: DT_FLOAT
    }
  }
  attr {
    key: "_has_manual_control_dependencies"
    value {
      b: true
    }
  }
}
node {
  name: "model_6/batch_normalization_12/batchnorm/ReadVariableOp_1"
  op: "Identity"
  input: "model_6/batch_normalization_12/batchnorm/ReadVariableOp_1/resource"
  attr {
    key: "T"
    value {
      type: DT_FLOAT
    }
  }
  attr {
    key: "_has_manual_control_dependencies"
    value {
      b: true
    }
  }
}
node {
  name: "model_6/batch_normalization_12/batchnorm/mul_2"
  op: "Mul"
  input: "model_6/batch_normalization_12/batchnorm/ReadVariableOp_1"
  input: "model_6/batch_normalization_12/batchnorm/mul"
  attr {
    key: "T"
    value {
      type: DT_FLOAT
    }
  }
}
node {
  name: "model_6/batch_normalization_12/batchnorm/sub"
  op: "Sub"
  input: "model_6/batch_normalization_12/batchnorm/ReadVariableOp_2"
  input: "model_6/batch_normalization_12/batchnorm/mul_2"
  attr {
    key: "T"
    value {
      type: DT_FLOAT
    }
  }
}
node {
  name: "model_6/batch_normalization_12/batchnorm/add_1"
  op: "AddV2"
  input: "model_6/batch_normalization_12/batchnorm/mul_1"
  input: "model_6/batch_normalization_12/batchnorm/sub"
  attr {
    key: "T"
    value {
      type: DT_FLOAT
    }
  }
}
node {
  name: "model_6/dropout_12/Identity"
  op: "Identity"
  input: "model_6/batch_normalization_12/batchnorm/add_1"
  attr {
    key: "T"
    value {
      type: DT_FLOAT
    }
  }
}
node {
  name: "model_6/dense_50/MatMul/ReadVariableOp"
  op: "Identity"
  input: "model_6/dense_50/MatMul/ReadVariableOp/resource"
  attr {
    key: "T"
    value {
      type: DT_FLOAT
    }
  }
  attr {
    key: "_has_manual_control_dependencies"
    value {
      b: true
    }
  }
}
node {
  name: "model_6/dense_50/MatMul"
  op: "MatMul"
  input: "model_6/concatenate_12/concat"
  input: "model_6/dense_50/MatMul/ReadVariableOp"
  attr {
    key: "T"
    value {
      type: DT_FLOAT
    }
  }
  attr {
    key: "transpose_a"
    value {
      b: false
    }
  }
  attr {
    key: "transpose_b"
    value {
      b: false
    }
  }
}
node {
  name: "model_6/dense_50/BiasAdd/ReadVariableOp"
  op: "Identity"
  input: "model_6/dense_50/BiasAdd/ReadVariableOp/resource"
  attr {
    key: "T"
    value {
      type: DT_FLOAT
    }
  }
  attr {
    key: "_has_manual_control_dependencies"
    value {
      b: true
    }
  }
}
node {
  name: "model_6/dense_50/BiasAdd"
  op: "BiasAdd"
  input: "model_6/dense_50/MatMul"
  input: "model_6/dense_50/BiasAdd/ReadVariableOp"
  attr {
    key: "T"
    value {
      type: DT_FLOAT
    }
  }
  attr {
    key: "data_format"
    value {
      s: "NHWC"
    }
  }
}
node {
  name: "model_6/add_12/add"
  op: "AddV2"
  input: "model_6/dropout_12/Identity"
  input: "model_6/dense_50/BiasAdd"
  attr {
    key: "T"
    value {
      type: DT_FLOAT
    }
  }
}
node {
  name: "model_6/dense_51/MatMul/ReadVariableOp"
  op: "Identity"
  input: "model_6/dense_51/MatMul/ReadVariableOp/resource"
  attr {
    key: "T"
    value {
      type: DT_FLOAT
    }
  }
  attr {
    key: "_has_manual_control_dependencies"
    value {
      b: true
    }
  }
}
node {
  name: "model_6/dense_51/MatMul"
  op: "MatMul"
  input: "model_6/add_12/add"
  input: "model_6/dense_51/MatMul/ReadVariableOp"
  attr {
    key: "T"
    value {
      type: DT_FLOAT
    }
  }
  attr {
    key: "transpose_a"
    value {
      b: false
    }
  }
  attr {
    key: "transpose_b"
    value {
      b: false
    }
  }
}
node {
  name: "model_6/dense_51/BiasAdd/ReadVariableOp"
  op: "Identity"
  input: "model_6/dense_51/BiasAdd/ReadVariableOp/resource"
  attr {
    key: "T"
    value {
      type: DT_FLOAT
    }
  }
  attr {
    key: "_has_manual_control_dependencies"
    value {
      b: true
    }
  }
}
node {
  name: "model_6/dense_51/BiasAdd"
  op: "BiasAdd"
  input: "model_6/dense_51/MatMul"
  input: "model_6/dense_51/BiasAdd/ReadVariableOp"
  attr {
    key: "T"
    value {
      type: DT_FLOAT
    }
  }
  attr {
    key: "data_format"
    value {
      s: "NHWC"
    }
  }
}
node {
  name: "model_6/dense_52/MatMul/ReadVariableOp"
  op: "Identity"
  input: "model_6/dense_52/MatMul/ReadVariableOp/resource"
  attr {
    key: "T"
    value {
      type: DT_FLOAT
    }
  }
  attr {
    key: "_has_manual_control_dependencies"
    value {
      b: true
    }
  }
}
node {
  name: "model_6/dense_52/MatMul"
  op: "MatMul"
  input: "model_6/concatenate_12/concat"
  input: "model_6/dense_52/MatMul/ReadVariableOp"
  attr {
    key: "T"
    value {
      type: DT_FLOAT
    }
  }
  attr {
    key: "transpose_a"
    value {
      b: false
    }
  }
  attr {
    key: "transpose_b"
    value {
      b: false
    }
  }
}
node {
  name: "model_6/dense_52/BiasAdd/ReadVariableOp"
  op: "Identity"
  input: "model_6/dense_52/BiasAdd/ReadVariableOp/resource"
  attr {
    key: "T"
    value {
      type: DT_FLOAT
    }
  }
  attr {
    key: "_has_manual_control_dependencies"
    value {
      b: true
    }
  }
}
node {
  name: "model_6/dense_52/BiasAdd"
  op: "BiasAdd"
  input: "model_6/dense_52/MatMul"
  input: "model_6/dense_52/BiasAdd/ReadVariableOp"
  attr {
    key: "T"
    value {
      type: DT_FLOAT
    }
  }
  attr {
    key: "data_format"
    value {
      s: "NHWC"
    }
  }
}
node {
  name: "model_6/leaky_re_lu_26/LeakyRelu"
  op: "LeakyRelu"
  input: "model_6/dense_52/BiasAdd"
  attr {
    key: "T"
    value {
      type: DT_FLOAT
    }
  }
  attr {
    key: "alpha"
    value {
      f: 0.009999999776482582
    }
  }
}
node {
  name: "model_6/dense_53/MatMul/ReadVariableOp"
  op: "Identity"
  input: "model_6/dense_53/MatMul/ReadVariableOp/resource"
  attr {
    key: "T"
    value {
      type: DT_FLOAT
    }
  }
  attr {
    key: "_has_manual_control_dependencies"
    value {
      b: true
    }
  }
}
node {
  name: "model_6/dense_53/MatMul"
  op: "MatMul"
  input: "model_6/leaky_re_lu_26/LeakyRelu"
  input: "model_6/dense_53/MatMul/ReadVariableOp"
  attr {
    key: "T"
    value {
      type: DT_FLOAT
    }
  }
  attr {
    key: "transpose_a"
    value {
      b: false
    }
  }
  attr {
    key: "transpose_b"
    value {
      b: false
    }
  }
}
node {
  name: "model_6/dense_53/BiasAdd/ReadVariableOp"
  op: "Identity"
  input: "model_6/dense_53/BiasAdd/ReadVariableOp/resource"
  attr {
    key: "T"
    value {
      type: DT_FLOAT
    }
  }
  attr {
    key: "_has_manual_control_dependencies"
    value {
      b: true
    }
  }
}
node {
  name: "model_6/dense_53/BiasAdd"
  op: "BiasAdd"
  input: "model_6/dense_53/MatMul"
  input: "model_6/dense_53/BiasAdd/ReadVariableOp"
  attr {
    key: "T"
    value {
      type: DT_FLOAT
    }
  }
  attr {
    key: "data_format"
    value {
      s: "NHWC"
    }
  }
}
node {
  name: "model_6/leaky_re_lu_27/LeakyRelu"
  op: "LeakyRelu"
  input: "model_6/dense_53/BiasAdd"
  attr {
    key: "T"
    value {
      type: DT_FLOAT
    }
  }
  attr {
    key: "alpha"
    value {
      f: 0.009999999776482582
    }
  }
}
node {
  name: "model_6/batch_normalization_13/batchnorm/ReadVariableOp"
  op: "Identity"
  input: "model_6/batch_normalization_13/batchnorm/ReadVariableOp/resource"
  attr {
    key: "T"
    value {
      type: DT_FLOAT
    }
  }
  attr {
    key: "_has_manual_control_dependencies"
    value {
      b: true
    }
  }
}
node {
  name: "model_6/batch_normalization_13/batchnorm/add"
  op: "AddV2"
  input: "model_6/batch_normalization_13/batchnorm/ReadVariableOp"
  input: "model_6/batch_normalization_13/batchnorm/add/y"
  attr {
    key: "T"
    value {
      type: DT_FLOAT
    }
  }
}
node {
  name: "model_6/batch_normalization_13/batchnorm/Rsqrt"
  op: "Rsqrt"
  input: "model_6/batch_normalization_13/batchnorm/add"
  attr {
    key: "T"
    value {
      type: DT_FLOAT
    }
  }
}
node {
  name: "model_6/batch_normalization_13/batchnorm/mul/ReadVariableOp"
  op: "Identity"
  input: "model_6/batch_normalization_13/batchnorm/mul/ReadVariableOp/resource"
  attr {
    key: "T"
    value {
      type: DT_FLOAT
    }
  }
  attr {
    key: "_has_manual_control_dependencies"
    value {
      b: true
    }
  }
}
node {
  name: "model_6/batch_normalization_13/batchnorm/mul"
  op: "Mul"
  input: "model_6/batch_normalization_13/batchnorm/Rsqrt"
  input: "model_6/batch_normalization_13/batchnorm/mul/ReadVariableOp"
  attr {
    key: "T"
    value {
      type: DT_FLOAT
    }
  }
}
node {
  name: "model_6/batch_normalization_13/batchnorm/mul_1"
  op: "Mul"
  input: "model_6/leaky_re_lu_27/LeakyRelu"
  input: "model_6/batch_normalization_13/batchnorm/mul"
  attr {
    key: "T"
    value {
      type: DT_FLOAT
    }
  }
}
node {
  name: "model_6/batch_normalization_13/batchnorm/ReadVariableOp_2"
  op: "Identity"
  input: "model_6/batch_normalization_13/batchnorm/ReadVariableOp_2/resource"
  attr {
    key: "T"
    value {
      type: DT_FLOAT
    }
  }
  attr {
    key: "_has_manual_control_dependencies"
    value {
      b: true
    }
  }
}
node {
  name: "model_6/batch_normalization_13/batchnorm/ReadVariableOp_1"
  op: "Identity"
  input: "model_6/batch_normalization_13/batchnorm/ReadVariableOp_1/resource"
  attr {
    key: "T"
    value {
      type: DT_FLOAT
    }
  }
  attr {
    key: "_has_manual_control_dependencies"
    value {
      b: true
    }
  }
}
node {
  name: "model_6/batch_normalization_13/batchnorm/mul_2"
  op: "Mul"
  input: "model_6/batch_normalization_13/batchnorm/ReadVariableOp_1"
  input: "model_6/batch_normalization_13/batchnorm/mul"
  attr {
    key: "T"
    value {
      type: DT_FLOAT
    }
  }
}
node {
  name: "model_6/batch_normalization_13/batchnorm/sub"
  op: "Sub"
  input: "model_6/batch_normalization_13/batchnorm/ReadVariableOp_2"
  input: "model_6/batch_normalization_13/batchnorm/mul_2"
  attr {
    key: "T"
    value {
      type: DT_FLOAT
    }
  }
}
node {
  name: "model_6/batch_normalization_13/batchnorm/add_1"
  op: "AddV2"
  input: "model_6/batch_normalization_13/batchnorm/mul_1"
  input: "model_6/batch_normalization_13/batchnorm/sub"
  attr {
    key: "T"
    value {
      type: DT_FLOAT
    }
  }
}
node {
  name: "model_6/dropout_13/Identity"
  op: "Identity"
  input: "model_6/batch_normalization_13/batchnorm/add_1"
  attr {
    key: "T"
    value {
      type: DT_FLOAT
    }
  }
}
node {
  name: "model_6/dense_54/MatMul/ReadVariableOp"
  op: "Identity"
  input: "model_6/dense_54/MatMul/ReadVariableOp/resource"
  attr {
    key: "T"
    value {
      type: DT_FLOAT
    }
  }
  attr {
    key: "_has_manual_control_dependencies"
    value {
      b: true
    }
  }
}
node {
  name: "model_6/dense_54/MatMul"
  op: "MatMul"
  input: "model_6/concatenate_12/concat"
  input: "model_6/dense_54/MatMul/ReadVariableOp"
  attr {
    key: "T"
    value {
      type: DT_FLOAT
    }
  }
  attr {
    key: "transpose_a"
    value {
      b: false
    }
  }
  attr {
    key: "transpose_b"
    value {
      b: false
    }
  }
}
node {
  name: "model_6/dense_54/BiasAdd/ReadVariableOp"
  op: "Identity"
  input: "model_6/dense_54/BiasAdd/ReadVariableOp/resource"
  attr {
    key: "T"
    value {
      type: DT_FLOAT
    }
  }
  attr {
    key: "_has_manual_control_dependencies"
    value {
      b: true
    }
  }
}
node {
  name: "model_6/dense_54/BiasAdd"
  op: "BiasAdd"
  input: "model_6/dense_54/MatMul"
  input: "model_6/dense_54/BiasAdd/ReadVariableOp"
  attr {
    key: "T"
    value {
      type: DT_FLOAT
    }
  }
  attr {
    key: "data_format"
    value {
      s: "NHWC"
    }
  }
}
node {
  name: "model_6/add_13/add"
  op: "AddV2"
  input: "model_6/dropout_13/Identity"
  input: "model_6/dense_54/BiasAdd"
  attr {
    key: "T"
    value {
      type: DT_FLOAT
    }
  }
}
node {
  name: "model_6/dense_55/MatMul/ReadVariableOp"
  op: "Identity"
  input: "model_6/dense_55/MatMul/ReadVariableOp/resource"
  attr {
    key: "T"
    value {
      type: DT_FLOAT
    }
  }
  attr {
    key: "_has_manual_control_dependencies"
    value {
      b: true
    }
  }
}
node {
  name: "model_6/dense_55/MatMul"
  op: "MatMul"
  input: "model_6/add_13/add"
  input: "model_6/dense_55/MatMul/ReadVariableOp"
  attr {
    key: "T"
    value {
      type: DT_FLOAT
    }
  }
  attr {
    key: "transpose_a"
    value {
      b: false
    }
  }
  attr {
    key: "transpose_b"
    value {
      b: false
    }
  }
}
node {
  name: "model_6/dense_55/BiasAdd/ReadVariableOp"
  op: "Identity"
  input: "model_6/dense_55/BiasAdd/ReadVariableOp/resource"
  attr {
    key: "T"
    value {
      type: DT_FLOAT
    }
  }
  attr {
    key: "_has_manual_control_dependencies"
    value {
      b: true
    }
  }
}
node {
  name: "model_6/dense_55/BiasAdd"
  op: "BiasAdd"
  input: "model_6/dense_55/MatMul"
  input: "model_6/dense_55/BiasAdd/ReadVariableOp"
  attr {
    key: "T"
    value {
      type: DT_FLOAT
    }
  }
  attr {
    key: "data_format"
    value {
      s: "NHWC"
    }
  }
}
node {
  name: "model_6/dense_55/Softplus"
  op: "Softplus"
  input: "model_6/dense_55/BiasAdd"
  attr {
    key: "T"
    value {
      type: DT_FLOAT
    }
  }
}
node {
  name: "model_6/tf.clip_by_value_6/clip_by_value/Minimum"
  op: "Minimum"
  input: "model_6/dense_55/Softplus"
  input: "model_6/tf.clip_by_value_6/clip_by_value/Minimum/y"
  attr {
    key: "T"
    value {
      type: DT_FLOAT
    }
  }
}
node {
  name: "model_6/tf.clip_by_value_6/clip_by_value"
  op: "Maximum"
  input: "model_6/tf.clip_by_value_6/clip_by_value/Minimum"
  input: "model_6/tf.clip_by_value_6/clip_by_value/y"
  attr {
    key: "T"
    value {
      type: DT_FLOAT
    }
  }
}
node {
  name: "model_6/concatenate_13/concat"
  op: "ConcatV2"
  input: "model_6/dense_51/BiasAdd"
  input: "model_6/tf.clip_by_value_6/clip_by_value"
  input: "model_6/concatenate_13/concat/axis"
  attr {
    key: "N"
    value {
      i: 2
    }
  }
  attr {
    key: "T"
    value {
      type: DT_FLOAT
    }
  }
  attr {
    key: "Tidx"
    value {
      type: DT_INT32
    }
  }
}
node {
  name: "NoOp"
  op: "NoOp"
  input: "^model_6/batch_normalization_12/batchnorm/ReadVariableOp"
  input: "^model_6/batch_normalization_12/batchnorm/ReadVariableOp_1"
  input: "^model_6/batch_normalization_12/batchnorm/ReadVariableOp_2"
  input: "^model_6/batch_normalization_12/batchnorm/mul/ReadVariableOp"
  input: "^model_6/batch_normalization_13/batchnorm/ReadVariableOp"
  input: "^model_6/batch_normalization_13/batchnorm/ReadVariableOp_1"
  input: "^model_6/batch_normalization_13/batchnorm/ReadVariableOp_2"
  input: "^model_6/batch_normalization_13/batchnorm/mul/ReadVariableOp"
  input: "^model_6/dense_48/BiasAdd/ReadVariableOp"
  input: "^model_6/dense_48/MatMul/ReadVariableOp"
  input: "^model_6/dense_49/BiasAdd/ReadVariableOp"
  input: "^model_6/dense_49/MatMul/ReadVariableOp"
  input: "^model_6/dense_50/BiasAdd/ReadVariableOp"
  input: "^model_6/dense_50/MatMul/ReadVariableOp"
  input: "^model_6/dense_51/BiasAdd/ReadVariableOp"
  input: "^model_6/dense_51/MatMul/ReadVariableOp"
  input: "^model_6/dense_52/BiasAdd/ReadVariableOp"
  input: "^model_6/dense_52/MatMul/ReadVariableOp"
  input: "^model_6/dense_53/BiasAdd/ReadVariableOp"
  input: "^model_6/dense_53/MatMul/ReadVariableOp"
  input: "^model_6/dense_54/BiasAdd/ReadVariableOp"
  input: "^model_6/dense_54/MatMul/ReadVariableOp"
  input: "^model_6/dense_55/BiasAdd/ReadVariableOp"
  input: "^model_6/dense_55/MatMul/ReadVariableOp"
  attr {
    key: "_has_manual_control_dependencies"
    value {
      b: true
    }
  }
}
node {
  name: "Identity"
  op: "Identity"
  input: "model_6/concatenate_13/concat"
  input: "^NoOp"
  attr {
    key: "T"
    value {
      type: DT_FLOAT
    }
  }
}
versions {
  producer: 1482
}
