node {
  name: "pixel_projection_y"
  op: "Placeholder"
  attr {
    key: "dtype"
    value {
      type: DT_FLOAT
    }
  }
  attr {
    key: "shape"
    value {
      shape {
        dim {
          size: -1
        }
        dim {
          size: 21
        }
        dim {
          size: 1
        }
      }
    }
  }
}
node {
  name: "angles"
  op: "Placeholder"
  attr {
    key: "dtype"
    value {
      type: DT_FLOAT
    }
  }
  attr {
    key: "shape"
    value {
      shape {
        dim {
          size: -1
        }
        dim {
          size: 2
        }
      }
    }
  }
}
node {
  name: "cluster_charge"
  op: "Placeholder"
  attr {
    key: "dtype"
    value {
      type: DT_FLOAT
    }
  }
  attr {
    key: "shape"
    value {
      shape {
        dim {
          size: -1
        }
        dim {
          size: 1
        }
      }
    }
  }
}
node {
  name: "model_7/flatten_7/Const"
  op: "Const"
  attr {
    key: "dtype"
    value {
      type: DT_INT32
    }
  }
  attr {
    key: "value"
    value {
      tensor {
        dtype: DT_INT32
        tensor_shape {
          dim {
            size: 2
          }
        }
        tensor_content: "\377\377\377\377\025\000\000\000"
      }
    }
  }
}
node {
  name: "model_7/concatenate_14/concat/axis"
  op: "Const"
  attr {
    key: "dtype"
    value {
      type: DT_INT32
    }
  }
  attr {
    key: "value"
    value {
      tensor {
        dtype: DT_INT32
        tensor_shape {
        }
        int_val: 1
      }
    }
  }
}
node {
  name: "model_7/dense_56/MatMul/ReadVariableOp/resource"
  op: "Const"
  attr {
    key: "dtype"
    value {
      type: DT_FLOAT
    }
  }
  attr {
    key: "value"
    value {
      tensor {
        dtype: DT_FLOAT
        tensor_shape {
          dim {
            size: 24
          }
          dim {
            size: 192
          }
        }
        tensor_content: "…"
      }
    }
  }
}
node {
  name: "model_7/dense_56/BiasAdd/ReadVariableOp/resource"
  op: "Const"
  attr {
    key: "dtype"
    value {
      type: DT_FLOAT
    }
  }
  attr {
    key: "value"
    value {
      tensor {
        dtype: DT_FLOAT
        tensor_shape {
          dim {
            size: 192
          }
        }
        tensor_content: "…"
      }
    }
  }
}
node {
  name: "model_7/dense_57/MatMul/ReadVariableOp/resource"
  op: "Const"
  attr {
    key: "dtype"
    value {
      type: DT_FLOAT
    }
  }
  attr {
    key: "value"
    value {
      tensor {
        dtype: DT_FLOAT
        tensor_shape {
          dim {
            size: 192
          }
          dim {
            size: 96
          }
        }
        tensor_content: "…"
      }
    }
  }
}
node {
  name: "model_7/dense_57/BiasAdd/ReadVariableOp/resource"
  op: "Const"
  attr {
    key: "dtype"
    value {
      type: DT_FLOAT
    }
  }
  attr {
    key: "value"
    value {
      tensor {
        dtype: DT_FLOAT
        tensor_shape {
          dim {
            size: 96
          }
        }
        tensor_content: "…"
      }
    }
  }
}
node {
  name: "model_7/batch_normalization_14/batchnorm/ReadVariableOp/resource"
  op: "Const"
  attr {
    key: "dtype"
    value {
      type: DT_FLOAT
    }
  }
  attr {
    key: "value"
    value {
      tensor {
        dtype: DT_FLOAT
        tensor_shape {
          dim {
            size: 96
          }
        }
        tensor_content: "…"
      }
    }
  }
}
node {
  name: "model_7/batch_normalization_14/batchnorm/add/y"
  op: "Const"
  attr {
    key: "dtype"
    value {
      type: DT_FLOAT
    }
  }
  attr {
    key: "value"
    value {
      tensor {
        dtype: DT_FLOAT
        tensor_shape {
        }
        float_val: 0.0010000000474974513
      }
    }
  }
}
node {
  name: "model_7/batch_normalization_14/batchnorm/mul/ReadVariableOp/resource"
  op: "Const"
  attr {
    key: "dtype"
    value {
      type: DT_FLOAT
    }
  }
  attr {
    key: "value"
    value {
      tensor {
        dtype: DT_FLOAT
        tensor_shape {
          dim {
            size: 96
          }
        }
        tensor_content: "…"
      }
    }
  }
}
node {
  name: "model_7/batch_normalization_14/batchnorm/ReadVariableOp_2/resource"
  op: "Const"
  attr {
    key: "dtype"
    value {
      type: DT_FLOAT
    }
  }
  attr {
    key: "value"
    value {
      tensor {
        dtype: DT_FLOAT
        tensor_shape {
          dim {
            size: 96
          }
        }
        tensor_content: "…"
      }
    }
  }
}
node {
  name: "model_7/batch_normalization_14/batchnorm/ReadVariableOp_1/resource"
  op: "Const"
  attr {
    key: "dtype"
    value {
      type: DT_FLOAT
    }
  }
  attr {
    key: "value"
    value {
      tensor {
        dtype: DT_FLOAT
        tensor_shape {
          dim {
            size: 96
          }
        }
        tensor_content: "…"
      }
    }
  }
}
node {
  name: "model_7/dense_58/MatMul/ReadVariableOp/resource"
  op: "Const"
  attr {
    key: "dtype"
    value {
      type: DT_FLOAT
    }
  }
  attr {
    key: "value"
    value {
      tensor {
        dtype: DT_FLOAT
        tensor_shape {
          dim {
            size: 24
          }
          dim {
            size: 96
          }
        }
        tensor_content: "…"
      }
    }
  }
}
node {
  name: "model_7/dense_58/BiasAdd/ReadVariableOp/resource"
  op: "Const"
  attr {
    key: "dtype"
    value {
      type: DT_FLOAT
    }
  }
  attr {
    key: "value"
    value {
      tensor {
        dtype: DT_FLOAT
        tensor_shape {
          dim {
            size: 96
          }
        }
        tensor_content: "…"
      }
    }
  }
}
node {
  name: "model_7/dense_59/MatMul/ReadVariableOp/resource"
  op: "Const"
  attr {
    key: "dtype"
    value {
      type: DT_FLOAT
    }
  }
  attr {
    key: "value"
    value {
      tensor {
        dtype: DT_FLOAT
        tensor_shape {
          dim {
            size: 96
          }
          dim {
            size: 1
          }
        }
        tensor_content: "…"
      }
    }
  }
}
node {
  name: "model_7/dense_59/BiasAdd/ReadVariableOp/resource"
  op: "Const"
  attr {
    key: "dtype"
    value {
      type: DT_FLOAT
    }
  }
  attr {
    key: "value"
    value {
      tensor {
        dtype: DT_FLOAT
        tensor_shape {
          dim {
            size: 1
          }
        }
        float_val: 0.005617426708340645
      }
    }
  }
}
node {
  name: "model_7/dense_60/MatMul/ReadVariableOp/resource"
  op: "Const"
  attr {
    key: "dtype"
    value {
      type: DT_FLOAT
    }
  }
  attr {
    key: "value"
    value {
      tensor {
        dtype: DT_FLOAT
        tensor_shape {
          dim {
            size: 24
          }
          dim {
            size: 192
          }
        }
        tensor_content: "…"
      }
    }
  }
}
node {
  name: "model_7/dense_60/BiasAdd/ReadVariableOp/resource"
  op: "Const"
  attr {
    key: "dtype"
    value {
      type: DT_FLOAT
    }
  }
  attr {
    key: "value"
    value {
      tensor {
        dtype: DT_FLOAT
        tensor_shape {
          dim {
            size: 192
          }
        }
        tensor_content: "…"
      }
    }
  }
}
node {
  name: "model_7/dense_61/MatMul/ReadVariableOp/resource"
  op: "Const"
  attr {
    key: "dtype"
    value {
      type: DT_FLOAT
    }
  }
  attr {
    key: "value"
    value {
      tensor {
        dtype: DT_FLOAT
        tensor_shape {
          dim {
            size: 192
          }
          dim {
            size: 96
          }
        }
        tensor_content: "…"
      }
    }
  }
}
node {
  name: "model_7/dense_61/BiasAdd/ReadVariableOp/resource"
  op: "Const"
  attr {
    key: "dtype"
    value {
      type: DT_FLOAT
    }
  }
  attr {
    key: "value"
    value {
      tensor {
        dtype: DT_FLOAT
        tensor_shape {
          dim {
            size: 96
          }
        }
        tensor_content: "…"
      }
    }
  }
}
node {
  name: "model_7/batch_normalization_15/batchnorm/ReadVariableOp/resource"
  op: "Const"
  attr {
    key: "dtype"
    value {
      type: DT_FLOAT
    }
  }
  attr {
    key: "value"
    value {
      tensor {
        dtype: DT_FLOAT
        tensor_shape {
          dim {
            size: 96
          }
        }
        tensor_content: "…"
      }
    }
  }
}
node {
  name: "model_7/batch_normalization_15/batchnorm/add/y"
  op: "Const"
  attr {
    key: "dtype"
    value {
      type: DT_FLOAT
    }
  }
  attr {
    key: "value"
    value {
      tensor {
        dtype: DT_FLOAT
        tensor_shape {
        }
        float_val: 0.0010000000474974513
      }
    }
  }
}
node {
  name: "model_7/batch_normalization_15/batchnorm/mul/ReadVariableOp/resource"
  op: "Const"
  attr {
    key: "dtype"
    value {
      type: DT_FLOAT
    }
  }
  attr {
    key: "value"
    value {
      tensor {
        dtype: DT_FLOAT
        tensor_shape {
          dim {
            size: 96
          }
        }
        tensor_content: "…"
      }
    }
  }
}
node {
  name: "model_7/batch_normalization_15/batchnorm/ReadVariableOp_2/resource"
  op: "Const"
  attr {
    key: "dtype"
    value {
      type: DT_FLOAT
    }
  }
  attr {
    key: "value"
    value {
      tensor {
        dtype: DT_FLOAT
        tensor_shape {
          dim {
            size: 96
          }
        }
        tensor_content: "…"
      }
    }
  }
}
node {
  name: "model_7/batch_normalization_15/batchnorm/ReadVariableOp_1/resource"
  op: "Const"
  attr {
    key: "dtype"
    value {
      type: DT_FLOAT
    }
  }
  attr {
    key: "value"
    value {
      tensor {
        dtype: DT_FLOAT
        tensor_shape {
          dim {
            size: 96
          }
        }
        tensor_content: "…"
      }
    }
  }
}
node {
  name: "model_7/dense_62/MatMul/ReadVariableOp/resource"
  op: "Const"
  attr {
    key: "dtype"
    value {
      type: DT_FLOAT
    }
  }
  attr {
    key: "value"
    value {
      tensor {
        dtype: DT_FLOAT
        tensor_shape {
          dim {
            size: 24
          }
          dim {
            size: 96
          }
        }
        tensor_content: "…"
      }
    }
  }
}
node {
  name: "model_7/dense_62/BiasAdd/ReadVariableOp/resource"
  op: "Const"
  attr {
    key: "dtype"
    value {
      type: DT_FLOAT
    }
  }
  attr {
    key: "value"
    value {
      tensor {
        dtype: DT_FLOAT
        tensor_shape {
          dim {
            size: 96
          }
        }
        tensor_content: "…"
      }
    }
  }
}
node {
  name: "model_7/dense_63/MatMul/ReadVariableOp/resource"
  op: "Const"
  attr {
    key: "dtype"
    value {
      type: DT_FLOAT
    }
  }
  attr {
    key: "value"
    value {
      tensor {
        dtype: DT_FLOAT
        tensor_shape {
          dim {
            size: 96
          }
          dim {
            size: 1
          }
        }
        tensor_content: "…"
      }
    }
  }
}
node {
  name: "model_7/dense_63/BiasAdd/ReadVariableOp/resource"
  op: "Const"
  attr {
    key: "dtype"
    value {
      type: DT_FLOAT
    }
  }
  attr {
    key: "value"
    value {
      tensor {
        dtype: DT_FLOAT
        tensor_shape {
          dim {
            size: 1
          }
        }
        float_val: 0.7956337332725525
      }
    }
  }
}
node {
  name: "model_7/tf.clip_by_value_7/clip_by_value/Minimum/y"
  op: "Const"
  attr {
    key: "dtype"
    value {
      type: DT_FLOAT
    }
  }
  attr {
    key: "value"
    value {
      tensor {
        dtype: DT_FLOAT
        tensor_shape {
        }
        float_val: 120.0
      }
    }
  }
}
node {
  name: "model_7/tf.clip_by_value_7/clip_by_value/y"
  op: "Const"
  attr {
    key: "dtype"
    value {
      type: DT_FLOAT
    }
  }
  attr {
    key: "value"
    value {
      tensor {
        dtype: DT_FLOAT
        tensor_shape {
        }
        float_val: 3.0
      }
    }
  }
}
node {
  name: "model_7/concatenate_15/concat/axis"
  op: "Const"
  attr {
    key: "dtype"
    value {
      type: DT_INT32
    }
  }
  attr {
    key: "value"
    value {
      tensor {
        dtype: DT_INT32
        tensor_shape {
        }
        int_val: 1
      }
    }
  }
}
node {
  name: "model_7/flatten_7/Reshape"
  op: "Reshape"
  input: "pixel_projection_y"
  input: "model_7/flatten_7/Const"
  attr {
    key: "T"
    value {
      type: DT_FLOAT
    }
  }
  attr {
    key: "Tshape"
    value {
      type: DT_INT32
    }
  }
}
node {
  name: "model_7/concatenate_14/concat"
  op: "ConcatV2"
  input: "model_7/flatten_7/Reshape"
  input: "angles"
  input: "cluster_charge"
  input: "model_7/concatenate_14/concat/axis"
  attr {
    key: "N"
    value {
      i: 3
    }
  }
  attr {
    key: "T"
    value {
      type: DT_FLOAT
    }
  }
  attr {
    key: "Tidx"
    value {
      type: DT_INT32
    }
  }
}
node {
  name: "model_7/dense_56/MatMul/ReadVariableOp"
  op: "Identity"
  input: "model_7/dense_56/MatMul/ReadVariableOp/resource"
  attr {
    key: "T"
    value {
      type: DT_FLOAT
    }
  }
  attr {
    key: "_has_manual_control_dependencies"
    value {
      b: true
    }
  }
}
node {
  name: "model_7/dense_56/MatMul"
  op: "MatMul"
  input: "model_7/concatenate_14/concat"
  input: "model_7/dense_56/MatMul/ReadVariableOp"
  attr {
    key: "T"
    value {
      type: DT_FLOAT
    }
  }
  attr {
    key: "transpose_a"
    value {
      b: false
    }
  }
  attr {
    key: "transpose_b"
    value {
      b: false
    }
  }
}
node {
  name: "model_7/dense_56/BiasAdd/ReadVariableOp"
  op: "Identity"
  input: "model_7/dense_56/BiasAdd/ReadVariableOp/resource"
  attr {
    key: "T"
    value {
      type: DT_FLOAT
    }
  }
  attr {
    key: "_has_manual_control_dependencies"
    value {
      b: true
    }
  }
}
node {
  name: "model_7/dense_56/BiasAdd"
  op: "BiasAdd"
  input: "model_7/dense_56/MatMul"
  input: "model_7/dense_56/BiasAdd/ReadVariableOp"
  attr {
    key: "T"
    value {
      type: DT_FLOAT
    }
  }
  attr {
    key: "data_format"
    value {
      s: "NHWC"
    }
  }
}
node {
  name: "model_7/leaky_re_lu_28/LeakyRelu"
  op: "LeakyRelu"
  input: "model_7/dense_56/BiasAdd"
  attr {
    key: "T"
    value {
      type: DT_FLOAT
    }
  }
  attr {
    key: "alpha"
    value {
      f: 0.009999999776482582
    }
  }
}
node {
  name: "model_7/dense_57/MatMul/ReadVariableOp"
  op: "Identity"
  input: "model_7/dense_57/MatMul/ReadVariableOp/resource"
  attr {
    key: "T"
    value {
      type: DT_FLOAT
    }
  }
  attr {
    key: "_has_manual_control_dependencies"
    value {
      b: true
    }
  }
}
node {
  name: "model_7/dense_57/MatMul"
  op: "MatMul"
  input: "model_7/leaky_re_lu_28/LeakyRelu"
  input: "model_7/dense_57/MatMul/ReadVariableOp"
  attr {
    key: "T"
    value {
      type: DT_FLOAT
    }
  }
  attr {
    key: "transpose_a"
    value {
      b: false
    }
  }
  attr {
    key: "transpose_b"
    value {
      b: false
    }
  }
}
node {
  name: "model_7/dense_57/BiasAdd/ReadVariableOp"
  op: "Identity"
  input: "model_7/dense_57/BiasAdd/ReadVariableOp/resource"
  attr {
    key: "T"
    value {
      type: DT_FLOAT
    }
  }
  attr {
    key: "_has_manual_control_dependencies"
    value {
      b: true
    }
  }
}
node {
  name: "model_7/dense_57/BiasAdd"
  op: "BiasAdd"
  input: "model_7/dense_57/MatMul"
  input: "model_7/dense_57/BiasAdd/ReadVariableOp"
  attr {
    key: "T"
    value {
      type: DT_FLOAT
    }
  }
  attr {
    key: "data_format"
    value {
      s: "NHWC"
    }
  }
}
node {
  name: "model_7/leaky_re_lu_29/LeakyRelu"
  op: "LeakyRelu"
  input: "model_7/dense_57/BiasAdd"
  attr {
    key: "T"
    value {
      type: DT_FLOAT
    }
  }
  attr {
    key: "alpha"
    value {
      f: 0.009999999776482582
    }
  }
}
node {
  name: "model_7/batch_normalization_14/batchnorm/ReadVariableOp"
  op: "Identity"
  input: "model_7/batch_normalization_14/batchnorm/ReadVariableOp/resource"
  attr {
    key: "T"
    value {
      type: DT_FLOAT
    }
  }
  attr {
    key: "_has_manual_control_dependencies"
    value {
      b: true
    }
  }
}
node {
  name: "model_7/batch_normalization_14/batchnorm/add"
  op: "AddV2"
  input: "model_7/batch_normalization_14/batchnorm/ReadVariableOp"
  input: "model_7/batch_normalization_14/batchnorm/add/y"
  attr {
    key: "T"
    value {
      type: DT_FLOAT
    }
  }
}
node {
  name: "model_7/batch_normalization_14/batchnorm/Rsqrt"
  op: "Rsqrt"
  input: "model_7/batch_normalization_14/batchnorm/add"
  attr {
    key: "T"
    value {
      type: DT_FLOAT
    }
  }
}
node {
  name: "model_7/batch_normalization_14/batchnorm/mul/ReadVariableOp"
  op: "Identity"
  input: "model_7/batch_normalization_14/batchnorm/mul/ReadVariableOp/resource"
  attr {
    key: "T"
    value {
      type: DT_FLOAT
    }
  }
  attr {
    key: "_has_manual_control_dependencies"
    value {
      b: true
    }
  }
}
node {
  name: "model_7/batch_normalization_14/batchnorm/mul"
  op: "Mul"
  input: "model_7/batch_normalization_14/batchnorm/Rsqrt"
  input: "model_7/batch_normalization_14/batchnorm/mul/ReadVariableOp"
  attr {
    key: "T"
    value {
      type: DT_FLOAT
    }
  }
}
node {
  name: "model_7/batch_normalization_14/batchnorm/mul_1"
  op: "Mul"
  input: "model_7/leaky_re_lu_29/LeakyRelu"
  input: "model_7/batch_normalization_14/batchnorm/mul"
  attr {
    key: "T"
    value {
      type: DT_FLOAT
    }
  }
}
node {
  name: "model_7/batch_normalization_14/batchnorm/ReadVariableOp_2"
  op: "Identity"
  input: "model_7/batch_normalization_14/batchnorm/ReadVariableOp_2/resource"
  attr {
    key: "T"
    value {
      type: DT_FLOAT
    }
  }
  attr {
    key: "_has_manual_control_dependencies"
    value {
      b: true
    }
  }
}
node {
  name: "model_7/batch_normalization_14/batchnorm/ReadVariableOp_1"
  op: "Identity"
  input: "model_7/batch_normalization_14/batchnorm/ReadVariableOp_1/resource"
  attr {
    key: "T"
    value {
      type: DT_FLOAT
    }
  }
  attr {
    key: "_has_manual_control_dependencies"
    value {
      b: true
    }
  }
}
node {
  name: "model_7/batch_normalization_14/batchnorm/mul_2"
  op: "Mul"
  input: "model_7/batch_normalization_14/batchnorm/ReadVariableOp_1"
  input: "model_7/batch_normalization_14/batchnorm/mul"
  attr {
    key: "T"
    value {
      type: DT_FLOAT
    }
  }
}
node {
  name: "model_7/batch_normalization_14/batchnorm/sub"
  op: "Sub"
  input: "model_7/batch_normalization_14/batchnorm/ReadVariableOp_2"
  input: "model_7/batch_normalization_14/batchnorm/mul_2"
  attr {
    key: "T"
    value {
      type: DT_FLOAT
    }
  }
}
node {
  name: "model_7/batch_normalization_14/batchnorm/add_1"
  op: "AddV2"
  input: "model_7/batch_normalization_14/batchnorm/mul_1"
  input: "model_7/batch_normalization_14/batchnorm/sub"
  attr {
    key: "T"
    value {
      type: DT_FLOAT
    }
  }
}
node {
  name: "model_7/dropout_14/Identity"
  op: "Identity"
  input: "model_7/batch_normalization_14/batchnorm/add_1"
  attr {
    key: "T"
    value {
      type: DT_FLOAT
    }
  }
}
node {
  name: "model_7/dense_58/MatMul/ReadVariableOp"
  op: "Identity"
  input: "model_7/dense_58/MatMul/ReadVariableOp/resource"
  attr {
    key: "T"
    value {
      type: DT_FLOAT
    }
  }
  attr {
    key: "_has_manual_control_dependencies"
    value {
      b: true
    }
  }
}
node {
  name: "model_7/dense_58/MatMul"
  op: "MatMul"
  input: "model_7/concatenate_14/concat"
  input: "model_7/dense_58/MatMul/ReadVariableOp"
  attr {
    key: "T"
    value {
      type: DT_FLOAT
    }
  }
  attr {
    key: "transpose_a"
    value {
      b: false
    }
  }
  attr {
    key: "transpose_b"
    value {
      b: false
    }
  }
}
node {
  name: "model_7/dense_58/BiasAdd/ReadVariableOp"
  op: "Identity"
  input: "model_7/dense_58/BiasAdd/ReadVariableOp/resource"
  attr {
    key: "T"
    value {
      type: DT_FLOAT
    }
  }
  attr {
    key: "_has_manual_control_dependencies"
    value {
      b: true
    }
  }
}
node {
  name: "model_7/dense_58/BiasAdd"
  op: "BiasAdd"
  input: "model_7/dense_58/MatMul"
  input: "model_7/dense_58/BiasAdd/ReadVariableOp"
  attr {
    key: "T"
    value {
      type: DT_FLOAT
    }
  }
  attr {
    key: "data_format"
    value {
      s: "NHWC"
    }
  }
}
node {
  name: "model_7/add_14/add"
  op: "AddV2"
  input: "model_7/dropout_14/Identity"
  input: "model_7/dense_58/BiasAdd"
  attr {
    key: "T"
    value {
      type: DT_FLOAT
    }
  }
}
node {
  name: "model_7/dense_59/MatMul/ReadVariableOp"
  op: "Identity"
  input: "model_7/dense_59/MatMul/ReadVariableOp/resource"
  attr {
    key: "T"
    value {
      type: DT_FLOAT
    }
  }
  attr {
    key: "_has_manual_control_dependencies"
    value {
      b: true
    }
  }
}
node {
  name: "model_7/dense_59/MatMul"
  op: "MatMul"
  input: "model_7/add_14/add"
  input: "model_7/dense_59/MatMul/ReadVariableOp"
  attr {
    key: "T"
    value {
      type: DT_FLOAT
    }
  }
  attr {
    key: "transpose_a"
    value {
      b: false
    }
  }
  attr {
    key: "transpose_b"
    value {
      b: false
    }
  }
}
node {
  name: "model_7/dense_59/BiasAdd/ReadVariableOp"
  op: "Identity"
  input: "model_7/dense_59/BiasAdd/ReadVariableOp/resource"
  attr {
    key: "T"
    value {
      type: DT_FLOAT
    }
  }
  attr {
    key: "_has_manual_control_dependencies"
    value {
      b: true
    }
  }
}
node {
  name: "model_7/dense_59/BiasAdd"
  op: "BiasAdd"
  input: "model_7/dense_59/MatMul"
  input: "model_7/dense_59/BiasAdd/ReadVariableOp"
  attr {
    key: "T"
    value {
      type: DT_FLOAT
    }
  }
  attr {
    key: "data_format"
    value {
      s: "NHWC"
    }
  }
}
node {
  name: "model_7/dense_60/MatMul/ReadVariableOp"
  op: "Identity"
  input: "model_7/dense_60/MatMul/ReadVariableOp/resource"
  attr {
    key: "T"
    value {
      type: DT_FLOAT
    }
  }
  attr {
    key: "_has_manual_control_dependencies"
    value {
      b: true
    }
  }
}
node {
  name: "model_7/dense_60/MatMul"
  op: "MatMul"
  input: "model_7/concatenate_14/concat"
  input: "model_7/dense_60/MatMul/ReadVariableOp"
  attr {
    key: "T"
    value {
      type: DT_FLOAT
    }
  }
  attr {
    key: "transpose_a"
    value {
      b: false
    }
  }
  attr {
    key: "transpose_b"
    value {
      b: false
    }
  }
}
node {
  name: "model_7/dense_60/BiasAdd/ReadVariableOp"
  op: "Identity"
  input: "model_7/dense_60/BiasAdd/ReadVariableOp/resource"
  attr {
    key: "T"
    value {
      type: DT_FLOAT
    }
  }
  attr {
    key: "_has_manual_control_dependencies"
    value {
      b: true
    }
  }
}
node {
  name: "model_7/dense_60/BiasAdd"
  op: "BiasAdd"
  input: "model_7/dense_60/MatMul"
  input: "model_7/dense_60/BiasAdd/ReadVariableOp"
  attr {
    key: "T"
    value {
      type: DT_FLOAT
    }
  }
  attr {
    key: "data_format"
    value {
      s: "NHWC"
    }
  }
}
node {
  name: "model_7/leaky_re_lu_30/LeakyRelu"
  op: "LeakyRelu"
  input: "model_7/dense_60/BiasAdd"
  attr {
    key: "T"
    value {
      type: DT_FLOAT
    }
  }
  attr {
    key: "alpha"
    value {
      f: 0.009999999776482582
    }
  }
}
node {
  name: "model_7/dense_61/MatMul/ReadVariableOp"
  op: "Identity"
  input: "model_7/dense_61/MatMul/ReadVariableOp/resource"
  attr {
    key: "T"
    value {
      type: DT_FLOAT
    }
  }
  attr {
    key: "_has_manual_control_dependencies"
    value {
      b: true
    }
  }
}
node {
  name: "model_7/dense_61/MatMul"
  op: "MatMul"
  input: "model_7/leaky_re_lu_30/LeakyRelu"
  input: "model_7/dense_61/MatMul/ReadVariableOp"
  attr {
    key: "T"
    value {
      type: DT_FLOAT
    }
  }
  attr {
    key: "transpose_a"
    value {
      b: false
    }
  }
  attr {
    key: "transpose_b"
    value {
      b: false
    }
  }
}
node {
  name: "model_7/dense_61/BiasAdd/ReadVariableOp"
  op: "Identity"
  input: "model_7/dense_61/BiasAdd/ReadVariableOp/resource"
  attr {
    key: "T"
    value {
      type: DT_FLOAT
    }
  }
  attr {
    key: "_has_manual_control_dependencies"
    value {
      b: true
    }
  }
}
node {
  name: "model_7/dense_61/BiasAdd"
  op: "BiasAdd"
  input: "model_7/dense_61/MatMul"
  input: "model_7/dense_61/BiasAdd/ReadVariableOp"
  attr {
    key: "T"
    value {
      type: DT_FLOAT
    }
  }
  attr {
    key: "data_format"
    value {
      s: "NHWC"
    }
  }
}
node {
  name: "model_7/leaky_re_lu_31/LeakyRelu"
  op: "LeakyRelu"
  input: "model_7/dense_61/BiasAdd"
  attr {
    key: "T"
    value {
      type: DT_FLOAT
    }
  }
  attr {
    key: "alpha"
    value {
      f: 0.009999999776482582
    }
  }
}
node {
  name: "model_7/batch_normalization_15/batchnorm/ReadVariableOp"
  op: "Identity"
  input: "model_7/batch_normalization_15/batchnorm/ReadVariableOp/resource"
  attr {
    key: "T"
    value {
      type: DT_FLOAT
    }
  }
  attr {
    key: "_has_manual_control_dependencies"
    value {
      b: true
    }
  }
}
node {
  name: "model_7/batch_normalization_15/batchnorm/add"
  op: "AddV2"
  input: "model_7/batch_normalization_15/batchnorm/ReadVariableOp"
  input: "model_7/batch_normalization_15/batchnorm/add/y"
  attr {
    key: "T"
    value {
      type: DT_FLOAT
    }
  }
}
node {
  name: "model_7/batch_normalization_15/batchnorm/Rsqrt"
  op: "Rsqrt"
  input: "model_7/batch_normalization_15/batchnorm/add"
  attr {
    key: "T"
    value {
      type: DT_FLOAT
    }
  }
}
node {
  name: "model_7/batch_normalization_15/batchnorm/mul/ReadVariableOp"
  op: "Identity"
  input: "model_7/batch_normalization_15/batchnorm/mul/ReadVariableOp/resource"
  attr {
    key: "T"
    value {
      type: DT_FLOAT
    }
  }
  attr {
    key: "_has_manual_control_dependencies"
    value {
      b: true
    }
  }
}
node {
  name: "model_7/batch_normalization_15/batchnorm/mul"
  op: "Mul"
  input: "model_7/batch_normalization_15/batchnorm/Rsqrt"
  input: "model_7/batch_normalization_15/batchnorm/mul/ReadVariableOp"
  attr {
    key: "T"
    value {
      type: DT_FLOAT
    }
  }
}
node {
  name: "model_7/batch_normalization_15/batchnorm/mul_1"
  op: "Mul"
  input: "model_7/leaky_re_lu_31/LeakyRelu"
  input: "model_7/batch_normalization_15/batchnorm/mul"
  attr {
    key: "T"
    value {
      type: DT_FLOAT
    }
  }
}
node {
  name: "model_7/batch_normalization_15/batchnorm/ReadVariableOp_2"
  op: "Identity"
  input: "model_7/batch_normalization_15/batchnorm/ReadVariableOp_2/resource"
  attr {
    key: "T"
    value {
      type: DT_FLOAT
    }
  }
  attr {
    key: "_has_manual_control_dependencies"
    value {
      b: true
    }
  }
}
node {
  name: "model_7/batch_normalization_15/batchnorm/ReadVariableOp_1"
  op: "Identity"
  input: "model_7/batch_normalization_15/batchnorm/ReadVariableOp_1/resource"
  attr {
    key: "T"
    value {
      type: DT_FLOAT
    }
  }
  attr {
    key: "_has_manual_control_dependencies"
    value {
      b: true
    }
  }
}
node {
  name: "model_7/batch_normalization_15/batchnorm/mul_2"
  op: "Mul"
  input: "model_7/batch_normalization_15/batchnorm/ReadVariableOp_1"
  input: "model_7/batch_normalization_15/batchnorm/mul"
  attr {
    key: "T"
    value {
      type: DT_FLOAT
    }
  }
}
node {
  name: "model_7/batch_normalization_15/batchnorm/sub"
  op: "Sub"
  input: "model_7/batch_normalization_15/batchnorm/ReadVariableOp_2"
  input: "model_7/batch_normalization_15/batchnorm/mul_2"
  attr {
    key: "T"
    value {
      type: DT_FLOAT
    }
  }
}
node {
  name: "model_7/batch_normalization_15/batchnorm/add_1"
  op: "AddV2"
  input: "model_7/batch_normalization_15/batchnorm/mul_1"
  input: "model_7/batch_normalization_15/batchnorm/sub"
  attr {
    key: "T"
    value {
      type: DT_FLOAT
    }
  }
}
node {
  name: "model_7/dropout_15/Identity"
  op: "Identity"
  input: "model_7/batch_normalization_15/batchnorm/add_1"
  attr {
    key: "T"
    value {
      type: DT_FLOAT
    }
  }
}
node {
  name: "model_7/dense_62/MatMul/ReadVariableOp"
  op: "Identity"
  input: "model_7/dense_62/MatMul/ReadVariableOp/resource"
  attr {
    key: "T"
    value {
      type: DT_FLOAT
    }
  }
  attr {
    key: "_has_manual_control_dependencies"
    value {
      b: true
    }
  }
}
node {
  name: "model_7/dense_62/MatMul"
  op: "MatMul"
  input: "model_7/concatenate_14/concat"
  input: "model_7/dense_62/MatMul/ReadVariableOp"
  attr {
    key: "T"
    value {
      type: DT_FLOAT
    }
  }
  attr {
    key: "transpose_a"
    value {
      b: false
    }
  }
  attr {
    key: "transpose_b"
    value {
      b: false
    }
  }
}
node {
  name: "model_7/dense_62/BiasAdd/ReadVariableOp"
  op: "Identity"
  input: "model_7/dense_62/BiasAdd/ReadVariableOp/resource"
  attr {
    key: "T"
    value {
      type: DT_FLOAT
    }
  }
  attr {
    key: "_has_manual_control_dependencies"
    value {
      b: true
    }
  }
}
node {
  name: "model_7/dense_62/BiasAdd"
  op: "BiasAdd"
  input: "model_7/dense_62/MatMul"
  input: "model_7/dense_62/BiasAdd/ReadVariableOp"
  attr {
    key: "T"
    value {
      type: DT_FLOAT
    }
  }
  attr {
    key: "data_format"
    value {
      s: "NHWC"
    }
  }
}
node {
  name: "model_7/add_15/add"
  op: "AddV2"
  input: "model_7/dropout_15/Identity"
  input: "model_7/dense_62/BiasAdd"
  attr {
    key: "T"
    value {
      type: DT_FLOAT
    }
  }
}
node {
  name: "model_7/dense_63/MatMul/ReadVariableOp"
  op: "Identity"
  input: "model_7/dense_63/MatMul/ReadVariableOp/resource"
  attr {
    key: "T"
    value {
      type: DT_FLOAT
    }
  }
  attr {
    key: "_has_manual_control_dependencies"
    value {
      b: true
    }
  }
}
node {
  name: "model_7/dense_63/MatMul"
  op: "MatMul"
  input: "model_7/add_15/add"
  input: "model_7/dense_63/MatMul/ReadVariableOp"
  attr {
    key: "T"
    value {
      type: DT_FLOAT
    }
  }
  attr {
    key: "transpose_a"
    value {
      b: false
    }
  }
  attr {
    key: "transpose_b"
    value {
      b: false
    }
  }
}
node {
  name: "model_7/dense_63/BiasAdd/ReadVariableOp"
  op: "Identity"
  input: "model_7/dense_63/BiasAdd/ReadVariableOp/resource"
  attr {
    key: "T"
    value {
      type: DT_FLOAT
    }
  }
  attr {
    key: "_has_manual_control_dependencies"
    value {
      b: true
    }
  }
}
node {
  name: "model_7/dense_63/BiasAdd"
  op: "BiasAdd"
  input: "model_7/dense_63/MatMul"
  input: "model_7/dense_63/BiasAdd/ReadVariableOp"
  attr {
    key: "T"
    value {
      type: DT_FLOAT
    }
  }
  attr {
    key: "data_format"
    value {
      s: "NHWC"
    }
  }
}
node {
  name: "model_7/dense_63/Softplus"
  op: "Softplus"
  input: "model_7/dense_63/BiasAdd"
  attr {
    key: "T"
    value {
      type: DT_FLOAT
    }
  }
}
node {
  name: "model_7/tf.clip_by_value_7/clip_by_value/Minimum"
  op: "Minimum"
  input: "model_7/dense_63/Softplus"
  input: "model_7/tf.clip_by_value_7/clip_by_value/Minimum/y"
  attr {
    key: "T"
    value {
      type: DT_FLOAT
    }
  }
}
node {
  name: "model_7/tf.clip_by_value_7/clip_by_value"
  op: "Maximum"
  input: "model_7/tf.clip_by_value_7/clip_by_value/Minimum"
  input: "model_7/tf.clip_by_value_7/clip_by_value/y"
  attr {
    key: "T"
    value {
      type: DT_FLOAT
    }
  }
}
node {
  name: "model_7/concatenate_15/concat"
  op: "ConcatV2"
  input: "model_7/dense_59/BiasAdd"
  input: "model_7/tf.clip_by_value_7/clip_by_value"
  input: "model_7/concatenate_15/concat/axis"
  attr {
    key: "N"
    value {
      i: 2
    }
  }
  attr {
    key: "T"
    value {
      type: DT_FLOAT
    }
  }
  attr {
    key: "Tidx"
    value {
      type: DT_INT32
    }
  }
}
node {
  name: "NoOp"
  op: "NoOp"
  input: "^model_7/batch_normalization_14/batchnorm/ReadVariableOp"
  input: "^model_7/batch_normalization_14/batchnorm/ReadVariableOp_1"
  input: "^model_7/batch_normalization_14/batchnorm/ReadVariableOp_2"
  input: "^model_7/batch_normalization_14/batchnorm/mul/ReadVariableOp"
  input: "^model_7/batch_normalization_15/batchnorm/ReadVariableOp"
  input: "^model_7/batch_normalization_15/batchnorm/ReadVariableOp_1"
  input: "^model_7/batch_normalization_15/batchnorm/ReadVariableOp_2"
  input: "^model_7/batch_normalization_15/batchnorm/mul/ReadVariableOp"
  input: "^model_7/dense_56/BiasAdd/ReadVariableOp"
  input: "^model_7/dense_56/MatMul/ReadVariableOp"
  input: "^model_7/dense_57/BiasAdd/ReadVariableOp"
  input: "^model_7/dense_57/MatMul/ReadVariableOp"
  input: "^model_7/dense_58/BiasAdd/ReadVariableOp"
  input: "^model_7/dense_58/MatMul/ReadVariableOp"
  input: "^model_7/dense_59/BiasAdd/ReadVariableOp"
  input: "^model_7/dense_59/MatMul/ReadVariableOp"
  input: "^model_7/dense_60/BiasAdd/ReadVariableOp"
  input: "^model_7/dense_60/MatMul/ReadVariableOp"
  input: "^model_7/dense_61/BiasAdd/ReadVariableOp"
  input: "^model_7/dense_61/MatMul/ReadVariableOp"
  input: "^model_7/dense_62/BiasAdd/ReadVariableOp"
  input: "^model_7/dense_62/MatMul/ReadVariableOp"
  input: "^model_7/dense_63/BiasAdd/ReadVariableOp"
  input: "^model_7/dense_63/MatMul/ReadVariableOp"
  attr {
    key: "_has_manual_control_dependencies"
    value {
      b: true
    }
  }
}
node {
  name: "Identity"
  op: "Identity"
  input: "model_7/concatenate_15/concat"
  input: "^NoOp"
  attr {
    key: "T"
    value {
      type: DT_FLOAT
    }
  }
}
versions {
  producer: 1482
}
