node {
  name: "pixel_projection_x"
  op: "Placeholder"
  attr {
    key: "dtype"
    value {
      type: DT_FLOAT
    }
  }
  attr {
    key: "shape"
    value {
      shape {
        dim {
          size: -1
        }
        dim {
          size: 13
        }
        dim {
          size: 1
        }
      }
    }
  }
}
node {
  name: "angles"
  op: "Placeholder"
  attr {
    key: "dtype"
    value {
      type: DT_FLOAT
    }
  }
  attr {
    key: "shape"
    value {
      shape {
        dim {
          size: -1
        }
        dim {
          size: 2
        }
      }
    }
  }
}
node {
  name: "cluster_charge"
  op: "Placeholder"
  attr {
    key: "dtype"
    value {
      type: DT_FLOAT
    }
  }
  attr {
    key: "shape"
    value {
      shape {
        dim {
          size: -1
        }
        dim {
          size: 1
        }
      }
    }
  }
}
node {
  name: "model_2/flatten_2/Const"
  op: "Const"
  attr {
    key: "dtype"
    value {
      type: DT_INT32
    }
  }
  attr {
    key: "value"
    value {
      tensor {
        dtype: DT_INT32
        tensor_shape {
          dim {
            size: 2
          }
        }
        tensor_content: "\377\377\377\377\r\000\000\000"
      }
    }
  }
}
node {
  name: "model_2/concatenate_4/concat/axis"
  op: "Const"
  attr {
    key: "dtype"
    value {
      type: DT_INT32
    }
  }
  attr {
    key: "value"
    value {
      tensor {
        dtype: DT_INT32
        tensor_shape {
        }
        int_val: 1
      }
    }
  }
}
node {
  name: "model_2/dense_16/MatMul/ReadVariableOp/resource"
  op: "Const"
  attr {
    key: "dtype"
    value {
      type: DT_FLOAT
    }
  }
  attr {
    key: "value"
    value {
      tensor {
        dtype: DT_FLOAT
        tensor_shape {
          dim {
            size: 16
          }
          dim {
            size: 128
          }
        }
        tensor_content: "…"
      }
    }
  }
}
node {
  name: "model_2/dense_16/BiasAdd/ReadVariableOp/resource"
  op: "Const"
  attr {
    key: "dtype"
    value {
      type: DT_FLOAT
    }
  }
  attr {
    key: "value"
    value {
      tensor {
        dtype: DT_FLOAT
        tensor_shape {
          dim {
            size: 128
          }
        }
        tensor_content: "…"
      }
    }
  }
}
node {
  name: "model_2/dense_17/MatMul/ReadVariableOp/resource"
  op: "Const"
  attr {
    key: "dtype"
    value {
      type: DT_FLOAT
    }
  }
  attr {
    key: "value"
    value {
      tensor {
        dtype: DT_FLOAT
        tensor_shape {
          dim {
            size: 128
          }
          dim {
            size: 64
          }
        }
        tensor_content: "…"
      }
    }
  }
}
node {
  name: "model_2/dense_17/BiasAdd/ReadVariableOp/resource"
  op: "Const"
  attr {
    key: "dtype"
    value {
      type: DT_FLOAT
    }
  }
  attr {
    key: "value"
    value {
      tensor {
        dtype: DT_FLOAT
        tensor_shape {
          dim {
            size: 64
          }
        }
        tensor_content: "…"
      }
    }
  }
}
node {
  name: "model_2/batch_normalization_4/batchnorm/ReadVariableOp/resource"
  op: "Const"
  attr {
    key: "dtype"
    value {
      type: DT_FLOAT
    }
  }
  attr {
    key: "value"
    value {
      tensor {
        dtype: DT_FLOAT
        tensor_shape {
          dim {
            size: 64
          }
        }
        tensor_content: "…"
      }
    }
  }
}
node {
  name: "model_2/batch_normalization_4/batchnorm/add/y"
  op: "Const"
  attr {
    key: "dtype"
    value {
      type: DT_FLOAT
    }
  }
  attr {
    key: "value"
    value {
      tensor {
        dtype: DT_FLOAT
        tensor_shape {
        }
        float_val: 0.0010000000474974513
      }
    }
  }
}
node {
  name: "model_2/batch_normalization_4/batchnorm/mul/ReadVariableOp/resource"
  op: "Const"
  attr {
    key: "dtype"
    value {
      type: DT_FLOAT
    }
  }
  attr {
    key: "value"
    value {
      tensor {
        dtype: DT_FLOAT
        tensor_shape {
          dim {
            size: 64
          }
        }
        tensor_content: "…"
      }
    }
  }
}
node {
  name: "model_2/batch_normalization_4/batchnorm/ReadVariableOp_2/resource"
  op: "Const"
  attr {
    key: "dtype"
    value {
      type: DT_FLOAT
    }
  }
  attr {
    key: "value"
    value {
      tensor {
        dtype: DT_FLOAT
        tensor_shape {
          dim {
            size: 64
          }
        }
        tensor_content: "…"
      }
    }
  }
}
node {
  name: "model_2/batch_normalization_4/batchnorm/ReadVariableOp_1/resource"
  op: "Const"
  attr {
    key: "dtype"
    value {
      type: DT_FLOAT
    }
  }
  attr {
    key: "value"
    value {
      tensor {
        dtype: DT_FLOAT
        tensor_shape {
          dim {
            size: 64
          }
        }
        tensor_content: "…"
      }
    }
  }
}
node {
  name: "model_2/dense_18/MatMul/ReadVariableOp/resource"
  op: "Const"
  attr {
    key: "dtype"
    value {
      type: DT_FLOAT
    }
  }
  attr {
    key: "value"
    value {
      tensor {
        dtype: DT_FLOAT
        tensor_shape {
          dim {
            size: 16
          }
          dim {
            size: 64
          }
        }
        tensor_content: "…"
      }
    }
  }
}
node {
  name: "model_2/dense_18/BiasAdd/ReadVariableOp/resource"
  op: "Const"
  attr {
    key: "dtype"
    value {
      type: DT_FLOAT
    }
  }
  attr {
    key: "value"
    value {
      tensor {
        dtype: DT_FLOAT
        tensor_shape {
          dim {
            size: 64
          }
        }
        tensor_content: "…"
      }
    }
  }
}
node {
  name: "model_2/dense_19/MatMul/ReadVariableOp/resource"
  op: "Const"
  attr {
    key: "dtype"
    value {
      type: DT_FLOAT
    }
  }
  attr {
    key: "value"
    value {
      tensor {
        dtype: DT_FLOAT
        tensor_shape {
          dim {
            size: 64
          }
          dim {
            size: 1
          }
        }
        tensor_content: "…"
      }
    }
  }
}
node {
  name: "model_2/dense_19/BiasAdd/ReadVariableOp/resource"
  op: "Const"
  attr {
    key: "dtype"
    value {
      type: DT_FLOAT
    }
  }
  attr {
    key: "value"
    value {
      tensor {
        dtype: DT_FLOAT
        tensor_shape {
          dim {
            size: 1
          }
        }
        float_val: -0.6599528789520264
      }
    }
  }
}
node {
  name: "model_2/dense_20/MatMul/ReadVariableOp/resource"
  op: "Const"
  attr {
    key: "dtype"
    value {
      type: DT_FLOAT
    }
  }
  attr {
    key: "value"
    value {
      tensor {
        dtype: DT_FLOAT
        tensor_shape {
          dim {
            size: 16
          }
          dim {
            size: 128
          }
        }
        tensor_content: "…"
      }
    }
  }
}
node {
  name: "model_2/dense_20/BiasAdd/ReadVariableOp/resource"
  op: "Const"
  attr {
    key: "dtype"
    value {
      type: DT_FLOAT
    }
  }
  attr {
    key: "value"
    value {
      tensor {
        dtype: DT_FLOAT
        tensor_shape {
          dim {
            size: 128
          }
        }
        tensor_content: "…"
      }
    }
  }
}
node {
  name: "model_2/dense_21/MatMul/ReadVariableOp/resource"
  op: "Const"
  attr {
    key: "dtype"
    value {
      type: DT_FLOAT
    }
  }
  attr {
    key: "value"
    value {
      tensor {
        dtype: DT_FLOAT
        tensor_shape {
          dim {
            size: 128
          }
          dim {
            size: 64
          }
        }
        tensor_content: "…"
      }
    }
  }
}
node {
  name: "model_2/dense_21/BiasAdd/ReadVariableOp/resource"
  op: "Const"
  attr {
    key: "dtype"
    value {
      type: DT_FLOAT
    }
  }
  attr {
    key: "value"
    value {
      tensor {
        dtype: DT_FLOAT
        tensor_shape {
          dim {
            size: 64
          }
        }
        tensor_content: "…"
      }
    }
  }
}
node {
  name: "model_2/batch_normalization_5/batchnorm/ReadVariableOp/resource"
  op: "Const"
  attr {
    key: "dtype"
    value {
      type: DT_FLOAT
    }
  }
  attr {
    key: "value"
    value {
      tensor {
        dtype: DT_FLOAT
        tensor_shape {
          dim {
            size: 64
          }
        }
        tensor_content: "…"
      }
    }
  }
}
node {
  name: "model_2/batch_normalization_5/batchnorm/add/y"
  op: "Const"
  attr {
    key: "dtype"
    value {
      type: DT_FLOAT
    }
  }
  attr {
    key: "value"
    value {
      tensor {
        dtype: DT_FLOAT
        tensor_shape {
        }
        float_val: 0.0010000000474974513
      }
    }
  }
}
node {
  name: "model_2/batch_normalization_5/batchnorm/mul/ReadVariableOp/resource"
  op: "Const"
  attr {
    key: "dtype"
    value {
      type: DT_FLOAT
    }
  }
  attr {
    key: "value"
    value {
      tensor {
        dtype: DT_FLOAT
        tensor_shape {
          dim {
            size: 64
          }
        }
        tensor_content: "…"
      }
    }
  }
}
node {
  name: "model_2/batch_normalization_5/batchnorm/ReadVariableOp_2/resource"
  op: "Const"
  attr {
    key: "dtype"
    value {
      type: DT_FLOAT
    }
  }
  attr {
    key: "value"
    value {
      tensor {
        dtype: DT_FLOAT
        tensor_shape {
          dim {
            size: 64
          }
        }
        tensor_content: "…"
      }
    }
  }
}
node {
  name: "model_2/batch_normalization_5/batchnorm/ReadVariableOp_1/resource"
  op: "Const"
  attr {
    key: "dtype"
    value {
      type: DT_FLOAT
    }
  }
  attr {
    key: "value"
    value {
      tensor {
        dtype: DT_FLOAT
        tensor_shape {
          dim {
            size: 64
          }
        }
        tensor_content: "…"
      }
    }
  }
}
node {
  name: "model_2/dense_22/MatMul/ReadVariableOp/resource"
  op: "Const"
  attr {
    key: "dtype"
    value {
      type: DT_FLOAT
    }
  }
  attr {
    key: "value"
    value {
      tensor {
        dtype: DT_FLOAT
        tensor_shape {
          dim {
            size: 16
          }
          dim {
            size: 64
          }
        }
        tensor_content: "…"
      }
    }
  }
}
node {
  name: "model_2/dense_22/BiasAdd/ReadVariableOp/resource"
  op: "Const"
  attr {
    key: "dtype"
    value {
      type: DT_FLOAT
    }
  }
  attr {
    key: "value"
    value {
      tensor {
        dtype: DT_FLOAT
        tensor_shape {
          dim {
            size: 64
          }
        }
        tensor_content: "…"
      }
    }
  }
}
node {
  name: "model_2/dense_23/MatMul/ReadVariableOp/resource"
  op: "Const"
  attr {
    key: "dtype"
    value {
      type: DT_FLOAT
    }
  }
  attr {
    key: "value"
    value {
      tensor {
        dtype: DT_FLOAT
        tensor_shape {
          dim {
            size: 64
          }
          dim {
            size: 1
          }
        }
        tensor_content: "…"
      }
    }
  }
}
node {
  name: "model_2/dense_23/BiasAdd/ReadVariableOp/resource"
  op: "Const"
  attr {
    key: "dtype"
    value {
      type: DT_FLOAT
    }
  }
  attr {
    key: "value"
    value {
      tensor {
        dtype: DT_FLOAT
        tensor_shape {
          dim {
            size: 1
          }
        }
        float_val: 1.35489821434021
      }
    }
  }
}
node {
  name: "model_2/tf.clip_by_value_2/clip_by_value/Minimum/y"
  op: "Const"
  attr {
    key: "dtype"
    value {
      type: DT_FLOAT
    }
  }
  attr {
    key: "value"
    value {
      tensor {
        dtype: DT_FLOAT
        tensor_shape {
        }
        float_val: 120.0
      }
    }
  }
}
node {
  name: "model_2/tf.clip_by_value_2/clip_by_value/y"
  op: "Const"
  attr {
    key: "dtype"
    value {
      type: DT_FLOAT
    }
  }
  attr {
    key: "value"
    value {
      tensor {
        dtype: DT_FLOAT
        tensor_shape {
        }
        float_val: 3.0
      }
    }
  }
}
node {
  name: "model_2/concatenate_5/concat/axis"
  op: "Const"
  attr {
    key: "dtype"
    value {
      type: DT_INT32
    }
  }
  attr {
    key: "value"
    value {
      tensor {
        dtype: DT_INT32
        tensor_shape {
        }
        int_val: 1
      }
    }
  }
}
node {
  name: "model_2/flatten_2/Reshape"
  op: "Reshape"
  input: "pixel_projection_x"
  input: "model_2/flatten_2/Const"
  attr {
    key: "T"
    value {
      type: DT_FLOAT
    }
  }
  attr {
    key: "Tshape"
    value {
      type: DT_INT32
    }
  }
}
node {
  name: "model_2/concatenate_4/concat"
  op: "ConcatV2"
  input: "model_2/flatten_2/Reshape"
  input: "angles"
  input: "cluster_charge"
  input: "model_2/concatenate_4/concat/axis"
  attr {
    key: "N"
    value {
      i: 3
    }
  }
  attr {
    key: "T"
    value {
      type: DT_FLOAT
    }
  }
  attr {
    key: "Tidx"
    value {
      type: DT_INT32
    }
  }
}
node {
  name: "model_2/dense_16/MatMul/ReadVariableOp"
  op: "Identity"
  input: "model_2/dense_16/MatMul/ReadVariableOp/resource"
  attr {
    key: "T"
    value {
      type: DT_FLOAT
    }
  }
  attr {
    key: "_has_manual_control_dependencies"
    value {
      b: true
    }
  }
}
node {
  name: "model_2/dense_16/MatMul"
  op: "MatMul"
  input: "model_2/concatenate_4/concat"
  input: "model_2/dense_16/MatMul/ReadVariableOp"
  attr {
    key: "T"
    value {
      type: DT_FLOAT
    }
  }
  attr {
    key: "transpose_a"
    value {
      b: false
    }
  }
  attr {
    key: "transpose_b"
    value {
      b: false
    }
  }
}
node {
  name: "model_2/dense_16/BiasAdd/ReadVariableOp"
  op: "Identity"
  input: "model_2/dense_16/BiasAdd/ReadVariableOp/resource"
  attr {
    key: "T"
    value {
      type: DT_FLOAT
    }
  }
  attr {
    key: "_has_manual_control_dependencies"
    value {
      b: true
    }
  }
}
node {
  name: "model_2/dense_16/BiasAdd"
  op: "BiasAdd"
  input: "model_2/dense_16/MatMul"
  input: "model_2/dense_16/BiasAdd/ReadVariableOp"
  attr {
    key: "T"
    value {
      type: DT_FLOAT
    }
  }
  attr {
    key: "data_format"
    value {
      s: "NHWC"
    }
  }
}
node {
  name: "model_2/leaky_re_lu_8/LeakyRelu"
  op: "LeakyRelu"
  input: "model_2/dense_16/BiasAdd"
  attr {
    key: "T"
    value {
      type: DT_FLOAT
    }
  }
  attr {
    key: "alpha"
    value {
      f: 0.009999999776482582
    }
  }
}
node {
  name: "model_2/dense_17/MatMul/ReadVariableOp"
  op: "Identity"
  input: "model_2/dense_17/MatMul/ReadVariableOp/resource"
  attr {
    key: "T"
    value {
      type: DT_FLOAT
    }
  }
  attr {
    key: "_has_manual_control_dependencies"
    value {
      b: true
    }
  }
}
node {
  name: "model_2/dense_17/MatMul"
  op: "MatMul"
  input: "model_2/leaky_re_lu_8/LeakyRelu"
  input: "model_2/dense_17/MatMul/ReadVariableOp"
  attr {
    key: "T"
    value {
      type: DT_FLOAT
    }
  }
  attr {
    key: "transpose_a"
    value {
      b: false
    }
  }
  attr {
    key: "transpose_b"
    value {
      b: false
    }
  }
}
node {
  name: "model_2/dense_17/BiasAdd/ReadVariableOp"
  op: "Identity"
  input: "model_2/dense_17/BiasAdd/ReadVariableOp/resource"
  attr {
    key: "T"
    value {
      type: DT_FLOAT
    }
  }
  attr {
    key: "_has_manual_control_dependencies"
    value {
      b: true
    }
  }
}
node {
  name: "model_2/dense_17/BiasAdd"
  op: "BiasAdd"
  input: "model_2/dense_17/MatMul"
  input: "model_2/dense_17/BiasAdd/ReadVariableOp"
  attr {
    key: "T"
    value {
      type: DT_FLOAT
    }
  }
  attr {
    key: "data_format"
    value {
      s: "NHWC"
    }
  }
}
node {
  name: "model_2/leaky_re_lu_9/LeakyRelu"
  op: "LeakyRelu"
  input: "model_2/dense_17/BiasAdd"
  attr {
    key: "T"
    value {
      type: DT_FLOAT
    }
  }
  attr {
    key: "alpha"
    value {
      f: 0.009999999776482582
    }
  }
}
node {
  name: "model_2/batch_normalization_4/batchnorm/ReadVariableOp"
  op: "Identity"
  input: "model_2/batch_normalization_4/batchnorm/ReadVariableOp/resource"
  attr {
    key: "T"
    value {
      type: DT_FLOAT
    }
  }
  attr {
    key: "_has_manual_control_dependencies"
    value {
      b: true
    }
  }
}
node {
  name: "model_2/batch_normalization_4/batchnorm/add"
  op: "AddV2"
  input: "model_2/batch_normalization_4/batchnorm/ReadVariableOp"
  input: "model_2/batch_normalization_4/batchnorm/add/y"
  attr {
    key: "T"
    value {
      type: DT_FLOAT
    }
  }
}
node {
  name: "model_2/batch_normalization_4/batchnorm/Rsqrt"
  op: "Rsqrt"
  input: "model_2/batch_normalization_4/batchnorm/add"
  attr {
    key: "T"
    value {
      type: DT_FLOAT
    }
  }
}
node {
  name: "model_2/batch_normalization_4/batchnorm/mul/ReadVariableOp"
  op: "Identity"
  input: "model_2/batch_normalization_4/batchnorm/mul/ReadVariableOp/resource"
  attr {
    key: "T"
    value {
      type: DT_FLOAT
    }
  }
  attr {
    key: "_has_manual_control_dependencies"
    value {
      b: true
    }
  }
}
node {
  name: "model_2/batch_normalization_4/batchnorm/mul"
  op: "Mul"
  input: "model_2/batch_normalization_4/batchnorm/Rsqrt"
  input: "model_2/batch_normalization_4/batchnorm/mul/ReadVariableOp"
  attr {
    key: "T"
    value {
      type: DT_FLOAT
    }
  }
}
node {
  name: "model_2/batch_normalization_4/batchnorm/mul_1"
  op: "Mul"
  input: "model_2/leaky_re_lu_9/LeakyRelu"
  input: "model_2/batch_normalization_4/batchnorm/mul"
  attr {
    key: "T"
    value {
      type: DT_FLOAT
    }
  }
}
node {
  name: "model_2/batch_normalization_4/batchnorm/ReadVariableOp_2"
  op: "Identity"
  input: "model_2/batch_normalization_4/batchnorm/ReadVariableOp_2/resource"
  attr {
    key: "T"
    value {
      type: DT_FLOAT
    }
  }
  attr {
    key: "_has_manual_control_dependencies"
    value {
      b: true
    }
  }
}
node {
  name: "model_2/batch_normalization_4/batchnorm/ReadVariableOp_1"
  op: "Identity"
  input: "model_2/batch_normalization_4/batchnorm/ReadVariableOp_1/resource"
  attr {
    key: "T"
    value {
      type: DT_FLOAT
    }
  }
  attr {
    key: "_has_manual_control_dependencies"
    value {
      b: true
    }
  }
}
node {
  name: "model_2/batch_normalization_4/batchnorm/mul_2"
  op: "Mul"
  input: "model_2/batch_normalization_4/batchnorm/ReadVariableOp_1"
  input: "model_2/batch_normalization_4/batchnorm/mul"
  attr {
    key: "T"
    value {
      type: DT_FLOAT
    }
  }
}
node {
  name: "model_2/batch_normalization_4/batchnorm/sub"
  op: "Sub"
  input: "model_2/batch_normalization_4/batchnorm/ReadVariableOp_2"
  input: "model_2/batch_normalization_4/batchnorm/mul_2"
  attr {
    key: "T"
    value {
      type: DT_FLOAT
    }
  }
}
node {
  name: "model_2/batch_normalization_4/batchnorm/add_1"
  op: "AddV2"
  input: "model_2/batch_normalization_4/batchnorm/mul_1"
  input: "model_2/batch_normalization_4/batchnorm/sub"
  attr {
    key: "T"
    value {
      type: DT_FLOAT
    }
  }
}
node {
  name: "model_2/dropout_4/Identity"
  op: "Identity"
  input: "model_2/batch_normalization_4/batchnorm/add_1"
  attr {
    key: "T"
    value {
      type: DT_FLOAT
    }
  }
}
node {
  name: "model_2/dense_18/MatMul/ReadVariableOp"
  op: "Identity"
  input: "model_2/dense_18/MatMul/ReadVariableOp/resource"
  attr {
    key: "T"
    value {
      type: DT_FLOAT
    }
  }
  attr {
    key: "_has_manual_control_dependencies"
    value {
      b: true
    }
  }
}
node {
  name: "model_2/dense_18/MatMul"
  op: "MatMul"
  input: "model_2/concatenate_4/concat"
  input: "model_2/dense_18/MatMul/ReadVariableOp"
  attr {
    key: "T"
    value {
      type: DT_FLOAT
    }
  }
  attr {
    key: "transpose_a"
    value {
      b: false
    }
  }
  attr {
    key: "transpose_b"
    value {
      b: false
    }
  }
}
node {
  name: "model_2/dense_18/BiasAdd/ReadVariableOp"
  op: "Identity"
  input: "model_2/dense_18/BiasAdd/ReadVariableOp/resource"
  attr {
    key: "T"
    value {
      type: DT_FLOAT
    }
  }
  attr {
    key: "_has_manual_control_dependencies"
    value {
      b: true
    }
  }
}
node {
  name: "model_2/dense_18/BiasAdd"
  op: "BiasAdd"
  input: "model_2/dense_18/MatMul"
  input: "model_2/dense_18/BiasAdd/ReadVariableOp"
  attr {
    key: "T"
    value {
      type: DT_FLOAT
    }
  }
  attr {
    key: "data_format"
    value {
      s: "NHWC"
    }
  }
}
node {
  name: "model_2/add_4/add"
  op: "AddV2"
  input: "model_2/dropout_4/Identity"
  input: "model_2/dense_18/BiasAdd"
  attr {
    key: "T"
    value {
      type: DT_FLOAT
    }
  }
}
node {
  name: "model_2/dense_19/MatMul/ReadVariableOp"
  op: "Identity"
  input: "model_2/dense_19/MatMul/ReadVariableOp/resource"
  attr {
    key: "T"
    value {
      type: DT_FLOAT
    }
  }
  attr {
    key: "_has_manual_control_dependencies"
    value {
      b: true
    }
  }
}
node {
  name: "model_2/dense_19/MatMul"
  op: "MatMul"
  input: "model_2/add_4/add"
  input: "model_2/dense_19/MatMul/ReadVariableOp"
  attr {
    key: "T"
    value {
      type: DT_FLOAT
    }
  }
  attr {
    key: "transpose_a"
    value {
      b: false
    }
  }
  attr {
    key: "transpose_b"
    value {
      b: false
    }
  }
}
node {
  name: "model_2/dense_19/BiasAdd/ReadVariableOp"
  op: "Identity"
  input: "model_2/dense_19/BiasAdd/ReadVariableOp/resource"
  attr {
    key: "T"
    value {
      type: DT_FLOAT
    }
  }
  attr {
    key: "_has_manual_control_dependencies"
    value {
      b: true
    }
  }
}
node {
  name: "model_2/dense_19/BiasAdd"
  op: "BiasAdd"
  input: "model_2/dense_19/MatMul"
  input: "model_2/dense_19/BiasAdd/ReadVariableOp"
  attr {
    key: "T"
    value {
      type: DT_FLOAT
    }
  }
  attr {
    key: "data_format"
    value {
      s: "NHWC"
    }
  }
}
node {
  name: "model_2/dense_20/MatMul/ReadVariableOp"
  op: "Identity"
  input: "model_2/dense_20/MatMul/ReadVariableOp/resource"
  attr {
    key: "T"
    value {
      type: DT_FLOAT
    }
  }
  attr {
    key: "_has_manual_control_dependencies"
    value {
      b: true
    }
  }
}
node {
  name: "model_2/dense_20/MatMul"
  op: "MatMul"
  input: "model_2/concatenate_4/concat"
  input: "model_2/dense_20/MatMul/ReadVariableOp"
  attr {
    key: "T"
    value {
      type: DT_FLOAT
    }
  }
  attr {
    key: "transpose_a"
    value {
      b: false
    }
  }
  attr {
    key: "transpose_b"
    value {
      b: false
    }
  }
}
node {
  name: "model_2/dense_20/BiasAdd/ReadVariableOp"
  op: "Identity"
  input: "model_2/dense_20/BiasAdd/ReadVariableOp/resource"
  attr {
    key: "T"
    value {
      type: DT_FLOAT
    }
  }
  attr {
    key: "_has_manual_control_dependencies"
    value {
      b: true
    }
  }
}
node {
  name: "model_2/dense_20/BiasAdd"
  op: "BiasAdd"
  input: "model_2/dense_20/MatMul"
  input: "model_2/dense_20/BiasAdd/ReadVariableOp"
  attr {
    key: "T"
    value {
      type: DT_FLOAT
    }
  }
  attr {
    key: "data_format"
    value {
      s: "NHWC"
    }
  }
}
node {
  name: "model_2/leaky_re_lu_10/LeakyRelu"
  op: "LeakyRelu"
  input: "model_2/dense_20/BiasAdd"
  attr {
    key: "T"
    value {
      type: DT_FLOAT
    }
  }
  attr {
    key: "alpha"
    value {
      f: 0.009999999776482582
    }
  }
}
node {
  name: "model_2/dense_21/MatMul/ReadVariableOp"
  op: "Identity"
  input: "model_2/dense_21/MatMul/ReadVariableOp/resource"
  attr {
    key: "T"
    value {
      type: DT_FLOAT
    }
  }
  attr {
    key: "_has_manual_control_dependencies"
    value {
      b: true
    }
  }
}
node {
  name: "model_2/dense_21/MatMul"
  op: "MatMul"
  input: "model_2/leaky_re_lu_10/LeakyRelu"
  input: "model_2/dense_21/MatMul/ReadVariableOp"
  attr {
    key: "T"
    value {
      type: DT_FLOAT
    }
  }
  attr {
    key: "transpose_a"
    value {
      b: false
    }
  }
  attr {
    key: "transpose_b"
    value {
      b: false
    }
  }
}
node {
  name: "model_2/dense_21/BiasAdd/ReadVariableOp"
  op: "Identity"
  input: "model_2/dense_21/BiasAdd/ReadVariableOp/resource"
  attr {
    key: "T"
    value {
      type: DT_FLOAT
    }
  }
  attr {
    key: "_has_manual_control_dependencies"
    value {
      b: true
    }
  }
}
node {
  name: "model_2/dense_21/BiasAdd"
  op: "BiasAdd"
  input: "model_2/dense_21/MatMul"
  input: "model_2/dense_21/BiasAdd/ReadVariableOp"
  attr {
    key: "T"
    value {
      type: DT_FLOAT
    }
  }
  attr {
    key: "data_format"
    value {
      s: "NHWC"
    }
  }
}
node {
  name: "model_2/leaky_re_lu_11/LeakyRelu"
  op: "LeakyRelu"
  input: "model_2/dense_21/BiasAdd"
  attr {
    key: "T"
    value {
      type: DT_FLOAT
    }
  }
  attr {
    key: "alpha"
    value {
      f: 0.009999999776482582
    }
  }
}
node {
  name: "model_2/batch_normalization_5/batchnorm/ReadVariableOp"
  op: "Identity"
  input: "model_2/batch_normalization_5/batchnorm/ReadVariableOp/resource"
  attr {
    key: "T"
    value {
      type: DT_FLOAT
    }
  }
  attr {
    key: "_has_manual_control_dependencies"
    value {
      b: true
    }
  }
}
node {
  name: "model_2/batch_normalization_5/batchnorm/add"
  op: "AddV2"
  input: "model_2/batch_normalization_5/batchnorm/ReadVariableOp"
  input: "model_2/batch_normalization_5/batchnorm/add/y"
  attr {
    key: "T"
    value {
      type: DT_FLOAT
    }
  }
}
node {
  name: "model_2/batch_normalization_5/batchnorm/Rsqrt"
  op: "Rsqrt"
  input: "model_2/batch_normalization_5/batchnorm/add"
  attr {
    key: "T"
    value {
      type: DT_FLOAT
    }
  }
}
node {
  name: "model_2/batch_normalization_5/batchnorm/mul/ReadVariableOp"
  op: "Identity"
  input: "model_2/batch_normalization_5/batchnorm/mul/ReadVariableOp/resource"
  attr {
    key: "T"
    value {
      type: DT_FLOAT
    }
  }
  attr {
    key: "_has_manual_control_dependencies"
    value {
      b: true
    }
  }
}
node {
  name: "model_2/batch_normalization_5/batchnorm/mul"
  op: "Mul"
  input: "model_2/batch_normalization_5/batchnorm/Rsqrt"
  input: "model_2/batch_normalization_5/batchnorm/mul/ReadVariableOp"
  attr {
    key: "T"
    value {
      type: DT_FLOAT
    }
  }
}
node {
  name: "model_2/batch_normalization_5/batchnorm/mul_1"
  op: "Mul"
  input: "model_2/leaky_re_lu_11/LeakyRelu"
  input: "model_2/batch_normalization_5/batchnorm/mul"
  attr {
    key: "T"
    value {
      type: DT_FLOAT
    }
  }
}
node {
  name: "model_2/batch_normalization_5/batchnorm/ReadVariableOp_2"
  op: "Identity"
  input: "model_2/batch_normalization_5/batchnorm/ReadVariableOp_2/resource"
  attr {
    key: "T"
    value {
      type: DT_FLOAT
    }
  }
  attr {
    key: "_has_manual_control_dependencies"
    value {
      b: true
    }
  }
}
node {
  name: "model_2/batch_normalization_5/batchnorm/ReadVariableOp_1"
  op: "Identity"
  input: "model_2/batch_normalization_5/batchnorm/ReadVariableOp_1/resource"
  attr {
    key: "T"
    value {
      type: DT_FLOAT
    }
  }
  attr {
    key: "_has_manual_control_dependencies"
    value {
      b: true
    }
  }
}
node {
  name: "model_2/batch_normalization_5/batchnorm/mul_2"
  op: "Mul"
  input: "model_2/batch_normalization_5/batchnorm/ReadVariableOp_1"
  input: "model_2/batch_normalization_5/batchnorm/mul"
  attr {
    key: "T"
    value {
      type: DT_FLOAT
    }
  }
}
node {
  name: "model_2/batch_normalization_5/batchnorm/sub"
  op: "Sub"
  input: "model_2/batch_normalization_5/batchnorm/ReadVariableOp_2"
  input: "model_2/batch_normalization_5/batchnorm/mul_2"
  attr {
    key: "T"
    value {
      type: DT_FLOAT
    }
  }
}
node {
  name: "model_2/batch_normalization_5/batchnorm/add_1"
  op: "AddV2"
  input: "model_2/batch_normalization_5/batchnorm/mul_1"
  input: "model_2/batch_normalization_5/batchnorm/sub"
  attr {
    key: "T"
    value {
      type: DT_FLOAT
    }
  }
}
node {
  name: "model_2/dropout_5/Identity"
  op: "Identity"
  input: "model_2/batch_normalization_5/batchnorm/add_1"
  attr {
    key: "T"
    value {
      type: DT_FLOAT
    }
  }
}
node {
  name: "model_2/dense_22/MatMul/ReadVariableOp"
  op: "Identity"
  input: "model_2/dense_22/MatMul/ReadVariableOp/resource"
  attr {
    key: "T"
    value {
      type: DT_FLOAT
    }
  }
  attr {
    key: "_has_manual_control_dependencies"
    value {
      b: true
    }
  }
}
node {
  name: "model_2/dense_22/MatMul"
  op: "MatMul"
  input: "model_2/concatenate_4/concat"
  input: "model_2/dense_22/MatMul/ReadVariableOp"
  attr {
    key: "T"
    value {
      type: DT_FLOAT
    }
  }
  attr {
    key: "transpose_a"
    value {
      b: false
    }
  }
  attr {
    key: "transpose_b"
    value {
      b: false
    }
  }
}
node {
  name: "model_2/dense_22/BiasAdd/ReadVariableOp"
  op: "Identity"
  input: "model_2/dense_22/BiasAdd/ReadVariableOp/resource"
  attr {
    key: "T"
    value {
      type: DT_FLOAT
    }
  }
  attr {
    key: "_has_manual_control_dependencies"
    value {
      b: true
    }
  }
}
node {
  name: "model_2/dense_22/BiasAdd"
  op: "BiasAdd"
  input: "model_2/dense_22/MatMul"
  input: "model_2/dense_22/BiasAdd/ReadVariableOp"
  attr {
    key: "T"
    value {
      type: DT_FLOAT
    }
  }
  attr {
    key: "data_format"
    value {
      s: "NHWC"
    }
  }
}
node {
  name: "model_2/add_5/add"
  op: "AddV2"
  input: "model_2/dropout_5/Identity"
  input: "model_2/dense_22/BiasAdd"
  attr {
    key: "T"
    value {
      type: DT_FLOAT
    }
  }
}
node {
  name: "model_2/dense_23/MatMul/ReadVariableOp"
  op: "Identity"
  input: "model_2/dense_23/MatMul/ReadVariableOp/resource"
  attr {
    key: "T"
    value {
      type: DT_FLOAT
    }
  }
  attr {
    key: "_has_manual_control_dependencies"
    value {
      b: true
    }
  }
}
node {
  name: "model_2/dense_23/MatMul"
  op: "MatMul"
  input: "model_2/add_5/add"
  input: "model_2/dense_23/MatMul/ReadVariableOp"
  attr {
    key: "T"
    value {
      type: DT_FLOAT
    }
  }
  attr {
    key: "transpose_a"
    value {
      b: false
    }
  }
  attr {
    key: "transpose_b"
    value {
      b: false
    }
  }
}
node {
  name: "model_2/dense_23/BiasAdd/ReadVariableOp"
  op: "Identity"
  input: "model_2/dense_23/BiasAdd/ReadVariableOp/resource"
  attr {
    key: "T"
    value {
      type: DT_FLOAT
    }
  }
  attr {
    key: "_has_manual_control_dependencies"
    value {
      b: true
    }
  }
}
node {
  name: "model_2/dense_23/BiasAdd"
  op: "BiasAdd"
  input: "model_2/dense_23/MatMul"
  input: "model_2/dense_23/BiasAdd/ReadVariableOp"
  attr {
    key: "T"
    value {
      type: DT_FLOAT
    }
  }
  attr {
    key: "data_format"
    value {
      s: "NHWC"
    }
  }
}
node {
  name: "model_2/dense_23/Softplus"
  op: "Softplus"
  input: "model_2/dense_23/BiasAdd"
  attr {
    key: "T"
    value {
      type: DT_FLOAT
    }
  }
}
node {
  name: "model_2/tf.clip_by_value_2/clip_by_value/Minimum"
  op: "Minimum"
  input: "model_2/dense_23/Softplus"
  input: "model_2/tf.clip_by_value_2/clip_by_value/Minimum/y"
  attr {
    key: "T"
    value {
      type: DT_FLOAT
    }
  }
}
node {
  name: "model_2/tf.clip_by_value_2/clip_by_value"
  op: "Maximum"
  input: "model_2/tf.clip_by_value_2/clip_by_value/Minimum"
  input: "model_2/tf.clip_by_value_2/clip_by_value/y"
  attr {
    key: "T"
    value {
      type: DT_FLOAT
    }
  }
}
node {
  name: "model_2/concatenate_5/concat"
  op: "ConcatV2"
  input: "model_2/dense_19/BiasAdd"
  input: "model_2/tf.clip_by_value_2/clip_by_value"
  input: "model_2/concatenate_5/concat/axis"
  attr {
    key: "N"
    value {
      i: 2
    }
  }
  attr {
    key: "T"
    value {
      type: DT_FLOAT
    }
  }
  attr {
    key: "Tidx"
    value {
      type: DT_INT32
    }
  }
}
node {
  name: "NoOp"
  op: "NoOp"
  input: "^model_2/batch_normalization_4/batchnorm/ReadVariableOp"
  input: "^model_2/batch_normalization_4/batchnorm/ReadVariableOp_1"
  input: "^model_2/batch_normalization_4/batchnorm/ReadVariableOp_2"
  input: "^model_2/batch_normalization_4/batchnorm/mul/ReadVariableOp"
  input: "^model_2/batch_normalization_5/batchnorm/ReadVariableOp"
  input: "^model_2/batch_normalization_5/batchnorm/ReadVariableOp_1"
  input: "^model_2/batch_normalization_5/batchnorm/ReadVariableOp_2"
  input: "^model_2/batch_normalization_5/batchnorm/mul/ReadVariableOp"
  input: "^model_2/dense_16/BiasAdd/ReadVariableOp"
  input: "^model_2/dense_16/MatMul/ReadVariableOp"
  input: "^model_2/dense_17/BiasAdd/ReadVariableOp"
  input: "^model_2/dense_17/MatMul/ReadVariableOp"
  input: "^model_2/dense_18/BiasAdd/ReadVariableOp"
  input: "^model_2/dense_18/MatMul/ReadVariableOp"
  input: "^model_2/dense_19/BiasAdd/ReadVariableOp"
  input: "^model_2/dense_19/MatMul/ReadVariableOp"
  input: "^model_2/dense_20/BiasAdd/ReadVariableOp"
  input: "^model_2/dense_20/MatMul/ReadVariableOp"
  input: "^model_2/dense_21/BiasAdd/ReadVariableOp"
  input: "^model_2/dense_21/MatMul/ReadVariableOp"
  input: "^model_2/dense_22/BiasAdd/ReadVariableOp"
  input: "^model_2/dense_22/MatMul/ReadVariableOp"
  input: "^model_2/dense_23/BiasAdd/ReadVariableOp"
  input: "^model_2/dense_23/MatMul/ReadVariableOp"
  attr {
    key: "_has_manual_control_dependencies"
    value {
      b: true
    }
  }
}
node {
  name: "Identity"
  op: "Identity"
  input: "model_2/concatenate_5/concat"
  input: "^NoOp"
  attr {
    key: "T"
    value {
      type: DT_FLOAT
    }
  }
}
versions {
  producer: 1482
}
