node {
  name: "pixel_projection_y"
  op: "Placeholder"
  attr {
    key: "dtype"
    value {
      type: DT_FLOAT
    }
  }
  attr {
    key: "shape"
    value {
      shape {
        dim {
          size: -1
        }
        dim {
          size: 21
        }
        dim {
          size: 1
        }
      }
    }
  }
}
node {
  name: "cluster_charge"
  op: "Placeholder"
  attr {
    key: "dtype"
    value {
      type: DT_FLOAT
    }
  }
  attr {
    key: "shape"
    value {
      shape {
        dim {
          size: -1
        }
        dim {
          size: 1
        }
      }
    }
  }
}
node {
  name: "angles"
  op: "Placeholder"
  attr {
    key: "dtype"
    value {
      type: DT_FLOAT
    }
  }
  attr {
    key: "shape"
    value {
      shape {
        dim {
          size: -1
        }
        dim {
          size: 2
        }
      }
    }
  }
}
node {
  name: "model_3/flatten_3/Const"
  op: "Const"
  attr {
    key: "dtype"
    value {
      type: DT_INT32
    }
  }
  attr {
    key: "value"
    value {
      tensor {
        dtype: DT_INT32
        tensor_shape {
          dim {
            size: 2
          }
        }
        tensor_content: "\377\377\377\377\025\000\000\000"
      }
    }
  }
}
node {
  name: "model_3/concatenate_6/concat/axis"
  op: "Const"
  attr {
    key: "dtype"
    value {
      type: DT_INT32
    }
  }
  attr {
    key: "value"
    value {
      tensor {
        dtype: DT_INT32
        tensor_shape {
        }
        int_val: 1
      }
    }
  }
}
node {
  name: "model_3/dense_24/MatMul/ReadVariableOp/resource"
  op: "Const"
  attr {
    key: "dtype"
    value {
      type: DT_FLOAT
    }
  }
  attr {
    key: "value"
    value {
      tensor {
        dtype: DT_FLOAT
        tensor_shape {
          dim {
            size: 24
          }
          dim {
            size: 192
          }
        }
        tensor_content: "…"
      }
    }
  }
}
node {
  name: "model_3/dense_24/BiasAdd/ReadVariableOp/resource"
  op: "Const"
  attr {
    key: "dtype"
    value {
      type: DT_FLOAT
    }
  }
  attr {
    key: "value"
    value {
      tensor {
        dtype: DT_FLOAT
        tensor_shape {
          dim {
            size: 192
          }
        }
        tensor_content: "…"
      }
    }
  }
}
node {
  name: "model_3/dense_25/MatMul/ReadVariableOp/resource"
  op: "Const"
  attr {
    key: "dtype"
    value {
      type: DT_FLOAT
    }
  }
  attr {
    key: "value"
    value {
      tensor {
        dtype: DT_FLOAT
        tensor_shape {
          dim {
            size: 192
          }
          dim {
            size: 96
          }
        }
        tensor_content: "…"
      }
    }
  }
}
node {
  name: "model_3/dense_25/BiasAdd/ReadVariableOp/resource"
  op: "Const"
  attr {
    key: "dtype"
    value {
      type: DT_FLOAT
    }
  }
  attr {
    key: "value"
    value {
      tensor {
        dtype: DT_FLOAT
        tensor_shape {
          dim {
            size: 96
          }
        }
        tensor_content: "…"
      }
    }
  }
}
node {
  name: "model_3/batch_normalization_6/batchnorm/ReadVariableOp/resource"
  op: "Const"
  attr {
    key: "dtype"
    value {
      type: DT_FLOAT
    }
  }
  attr {
    key: "value"
    value {
      tensor {
        dtype: DT_FLOAT
        tensor_shape {
          dim {
            size: 96
          }
        }
        tensor_content: "…"
      }
    }
  }
}
node {
  name: "model_3/batch_normalization_6/batchnorm/add/y"
  op: "Const"
  attr {
    key: "dtype"
    value {
      type: DT_FLOAT
    }
  }
  attr {
    key: "value"
    value {
      tensor {
        dtype: DT_FLOAT
        tensor_shape {
        }
        float_val: 0.0010000000474974513
      }
    }
  }
}
node {
  name: "model_3/batch_normalization_6/batchnorm/mul/ReadVariableOp/resource"
  op: "Const"
  attr {
    key: "dtype"
    value {
      type: DT_FLOAT
    }
  }
  attr {
    key: "value"
    value {
      tensor {
        dtype: DT_FLOAT
        tensor_shape {
          dim {
            size: 96
          }
        }
        tensor_content: "…"
      }
    }
  }
}
node {
  name: "model_3/batch_normalization_6/batchnorm/ReadVariableOp_2/resource"
  op: "Const"
  attr {
    key: "dtype"
    value {
      type: DT_FLOAT
    }
  }
  attr {
    key: "value"
    value {
      tensor {
        dtype: DT_FLOAT
        tensor_shape {
          dim {
            size: 96
          }
        }
        tensor_content: "…"
      }
    }
  }
}
node {
  name: "model_3/batch_normalization_6/batchnorm/ReadVariableOp_1/resource"
  op: "Const"
  attr {
    key: "dtype"
    value {
      type: DT_FLOAT
    }
  }
  attr {
    key: "value"
    value {
      tensor {
        dtype: DT_FLOAT
        tensor_shape {
          dim {
            size: 96
          }
        }
        tensor_content: "…"
      }
    }
  }
}
node {
  name: "model_3/dense_26/MatMul/ReadVariableOp/resource"
  op: "Const"
  attr {
    key: "dtype"
    value {
      type: DT_FLOAT
    }
  }
  attr {
    key: "value"
    value {
      tensor {
        dtype: DT_FLOAT
        tensor_shape {
          dim {
            size: 24
          }
          dim {
            size: 96
          }
        }
        tensor_content: "…"
      }
    }
  }
}
node {
  name: "model_3/dense_26/BiasAdd/ReadVariableOp/resource"
  op: "Const"
  attr {
    key: "dtype"
    value {
      type: DT_FLOAT
    }
  }
  attr {
    key: "value"
    value {
      tensor {
        dtype: DT_FLOAT
        tensor_shape {
          dim {
            size: 96
          }
        }
        tensor_content: "…"
      }
    }
  }
}
node {
  name: "model_3/dense_27/MatMul/ReadVariableOp/resource"
  op: "Const"
  attr {
    key: "dtype"
    value {
      type: DT_FLOAT
    }
  }
  attr {
    key: "value"
    value {
      tensor {
        dtype: DT_FLOAT
        tensor_shape {
          dim {
            size: 96
          }
          dim {
            size: 1
          }
        }
        tensor_content: "…"
      }
    }
  }
}
node {
  name: "model_3/dense_27/BiasAdd/ReadVariableOp/resource"
  op: "Const"
  attr {
    key: "dtype"
    value {
      type: DT_FLOAT
    }
  }
  attr {
    key: "value"
    value {
      tensor {
        dtype: DT_FLOAT
        tensor_shape {
          dim {
            size: 1
          }
        }
        float_val: -0.005143006332218647
      }
    }
  }
}
node {
  name: "model_3/dense_28/MatMul/ReadVariableOp/resource"
  op: "Const"
  attr {
    key: "dtype"
    value {
      type: DT_FLOAT
    }
  }
  attr {
    key: "value"
    value {
      tensor {
        dtype: DT_FLOAT
        tensor_shape {
          dim {
            size: 24
          }
          dim {
            size: 192
          }
        }
        tensor_content: "…"
      }
    }
  }
}
node {
  name: "model_3/dense_28/BiasAdd/ReadVariableOp/resource"
  op: "Const"
  attr {
    key: "dtype"
    value {
      type: DT_FLOAT
    }
  }
  attr {
    key: "value"
    value {
      tensor {
        dtype: DT_FLOAT
        tensor_shape {
          dim {
            size: 192
          }
        }
        tensor_content: "…"
      }
    }
  }
}
node {
  name: "model_3/dense_29/MatMul/ReadVariableOp/resource"
  op: "Const"
  attr {
    key: "dtype"
    value {
      type: DT_FLOAT
    }
  }
  attr {
    key: "value"
    value {
      tensor {
        dtype: DT_FLOAT
        tensor_shape {
          dim {
            size: 192
          }
          dim {
            size: 96
          }
        }
        tensor_content: "…"
      }
    }
  }
}
node {
  name: "model_3/dense_29/BiasAdd/ReadVariableOp/resource"
  op: "Const"
  attr {
    key: "dtype"
    value {
      type: DT_FLOAT
    }
  }
  attr {
    key: "value"
    value {
      tensor {
        dtype: DT_FLOAT
        tensor_shape {
          dim {
            size: 96
          }
        }
        tensor_content: "…"
      }
    }
  }
}
node {
  name: "model_3/batch_normalization_7/batchnorm/ReadVariableOp/resource"
  op: "Const"
  attr {
    key: "dtype"
    value {
      type: DT_FLOAT
    }
  }
  attr {
    key: "value"
    value {
      tensor {
        dtype: DT_FLOAT
        tensor_shape {
          dim {
            size: 96
          }
        }
        tensor_content: "…"
      }
    }
  }
}
node {
  name: "model_3/batch_normalization_7/batchnorm/add/y"
  op: "Const"
  attr {
    key: "dtype"
    value {
      type: DT_FLOAT
    }
  }
  attr {
    key: "value"
    value {
      tensor {
        dtype: DT_FLOAT
        tensor_shape {
        }
        float_val: 0.0010000000474974513
      }
    }
  }
}
node {
  name: "model_3/batch_normalization_7/batchnorm/mul/ReadVariableOp/resource"
  op: "Const"
  attr {
    key: "dtype"
    value {
      type: DT_FLOAT
    }
  }
  attr {
    key: "value"
    value {
      tensor {
        dtype: DT_FLOAT
        tensor_shape {
          dim {
            size: 96
          }
        }
        tensor_content: "…"
      }
    }
  }
}
node {
  name: "model_3/batch_normalization_7/batchnorm/ReadVariableOp_2/resource"
  op: "Const"
  attr {
    key: "dtype"
    value {
      type: DT_FLOAT
    }
  }
  attr {
    key: "value"
    value {
      tensor {
        dtype: DT_FLOAT
        tensor_shape {
          dim {
            size: 96
          }
        }
        tensor_content: "…"
      }
    }
  }
}
node {
  name: "model_3/batch_normalization_7/batchnorm/ReadVariableOp_1/resource"
  op: "Const"
  attr {
    key: "dtype"
    value {
      type: DT_FLOAT
    }
  }
  attr {
    key: "value"
    value {
      tensor {
        dtype: DT_FLOAT
        tensor_shape {
          dim {
            size: 96
          }
        }
        tensor_content: "…"
      }
    }
  }
}
node {
  name: "model_3/dense_30/MatMul/ReadVariableOp/resource"
  op: "Const"
  attr {
    key: "dtype"
    value {
      type: DT_FLOAT
    }
  }
  attr {
    key: "value"
    value {
      tensor {
        dtype: DT_FLOAT
        tensor_shape {
          dim {
            size: 24
          }
          dim {
            size: 96
          }
        }
        tensor_content: "…"
      }
    }
  }
}
node {
  name: "model_3/dense_30/BiasAdd/ReadVariableOp/resource"
  op: "Const"
  attr {
    key: "dtype"
    value {
      type: DT_FLOAT
    }
  }
  attr {
    key: "value"
    value {
      tensor {
        dtype: DT_FLOAT
        tensor_shape {
          dim {
            size: 96
          }
        }
        tensor_content: "…"
      }
    }
  }
}
node {
  name: "model_3/dense_31/MatMul/ReadVariableOp/resource"
  op: "Const"
  attr {
    key: "dtype"
    value {
      type: DT_FLOAT
    }
  }
  attr {
    key: "value"
    value {
      tensor {
        dtype: DT_FLOAT
        tensor_shape {
          dim {
            size: 96
          }
          dim {
            size: 1
          }
        }
        tensor_content: "…"
      }
    }
  }
}
node {
  name: "model_3/dense_31/BiasAdd/ReadVariableOp/resource"
  op: "Const"
  attr {
    key: "dtype"
    value {
      type: DT_FLOAT
    }
  }
  attr {
    key: "value"
    value {
      tensor {
        dtype: DT_FLOAT
        tensor_shape {
          dim {
            size: 1
          }
        }
        float_val: 0.8104209899902344
      }
    }
  }
}
node {
  name: "model_3/tf.clip_by_value_3/clip_by_value/Minimum/y"
  op: "Const"
  attr {
    key: "dtype"
    value {
      type: DT_FLOAT
    }
  }
  attr {
    key: "value"
    value {
      tensor {
        dtype: DT_FLOAT
        tensor_shape {
        }
        float_val: 120.0
      }
    }
  }
}
node {
  name: "model_3/tf.clip_by_value_3/clip_by_value/y"
  op: "Const"
  attr {
    key: "dtype"
    value {
      type: DT_FLOAT
    }
  }
  attr {
    key: "value"
    value {
      tensor {
        dtype: DT_FLOAT
        tensor_shape {
        }
        float_val: 3.0
      }
    }
  }
}
node {
  name: "model_3/concatenate_7/concat/axis"
  op: "Const"
  attr {
    key: "dtype"
    value {
      type: DT_INT32
    }
  }
  attr {
    key: "value"
    value {
      tensor {
        dtype: DT_INT32
        tensor_shape {
        }
        int_val: 1
      }
    }
  }
}
node {
  name: "model_3/flatten_3/Reshape"
  op: "Reshape"
  input: "pixel_projection_y"
  input: "model_3/flatten_3/Const"
  attr {
    key: "T"
    value {
      type: DT_FLOAT
    }
  }
  attr {
    key: "Tshape"
    value {
      type: DT_INT32
    }
  }
}
node {
  name: "model_3/concatenate_6/concat"
  op: "ConcatV2"
  input: "model_3/flatten_3/Reshape"
  input: "angles"
  input: "cluster_charge"
  input: "model_3/concatenate_6/concat/axis"
  attr {
    key: "N"
    value {
      i: 3
    }
  }
  attr {
    key: "T"
    value {
      type: DT_FLOAT
    }
  }
  attr {
    key: "Tidx"
    value {
      type: DT_INT32
    }
  }
}
node {
  name: "model_3/dense_24/MatMul/ReadVariableOp"
  op: "Identity"
  input: "model_3/dense_24/MatMul/ReadVariableOp/resource"
  attr {
    key: "T"
    value {
      type: DT_FLOAT
    }
  }
  attr {
    key: "_has_manual_control_dependencies"
    value {
      b: true
    }
  }
}
node {
  name: "model_3/dense_24/MatMul"
  op: "MatMul"
  input: "model_3/concatenate_6/concat"
  input: "model_3/dense_24/MatMul/ReadVariableOp"
  attr {
    key: "T"
    value {
      type: DT_FLOAT
    }
  }
  attr {
    key: "transpose_a"
    value {
      b: false
    }
  }
  attr {
    key: "transpose_b"
    value {
      b: false
    }
  }
}
node {
  name: "model_3/dense_24/BiasAdd/ReadVariableOp"
  op: "Identity"
  input: "model_3/dense_24/BiasAdd/ReadVariableOp/resource"
  attr {
    key: "T"
    value {
      type: DT_FLOAT
    }
  }
  attr {
    key: "_has_manual_control_dependencies"
    value {
      b: true
    }
  }
}
node {
  name: "model_3/dense_24/BiasAdd"
  op: "BiasAdd"
  input: "model_3/dense_24/MatMul"
  input: "model_3/dense_24/BiasAdd/ReadVariableOp"
  attr {
    key: "T"
    value {
      type: DT_FLOAT
    }
  }
  attr {
    key: "data_format"
    value {
      s: "NHWC"
    }
  }
}
node {
  name: "model_3/leaky_re_lu_12/LeakyRelu"
  op: "LeakyRelu"
  input: "model_3/dense_24/BiasAdd"
  attr {
    key: "T"
    value {
      type: DT_FLOAT
    }
  }
  attr {
    key: "alpha"
    value {
      f: 0.009999999776482582
    }
  }
}
node {
  name: "model_3/dense_25/MatMul/ReadVariableOp"
  op: "Identity"
  input: "model_3/dense_25/MatMul/ReadVariableOp/resource"
  attr {
    key: "T"
    value {
      type: DT_FLOAT
    }
  }
  attr {
    key: "_has_manual_control_dependencies"
    value {
      b: true
    }
  }
}
node {
  name: "model_3/dense_25/MatMul"
  op: "MatMul"
  input: "model_3/leaky_re_lu_12/LeakyRelu"
  input: "model_3/dense_25/MatMul/ReadVariableOp"
  attr {
    key: "T"
    value {
      type: DT_FLOAT
    }
  }
  attr {
    key: "transpose_a"
    value {
      b: false
    }
  }
  attr {
    key: "transpose_b"
    value {
      b: false
    }
  }
}
node {
  name: "model_3/dense_25/BiasAdd/ReadVariableOp"
  op: "Identity"
  input: "model_3/dense_25/BiasAdd/ReadVariableOp/resource"
  attr {
    key: "T"
    value {
      type: DT_FLOAT
    }
  }
  attr {
    key: "_has_manual_control_dependencies"
    value {
      b: true
    }
  }
}
node {
  name: "model_3/dense_25/BiasAdd"
  op: "BiasAdd"
  input: "model_3/dense_25/MatMul"
  input: "model_3/dense_25/BiasAdd/ReadVariableOp"
  attr {
    key: "T"
    value {
      type: DT_FLOAT
    }
  }
  attr {
    key: "data_format"
    value {
      s: "NHWC"
    }
  }
}
node {
  name: "model_3/leaky_re_lu_13/LeakyRelu"
  op: "LeakyRelu"
  input: "model_3/dense_25/BiasAdd"
  attr {
    key: "T"
    value {
      type: DT_FLOAT
    }
  }
  attr {
    key: "alpha"
    value {
      f: 0.009999999776482582
    }
  }
}
node {
  name: "model_3/batch_normalization_6/batchnorm/ReadVariableOp"
  op: "Identity"
  input: "model_3/batch_normalization_6/batchnorm/ReadVariableOp/resource"
  attr {
    key: "T"
    value {
      type: DT_FLOAT
    }
  }
  attr {
    key: "_has_manual_control_dependencies"
    value {
      b: true
    }
  }
}
node {
  name: "model_3/batch_normalization_6/batchnorm/add"
  op: "AddV2"
  input: "model_3/batch_normalization_6/batchnorm/ReadVariableOp"
  input: "model_3/batch_normalization_6/batchnorm/add/y"
  attr {
    key: "T"
    value {
      type: DT_FLOAT
    }
  }
}
node {
  name: "model_3/batch_normalization_6/batchnorm/Rsqrt"
  op: "Rsqrt"
  input: "model_3/batch_normalization_6/batchnorm/add"
  attr {
    key: "T"
    value {
      type: DT_FLOAT
    }
  }
}
node {
  name: "model_3/batch_normalization_6/batchnorm/mul/ReadVariableOp"
  op: "Identity"
  input: "model_3/batch_normalization_6/batchnorm/mul/ReadVariableOp/resource"
  attr {
    key: "T"
    value {
      type: DT_FLOAT
    }
  }
  attr {
    key: "_has_manual_control_dependencies"
    value {
      b: true
    }
  }
}
node {
  name: "model_3/batch_normalization_6/batchnorm/mul"
  op: "Mul"
  input: "model_3/batch_normalization_6/batchnorm/Rsqrt"
  input: "model_3/batch_normalization_6/batchnorm/mul/ReadVariableOp"
  attr {
    key: "T"
    value {
      type: DT_FLOAT
    }
  }
}
node {
  name: "model_3/batch_normalization_6/batchnorm/mul_1"
  op: "Mul"
  input: "model_3/leaky_re_lu_13/LeakyRelu"
  input: "model_3/batch_normalization_6/batchnorm/mul"
  attr {
    key: "T"
    value {
      type: DT_FLOAT
    }
  }
}
node {
  name: "model_3/batch_normalization_6/batchnorm/ReadVariableOp_2"
  op: "Identity"
  input: "model_3/batch_normalization_6/batchnorm/ReadVariableOp_2/resource"
  attr {
    key: "T"
    value {
      type: DT_FLOAT
    }
  }
  attr {
    key: "_has_manual_control_dependencies"
    value {
      b: true
    }
  }
}
node {
  name: "model_3/batch_normalization_6/batchnorm/ReadVariableOp_1"
  op: "Identity"
  input: "model_3/batch_normalization_6/batchnorm/ReadVariableOp_1/resource"
  attr {
    key: "T"
    value {
      type: DT_FLOAT
    }
  }
  attr {
    key: "_has_manual_control_dependencies"
    value {
      b: true
    }
  }
}
node {
  name: "model_3/batch_normalization_6/batchnorm/mul_2"
  op: "Mul"
  input: "model_3/batch_normalization_6/batchnorm/ReadVariableOp_1"
  input: "model_3/batch_normalization_6/batchnorm/mul"
  attr {
    key: "T"
    value {
      type: DT_FLOAT
    }
  }
}
node {
  name: "model_3/batch_normalization_6/batchnorm/sub"
  op: "Sub"
  input: "model_3/batch_normalization_6/batchnorm/ReadVariableOp_2"
  input: "model_3/batch_normalization_6/batchnorm/mul_2"
  attr {
    key: "T"
    value {
      type: DT_FLOAT
    }
  }
}
node {
  name: "model_3/batch_normalization_6/batchnorm/add_1"
  op: "AddV2"
  input: "model_3/batch_normalization_6/batchnorm/mul_1"
  input: "model_3/batch_normalization_6/batchnorm/sub"
  attr {
    key: "T"
    value {
      type: DT_FLOAT
    }
  }
}
node {
  name: "model_3/dropout_6/Identity"
  op: "Identity"
  input: "model_3/batch_normalization_6/batchnorm/add_1"
  attr {
    key: "T"
    value {
      type: DT_FLOAT
    }
  }
}
node {
  name: "model_3/dense_26/MatMul/ReadVariableOp"
  op: "Identity"
  input: "model_3/dense_26/MatMul/ReadVariableOp/resource"
  attr {
    key: "T"
    value {
      type: DT_FLOAT
    }
  }
  attr {
    key: "_has_manual_control_dependencies"
    value {
      b: true
    }
  }
}
node {
  name: "model_3/dense_26/MatMul"
  op: "MatMul"
  input: "model_3/concatenate_6/concat"
  input: "model_3/dense_26/MatMul/ReadVariableOp"
  attr {
    key: "T"
    value {
      type: DT_FLOAT
    }
  }
  attr {
    key: "transpose_a"
    value {
      b: false
    }
  }
  attr {
    key: "transpose_b"
    value {
      b: false
    }
  }
}
node {
  name: "model_3/dense_26/BiasAdd/ReadVariableOp"
  op: "Identity"
  input: "model_3/dense_26/BiasAdd/ReadVariableOp/resource"
  attr {
    key: "T"
    value {
      type: DT_FLOAT
    }
  }
  attr {
    key: "_has_manual_control_dependencies"
    value {
      b: true
    }
  }
}
node {
  name: "model_3/dense_26/BiasAdd"
  op: "BiasAdd"
  input: "model_3/dense_26/MatMul"
  input: "model_3/dense_26/BiasAdd/ReadVariableOp"
  attr {
    key: "T"
    value {
      type: DT_FLOAT
    }
  }
  attr {
    key: "data_format"
    value {
      s: "NHWC"
    }
  }
}
node {
  name: "model_3/add_6/add"
  op: "AddV2"
  input: "model_3/dropout_6/Identity"
  input: "model_3/dense_26/BiasAdd"
  attr {
    key: "T"
    value {
      type: DT_FLOAT
    }
  }
}
node {
  name: "model_3/dense_27/MatMul/ReadVariableOp"
  op: "Identity"
  input: "model_3/dense_27/MatMul/ReadVariableOp/resource"
  attr {
    key: "T"
    value {
      type: DT_FLOAT
    }
  }
  attr {
    key: "_has_manual_control_dependencies"
    value {
      b: true
    }
  }
}
node {
  name: "model_3/dense_27/MatMul"
  op: "MatMul"
  input: "model_3/add_6/add"
  input: "model_3/dense_27/MatMul/ReadVariableOp"
  attr {
    key: "T"
    value {
      type: DT_FLOAT
    }
  }
  attr {
    key: "transpose_a"
    value {
      b: false
    }
  }
  attr {
    key: "transpose_b"
    value {
      b: false
    }
  }
}
node {
  name: "model_3/dense_27/BiasAdd/ReadVariableOp"
  op: "Identity"
  input: "model_3/dense_27/BiasAdd/ReadVariableOp/resource"
  attr {
    key: "T"
    value {
      type: DT_FLOAT
    }
  }
  attr {
    key: "_has_manual_control_dependencies"
    value {
      b: true
    }
  }
}
node {
  name: "model_3/dense_27/BiasAdd"
  op: "BiasAdd"
  input: "model_3/dense_27/MatMul"
  input: "model_3/dense_27/BiasAdd/ReadVariableOp"
  attr {
    key: "T"
    value {
      type: DT_FLOAT
    }
  }
  attr {
    key: "data_format"
    value {
      s: "NHWC"
    }
  }
}
node {
  name: "model_3/dense_28/MatMul/ReadVariableOp"
  op: "Identity"
  input: "model_3/dense_28/MatMul/ReadVariableOp/resource"
  attr {
    key: "T"
    value {
      type: DT_FLOAT
    }
  }
  attr {
    key: "_has_manual_control_dependencies"
    value {
      b: true
    }
  }
}
node {
  name: "model_3/dense_28/MatMul"
  op: "MatMul"
  input: "model_3/concatenate_6/concat"
  input: "model_3/dense_28/MatMul/ReadVariableOp"
  attr {
    key: "T"
    value {
      type: DT_FLOAT
    }
  }
  attr {
    key: "transpose_a"
    value {
      b: false
    }
  }
  attr {
    key: "transpose_b"
    value {
      b: false
    }
  }
}
node {
  name: "model_3/dense_28/BiasAdd/ReadVariableOp"
  op: "Identity"
  input: "model_3/dense_28/BiasAdd/ReadVariableOp/resource"
  attr {
    key: "T"
    value {
      type: DT_FLOAT
    }
  }
  attr {
    key: "_has_manual_control_dependencies"
    value {
      b: true
    }
  }
}
node {
  name: "model_3/dense_28/BiasAdd"
  op: "BiasAdd"
  input: "model_3/dense_28/MatMul"
  input: "model_3/dense_28/BiasAdd/ReadVariableOp"
  attr {
    key: "T"
    value {
      type: DT_FLOAT
    }
  }
  attr {
    key: "data_format"
    value {
      s: "NHWC"
    }
  }
}
node {
  name: "model_3/leaky_re_lu_14/LeakyRelu"
  op: "LeakyRelu"
  input: "model_3/dense_28/BiasAdd"
  attr {
    key: "T"
    value {
      type: DT_FLOAT
    }
  }
  attr {
    key: "alpha"
    value {
      f: 0.009999999776482582
    }
  }
}
node {
  name: "model_3/dense_29/MatMul/ReadVariableOp"
  op: "Identity"
  input: "model_3/dense_29/MatMul/ReadVariableOp/resource"
  attr {
    key: "T"
    value {
      type: DT_FLOAT
    }
  }
  attr {
    key: "_has_manual_control_dependencies"
    value {
      b: true
    }
  }
}
node {
  name: "model_3/dense_29/MatMul"
  op: "MatMul"
  input: "model_3/leaky_re_lu_14/LeakyRelu"
  input: "model_3/dense_29/MatMul/ReadVariableOp"
  attr {
    key: "T"
    value {
      type: DT_FLOAT
    }
  }
  attr {
    key: "transpose_a"
    value {
      b: false
    }
  }
  attr {
    key: "transpose_b"
    value {
      b: false
    }
  }
}
node {
  name: "model_3/dense_29/BiasAdd/ReadVariableOp"
  op: "Identity"
  input: "model_3/dense_29/BiasAdd/ReadVariableOp/resource"
  attr {
    key: "T"
    value {
      type: DT_FLOAT
    }
  }
  attr {
    key: "_has_manual_control_dependencies"
    value {
      b: true
    }
  }
}
node {
  name: "model_3/dense_29/BiasAdd"
  op: "BiasAdd"
  input: "model_3/dense_29/MatMul"
  input: "model_3/dense_29/BiasAdd/ReadVariableOp"
  attr {
    key: "T"
    value {
      type: DT_FLOAT
    }
  }
  attr {
    key: "data_format"
    value {
      s: "NHWC"
    }
  }
}
node {
  name: "model_3/leaky_re_lu_15/LeakyRelu"
  op: "LeakyRelu"
  input: "model_3/dense_29/BiasAdd"
  attr {
    key: "T"
    value {
      type: DT_FLOAT
    }
  }
  attr {
    key: "alpha"
    value {
      f: 0.009999999776482582
    }
  }
}
node {
  name: "model_3/batch_normalization_7/batchnorm/ReadVariableOp"
  op: "Identity"
  input: "model_3/batch_normalization_7/batchnorm/ReadVariableOp/resource"
  attr {
    key: "T"
    value {
      type: DT_FLOAT
    }
  }
  attr {
    key: "_has_manual_control_dependencies"
    value {
      b: true
    }
  }
}
node {
  name: "model_3/batch_normalization_7/batchnorm/add"
  op: "AddV2"
  input: "model_3/batch_normalization_7/batchnorm/ReadVariableOp"
  input: "model_3/batch_normalization_7/batchnorm/add/y"
  attr {
    key: "T"
    value {
      type: DT_FLOAT
    }
  }
}
node {
  name: "model_3/batch_normalization_7/batchnorm/Rsqrt"
  op: "Rsqrt"
  input: "model_3/batch_normalization_7/batchnorm/add"
  attr {
    key: "T"
    value {
      type: DT_FLOAT
    }
  }
}
node {
  name: "model_3/batch_normalization_7/batchnorm/mul/ReadVariableOp"
  op: "Identity"
  input: "model_3/batch_normalization_7/batchnorm/mul/ReadVariableOp/resource"
  attr {
    key: "T"
    value {
      type: DT_FLOAT
    }
  }
  attr {
    key: "_has_manual_control_dependencies"
    value {
      b: true
    }
  }
}
node {
  name: "model_3/batch_normalization_7/batchnorm/mul"
  op: "Mul"
  input: "model_3/batch_normalization_7/batchnorm/Rsqrt"
  input: "model_3/batch_normalization_7/batchnorm/mul/ReadVariableOp"
  attr {
    key: "T"
    value {
      type: DT_FLOAT
    }
  }
}
node {
  name: "model_3/batch_normalization_7/batchnorm/mul_1"
  op: "Mul"
  input: "model_3/leaky_re_lu_15/LeakyRelu"
  input: "model_3/batch_normalization_7/batchnorm/mul"
  attr {
    key: "T"
    value {
      type: DT_FLOAT
    }
  }
}
node {
  name: "model_3/batch_normalization_7/batchnorm/ReadVariableOp_2"
  op: "Identity"
  input: "model_3/batch_normalization_7/batchnorm/ReadVariableOp_2/resource"
  attr {
    key: "T"
    value {
      type: DT_FLOAT
    }
  }
  attr {
    key: "_has_manual_control_dependencies"
    value {
      b: true
    }
  }
}
node {
  name: "model_3/batch_normalization_7/batchnorm/ReadVariableOp_1"
  op: "Identity"
  input: "model_3/batch_normalization_7/batchnorm/ReadVariableOp_1/resource"
  attr {
    key: "T"
    value {
      type: DT_FLOAT
    }
  }
  attr {
    key: "_has_manual_control_dependencies"
    value {
      b: true
    }
  }
}
node {
  name: "model_3/batch_normalization_7/batchnorm/mul_2"
  op: "Mul"
  input: "model_3/batch_normalization_7/batchnorm/ReadVariableOp_1"
  input: "model_3/batch_normalization_7/batchnorm/mul"
  attr {
    key: "T"
    value {
      type: DT_FLOAT
    }
  }
}
node {
  name: "model_3/batch_normalization_7/batchnorm/sub"
  op: "Sub"
  input: "model_3/batch_normalization_7/batchnorm/ReadVariableOp_2"
  input: "model_3/batch_normalization_7/batchnorm/mul_2"
  attr {
    key: "T"
    value {
      type: DT_FLOAT
    }
  }
}
node {
  name: "model_3/batch_normalization_7/batchnorm/add_1"
  op: "AddV2"
  input: "model_3/batch_normalization_7/batchnorm/mul_1"
  input: "model_3/batch_normalization_7/batchnorm/sub"
  attr {
    key: "T"
    value {
      type: DT_FLOAT
    }
  }
}
node {
  name: "model_3/dropout_7/Identity"
  op: "Identity"
  input: "model_3/batch_normalization_7/batchnorm/add_1"
  attr {
    key: "T"
    value {
      type: DT_FLOAT
    }
  }
}
node {
  name: "model_3/dense_30/MatMul/ReadVariableOp"
  op: "Identity"
  input: "model_3/dense_30/MatMul/ReadVariableOp/resource"
  attr {
    key: "T"
    value {
      type: DT_FLOAT
    }
  }
  attr {
    key: "_has_manual_control_dependencies"
    value {
      b: true
    }
  }
}
node {
  name: "model_3/dense_30/MatMul"
  op: "MatMul"
  input: "model_3/concatenate_6/concat"
  input: "model_3/dense_30/MatMul/ReadVariableOp"
  attr {
    key: "T"
    value {
      type: DT_FLOAT
    }
  }
  attr {
    key: "transpose_a"
    value {
      b: false
    }
  }
  attr {
    key: "transpose_b"
    value {
      b: false
    }
  }
}
node {
  name: "model_3/dense_30/BiasAdd/ReadVariableOp"
  op: "Identity"
  input: "model_3/dense_30/BiasAdd/ReadVariableOp/resource"
  attr {
    key: "T"
    value {
      type: DT_FLOAT
    }
  }
  attr {
    key: "_has_manual_control_dependencies"
    value {
      b: true
    }
  }
}
node {
  name: "model_3/dense_30/BiasAdd"
  op: "BiasAdd"
  input: "model_3/dense_30/MatMul"
  input: "model_3/dense_30/BiasAdd/ReadVariableOp"
  attr {
    key: "T"
    value {
      type: DT_FLOAT
    }
  }
  attr {
    key: "data_format"
    value {
      s: "NHWC"
    }
  }
}
node {
  name: "model_3/add_7/add"
  op: "AddV2"
  input: "model_3/dropout_7/Identity"
  input: "model_3/dense_30/BiasAdd"
  attr {
    key: "T"
    value {
      type: DT_FLOAT
    }
  }
}
node {
  name: "model_3/dense_31/MatMul/ReadVariableOp"
  op: "Identity"
  input: "model_3/dense_31/MatMul/ReadVariableOp/resource"
  attr {
    key: "T"
    value {
      type: DT_FLOAT
    }
  }
  attr {
    key: "_has_manual_control_dependencies"
    value {
      b: true
    }
  }
}
node {
  name: "model_3/dense_31/MatMul"
  op: "MatMul"
  input: "model_3/add_7/add"
  input: "model_3/dense_31/MatMul/ReadVariableOp"
  attr {
    key: "T"
    value {
      type: DT_FLOAT
    }
  }
  attr {
    key: "transpose_a"
    value {
      b: false
    }
  }
  attr {
    key: "transpose_b"
    value {
      b: false
    }
  }
}
node {
  name: "model_3/dense_31/BiasAdd/ReadVariableOp"
  op: "Identity"
  input: "model_3/dense_31/BiasAdd/ReadVariableOp/resource"
  attr {
    key: "T"
    value {
      type: DT_FLOAT
    }
  }
  attr {
    key: "_has_manual_control_dependencies"
    value {
      b: true
    }
  }
}
node {
  name: "model_3/dense_31/BiasAdd"
  op: "BiasAdd"
  input: "model_3/dense_31/MatMul"
  input: "model_3/dense_31/BiasAdd/ReadVariableOp"
  attr {
    key: "T"
    value {
      type: DT_FLOAT
    }
  }
  attr {
    key: "data_format"
    value {
      s: "NHWC"
    }
  }
}
node {
  name: "model_3/dense_31/Softplus"
  op: "Softplus"
  input: "model_3/dense_31/BiasAdd"
  attr {
    key: "T"
    value {
      type: DT_FLOAT
    }
  }
}
node {
  name: "model_3/tf.clip_by_value_3/clip_by_value/Minimum"
  op: "Minimum"
  input: "model_3/dense_31/Softplus"
  input: "model_3/tf.clip_by_value_3/clip_by_value/Minimum/y"
  attr {
    key: "T"
    value {
      type: DT_FLOAT
    }
  }
}
node {
  name: "model_3/tf.clip_by_value_3/clip_by_value"
  op: "Maximum"
  input: "model_3/tf.clip_by_value_3/clip_by_value/Minimum"
  input: "model_3/tf.clip_by_value_3/clip_by_value/y"
  attr {
    key: "T"
    value {
      type: DT_FLOAT
    }
  }
}
node {
  name: "model_3/concatenate_7/concat"
  op: "ConcatV2"
  input: "model_3/dense_27/BiasAdd"
  input: "model_3/tf.clip_by_value_3/clip_by_value"
  input: "model_3/concatenate_7/concat/axis"
  attr {
    key: "N"
    value {
      i: 2
    }
  }
  attr {
    key: "T"
    value {
      type: DT_FLOAT
    }
  }
  attr {
    key: "Tidx"
    value {
      type: DT_INT32
    }
  }
}
node {
  name: "NoOp"
  op: "NoOp"
  input: "^model_3/batch_normalization_6/batchnorm/ReadVariableOp"
  input: "^model_3/batch_normalization_6/batchnorm/ReadVariableOp_1"
  input: "^model_3/batch_normalization_6/batchnorm/ReadVariableOp_2"
  input: "^model_3/batch_normalization_6/batchnorm/mul/ReadVariableOp"
  input: "^model_3/batch_normalization_7/batchnorm/ReadVariableOp"
  input: "^model_3/batch_normalization_7/batchnorm/ReadVariableOp_1"
  input: "^model_3/batch_normalization_7/batchnorm/ReadVariableOp_2"
  input: "^model_3/batch_normalization_7/batchnorm/mul/ReadVariableOp"
  input: "^model_3/dense_24/BiasAdd/ReadVariableOp"
  input: "^model_3/dense_24/MatMul/ReadVariableOp"
  input: "^model_3/dense_25/BiasAdd/ReadVariableOp"
  input: "^model_3/dense_25/MatMul/ReadVariableOp"
  input: "^model_3/dense_26/BiasAdd/ReadVariableOp"
  input: "^model_3/dense_26/MatMul/ReadVariableOp"
  input: "^model_3/dense_27/BiasAdd/ReadVariableOp"
  input: "^model_3/dense_27/MatMul/ReadVariableOp"
  input: "^model_3/dense_28/BiasAdd/ReadVariableOp"
  input: "^model_3/dense_28/MatMul/ReadVariableOp"
  input: "^model_3/dense_29/BiasAdd/ReadVariableOp"
  input: "^model_3/dense_29/MatMul/ReadVariableOp"
  input: "^model_3/dense_30/BiasAdd/ReadVariableOp"
  input: "^model_3/dense_30/MatMul/ReadVariableOp"
  input: "^model_3/dense_31/BiasAdd/ReadVariableOp"
  input: "^model_3/dense_31/MatMul/ReadVariableOp"
  attr {
    key: "_has_manual_control_dependencies"
    value {
      b: true
    }
  }
}
node {
  name: "Identity"
  op: "Identity"
  input: "model_3/concatenate_7/concat"
  input: "^NoOp"
  attr {
    key: "T"
    value {
      type: DT_FLOAT
    }
  }
}
versions {
  producer: 1482
}
