node {
  name: "pixel_projection_x"
  op: "Placeholder"
  attr {
    key: "dtype"
    value {
      type: DT_FLOAT
    }
  }
  attr {
    key: "shape"
    value {
      shape {
        dim {
          size: -1
        }
        dim {
          size: 13
        }
        dim {
          size: 1
        }
      }
    }
  }
}
node {
  name: "angles"
  op: "Placeholder"
  attr {
    key: "dtype"
    value {
      type: DT_FLOAT
    }
  }
  attr {
    key: "shape"
    value {
      shape {
        dim {
          size: -1
        }
        dim {
          size: 2
        }
      }
    }
  }
}
node {
  name: "cluster_charge"
  op: "Placeholder"
  attr {
    key: "dtype"
    value {
      type: DT_FLOAT
    }
  }
  attr {
    key: "shape"
    value {
      shape {
        dim {
          size: -1
        }
        dim {
          size: 1
        }
      }
    }
  }
}
node {
  name: "model_8/flatten_8/Const"
  op: "Const"
  attr {
    key: "dtype"
    value {
      type: DT_INT32
    }
  }
  attr {
    key: "value"
    value {
      tensor {
        dtype: DT_INT32
        tensor_shape {
          dim {
            size: 2
          }
        }
        tensor_content: "\377\377\377\377\r\000\000\000"
      }
    }
  }
}
node {
  name: "model_8/concatenate_16/concat/axis"
  op: "Const"
  attr {
    key: "dtype"
    value {
      type: DT_INT32
    }
  }
  attr {
    key: "value"
    value {
      tensor {
        dtype: DT_INT32
        tensor_shape {
        }
        int_val: 1
      }
    }
  }
}
node {
  name: "model_8/dense_64/MatMul/ReadVariableOp/resource"
  op: "Const"
  attr {
    key: "dtype"
    value {
      type: DT_FLOAT
    }
  }
  attr {
    key: "value"
    value {
      tensor {
        dtype: DT_FLOAT
        tensor_shape {
          dim {
            size: 16
          }
          dim {
            size: 128
          }
        }
        tensor_content: "…"
      }
    }
  }
}
node {
  name: "model_8/dense_64/BiasAdd/ReadVariableOp/resource"
  op: "Const"
  attr {
    key: "dtype"
    value {
      type: DT_FLOAT
    }
  }
  attr {
    key: "value"
    value {
      tensor {
        dtype: DT_FLOAT
        tensor_shape {
          dim {
            size: 128
          }
        }
        tensor_content: "…"
      }
    }
  }
}
node {
  name: "model_8/dense_65/MatMul/ReadVariableOp/resource"
  op: "Const"
  attr {
    key: "dtype"
    value {
      type: DT_FLOAT
    }
  }
  attr {
    key: "value"
    value {
      tensor {
        dtype: DT_FLOAT
        tensor_shape {
          dim {
            size: 128
          }
          dim {
            size: 64
          }
        }
        tensor_content: "…"
      }
    }
  }
}
node {
  name: "model_8/dense_65/BiasAdd/ReadVariableOp/resource"
  op: "Const"
  attr {
    key: "dtype"
    value {
      type: DT_FLOAT
    }
  }
  attr {
    key: "value"
    value {
      tensor {
        dtype: DT_FLOAT
        tensor_shape {
          dim {
            size: 64
          }
        }
        tensor_content: "…"
      }
    }
  }
}
node {
  name: "model_8/batch_normalization_16/batchnorm/ReadVariableOp/resource"
  op: "Const"
  attr {
    key: "dtype"
    value {
      type: DT_FLOAT
    }
  }
  attr {
    key: "value"
    value {
      tensor {
        dtype: DT_FLOAT
        tensor_shape {
          dim {
            size: 64
          }
        }
        tensor_content: "…"
      }
    }
  }
}
node {
  name: "model_8/batch_normalization_16/batchnorm/add/y"
  op: "Const"
  attr {
    key: "dtype"
    value {
      type: DT_FLOAT
    }
  }
  attr {
    key: "value"
    value {
      tensor {
        dtype: DT_FLOAT
        tensor_shape {
        }
        float_val: 0.0010000000474974513
      }
    }
  }
}
node {
  name: "model_8/batch_normalization_16/batchnorm/mul/ReadVariableOp/resource"
  op: "Const"
  attr {
    key: "dtype"
    value {
      type: DT_FLOAT
    }
  }
  attr {
    key: "value"
    value {
      tensor {
        dtype: DT_FLOAT
        tensor_shape {
          dim {
            size: 64
          }
        }
        tensor_content: "…"
      }
    }
  }
}
node {
  name: "model_8/batch_normalization_16/batchnorm/ReadVariableOp_2/resource"
  op: "Const"
  attr {
    key: "dtype"
    value {
      type: DT_FLOAT
    }
  }
  attr {
    key: "value"
    value {
      tensor {
        dtype: DT_FLOAT
        tensor_shape {
          dim {
            size: 64
          }
        }
        tensor_content: "…"
      }
    }
  }
}
node {
  name: "model_8/batch_normalization_16/batchnorm/ReadVariableOp_1/resource"
  op: "Const"
  attr {
    key: "dtype"
    value {
      type: DT_FLOAT
    }
  }
  attr {
    key: "value"
    value {
      tensor {
        dtype: DT_FLOAT
        tensor_shape {
          dim {
            size: 64
          }
        }
        tensor_content: "…"
      }
    }
  }
}
node {
  name: "model_8/dense_66/MatMul/ReadVariableOp/resource"
  op: "Const"
  attr {
    key: "dtype"
    value {
      type: DT_FLOAT
    }
  }
  attr {
    key: "value"
    value {
      tensor {
        dtype: DT_FLOAT
        tensor_shape {
          dim {
            size: 16
          }
          dim {
            size: 64
          }
        }
        tensor_content: "…"
      }
    }
  }
}
node {
  name: "model_8/dense_66/BiasAdd/ReadVariableOp/resource"
  op: "Const"
  attr {
    key: "dtype"
    value {
      type: DT_FLOAT
    }
  }
  attr {
    key: "value"
    value {
      tensor {
        dtype: DT_FLOAT
        tensor_shape {
          dim {
            size: 64
          }
        }
        tensor_content: "…"
      }
    }
  }
}
node {
  name: "model_8/dense_67/MatMul/ReadVariableOp/resource"
  op: "Const"
  attr {
    key: "dtype"
    value {
      type: DT_FLOAT
    }
  }
  attr {
    key: "value"
    value {
      tensor {
        dtype: DT_FLOAT
        tensor_shape {
          dim {
            size: 64
          }
          dim {
            size: 1
          }
        }
        tensor_content: "…"
      }
    }
  }
}
node {
  name: "model_8/dense_67/BiasAdd/ReadVariableOp/resource"
  op: "Const"
  attr {
    key: "dtype"
    value {
      type: DT_FLOAT
    }
  }
  attr {
    key: "value"
    value {
      tensor {
        dtype: DT_FLOAT
        tensor_shape {
          dim {
            size: 1
          }
        }
        float_val: -0.794438898563385
      }
    }
  }
}
node {
  name: "model_8/dense_68/MatMul/ReadVariableOp/resource"
  op: "Const"
  attr {
    key: "dtype"
    value {
      type: DT_FLOAT
    }
  }
  attr {
    key: "value"
    value {
      tensor {
        dtype: DT_FLOAT
        tensor_shape {
          dim {
            size: 16
          }
          dim {
            size: 128
          }
        }
        tensor_content: "…"
      }
    }
  }
}
node {
  name: "model_8/dense_68/BiasAdd/ReadVariableOp/resource"
  op: "Const"
  attr {
    key: "dtype"
    value {
      type: DT_FLOAT
    }
  }
  attr {
    key: "value"
    value {
      tensor {
        dtype: DT_FLOAT
        tensor_shape {
          dim {
            size: 128
          }
        }
        tensor_content: "…"
      }
    }
  }
}
node {
  name: "model_8/dense_69/MatMul/ReadVariableOp/resource"
  op: "Const"
  attr {
    key: "dtype"
    value {
      type: DT_FLOAT
    }
  }
  attr {
    key: "value"
    value {
      tensor {
        dtype: DT_FLOAT
        tensor_shape {
          dim {
            size: 128
          }
          dim {
            size: 64
          }
        }
        tensor_content: "…"
      }
    }
  }
}
node {
  name: "model_8/dense_69/BiasAdd/ReadVariableOp/resource"
  op: "Const"
  attr {
    key: "dtype"
    value {
      type: DT_FLOAT
    }
  }
  attr {
    key: "value"
    value {
      tensor {
        dtype: DT_FLOAT
        tensor_shape {
          dim {
            size: 64
          }
        }
        tensor_content: "…"
      }
    }
  }
}
node {
  name: "model_8/batch_normalization_17/batchnorm/ReadVariableOp/resource"
  op: "Const"
  attr {
    key: "dtype"
    value {
      type: DT_FLOAT
    }
  }
  attr {
    key: "value"
    value {
      tensor {
        dtype: DT_FLOAT
        tensor_shape {
          dim {
            size: 64
          }
        }
        tensor_content: "…"
      }
    }
  }
}
node {
  name: "model_8/batch_normalization_17/batchnorm/add/y"
  op: "Const"
  attr {
    key: "dtype"
    value {
      type: DT_FLOAT
    }
  }
  attr {
    key: "value"
    value {
      tensor {
        dtype: DT_FLOAT
        tensor_shape {
        }
        float_val: 0.0010000000474974513
      }
    }
  }
}
node {
  name: "model_8/batch_normalization_17/batchnorm/mul/ReadVariableOp/resource"
  op: "Const"
  attr {
    key: "dtype"
    value {
      type: DT_FLOAT
    }
  }
  attr {
    key: "value"
    value {
      tensor {
        dtype: DT_FLOAT
        tensor_shape {
          dim {
            size: 64
          }
        }
        tensor_content: "…"
      }
    }
  }
}
node {
  name: "model_8/batch_normalization_17/batchnorm/ReadVariableOp_2/resource"
  op: "Const"
  attr {
    key: "dtype"
    value {
      type: DT_FLOAT
    }
  }
  attr {
    key: "value"
    value {
      tensor {
        dtype: DT_FLOAT
        tensor_shape {
          dim {
            size: 64
          }
        }
        tensor_content: "…"
      }
    }
  }
}
node {
  name: "model_8/batch_normalization_17/batchnorm/ReadVariableOp_1/resource"
  op: "Const"
  attr {
    key: "dtype"
    value {
      type: DT_FLOAT
    }
  }
  attr {
    key: "value"
    value {
      tensor {
        dtype: DT_FLOAT
        tensor_shape {
          dim {
            size: 64
          }
        }
        tensor_content: "…"
      }
    }
  }
}
node {
  name: "model_8/dense_70/MatMul/ReadVariableOp/resource"
  op: "Const"
  attr {
    key: "dtype"
    value {
      type: DT_FLOAT
    }
  }
  attr {
    key: "value"
    value {
      tensor {
        dtype: DT_FLOAT
        tensor_shape {
          dim {
            size: 16
          }
          dim {
            size: 64
          }
        }
        tensor_content: "…"
      }
    }
  }
}
node {
  name: "model_8/dense_70/BiasAdd/ReadVariableOp/resource"
  op: "Const"
  attr {
    key: "dtype"
    value {
      type: DT_FLOAT
    }
  }
  attr {
    key: "value"
    value {
      tensor {
        dtype: DT_FLOAT
        tensor_shape {
          dim {
            size: 64
          }
        }
        tensor_content: "…"
      }
    }
  }
}
node {
  name: "model_8/dense_71/MatMul/ReadVariableOp/resource"
  op: "Const"
  attr {
    key: "dtype"
    value {
      type: DT_FLOAT
    }
  }
  attr {
    key: "value"
    value {
      tensor {
        dtype: DT_FLOAT
        tensor_shape {
          dim {
            size: 64
          }
          dim {
            size: 1
          }
        }
        tensor_content: "…"
      }
    }
  }
}
node {
  name: "model_8/dense_71/BiasAdd/ReadVariableOp/resource"
  op: "Const"
  attr {
    key: "dtype"
    value {
      type: DT_FLOAT
    }
  }
  attr {
    key: "value"
    value {
      tensor {
        dtype: DT_FLOAT
        tensor_shape {
          dim {
            size: 1
          }
        }
        float_val: 0.3037174344062805
      }
    }
  }
}
node {
  name: "model_8/tf.clip_by_value_8/clip_by_value/Minimum/y"
  op: "Const"
  attr {
    key: "dtype"
    value {
      type: DT_FLOAT
    }
  }
  attr {
    key: "value"
    value {
      tensor {
        dtype: DT_FLOAT
        tensor_shape {
        }
        float_val: 120.0
      }
    }
  }
}
node {
  name: "model_8/tf.clip_by_value_8/clip_by_value/y"
  op: "Const"
  attr {
    key: "dtype"
    value {
      type: DT_FLOAT
    }
  }
  attr {
    key: "value"
    value {
      tensor {
        dtype: DT_FLOAT
        tensor_shape {
        }
        float_val: 3.0
      }
    }
  }
}
node {
  name: "model_8/concatenate_17/concat/axis"
  op: "Const"
  attr {
    key: "dtype"
    value {
      type: DT_INT32
    }
  }
  attr {
    key: "value"
    value {
      tensor {
        dtype: DT_INT32
        tensor_shape {
        }
        int_val: 1
      }
    }
  }
}
node {
  name: "model_8/flatten_8/Reshape"
  op: "Reshape"
  input: "pixel_projection_x"
  input: "model_8/flatten_8/Const"
  attr {
    key: "T"
    value {
      type: DT_FLOAT
    }
  }
  attr {
    key: "Tshape"
    value {
      type: DT_INT32
    }
  }
}
node {
  name: "model_8/concatenate_16/concat"
  op: "ConcatV2"
  input: "model_8/flatten_8/Reshape"
  input: "angles"
  input: "cluster_charge"
  input: "model_8/concatenate_16/concat/axis"
  attr {
    key: "N"
    value {
      i: 3
    }
  }
  attr {
    key: "T"
    value {
      type: DT_FLOAT
    }
  }
  attr {
    key: "Tidx"
    value {
      type: DT_INT32
    }
  }
}
node {
  name: "model_8/dense_64/MatMul/ReadVariableOp"
  op: "Identity"
  input: "model_8/dense_64/MatMul/ReadVariableOp/resource"
  attr {
    key: "T"
    value {
      type: DT_FLOAT
    }
  }
  attr {
    key: "_has_manual_control_dependencies"
    value {
      b: true
    }
  }
}
node {
  name: "model_8/dense_64/MatMul"
  op: "MatMul"
  input: "model_8/concatenate_16/concat"
  input: "model_8/dense_64/MatMul/ReadVariableOp"
  attr {
    key: "T"
    value {
      type: DT_FLOAT
    }
  }
  attr {
    key: "transpose_a"
    value {
      b: false
    }
  }
  attr {
    key: "transpose_b"
    value {
      b: false
    }
  }
}
node {
  name: "model_8/dense_64/BiasAdd/ReadVariableOp"
  op: "Identity"
  input: "model_8/dense_64/BiasAdd/ReadVariableOp/resource"
  attr {
    key: "T"
    value {
      type: DT_FLOAT
    }
  }
  attr {
    key: "_has_manual_control_dependencies"
    value {
      b: true
    }
  }
}
node {
  name: "model_8/dense_64/BiasAdd"
  op: "BiasAdd"
  input: "model_8/dense_64/MatMul"
  input: "model_8/dense_64/BiasAdd/ReadVariableOp"
  attr {
    key: "T"
    value {
      type: DT_FLOAT
    }
  }
  attr {
    key: "data_format"
    value {
      s: "NHWC"
    }
  }
}
node {
  name: "model_8/leaky_re_lu_32/LeakyRelu"
  op: "LeakyRelu"
  input: "model_8/dense_64/BiasAdd"
  attr {
    key: "T"
    value {
      type: DT_FLOAT
    }
  }
  attr {
    key: "alpha"
    value {
      f: 0.009999999776482582
    }
  }
}
node {
  name: "model_8/dense_65/MatMul/ReadVariableOp"
  op: "Identity"
  input: "model_8/dense_65/MatMul/ReadVariableOp/resource"
  attr {
    key: "T"
    value {
      type: DT_FLOAT
    }
  }
  attr {
    key: "_has_manual_control_dependencies"
    value {
      b: true
    }
  }
}
node {
  name: "model_8/dense_65/MatMul"
  op: "MatMul"
  input: "model_8/leaky_re_lu_32/LeakyRelu"
  input: "model_8/dense_65/MatMul/ReadVariableOp"
  attr {
    key: "T"
    value {
      type: DT_FLOAT
    }
  }
  attr {
    key: "transpose_a"
    value {
      b: false
    }
  }
  attr {
    key: "transpose_b"
    value {
      b: false
    }
  }
}
node {
  name: "model_8/dense_65/BiasAdd/ReadVariableOp"
  op: "Identity"
  input: "model_8/dense_65/BiasAdd/ReadVariableOp/resource"
  attr {
    key: "T"
    value {
      type: DT_FLOAT
    }
  }
  attr {
    key: "_has_manual_control_dependencies"
    value {
      b: true
    }
  }
}
node {
  name: "model_8/dense_65/BiasAdd"
  op: "BiasAdd"
  input: "model_8/dense_65/MatMul"
  input: "model_8/dense_65/BiasAdd/ReadVariableOp"
  attr {
    key: "T"
    value {
      type: DT_FLOAT
    }
  }
  attr {
    key: "data_format"
    value {
      s: "NHWC"
    }
  }
}
node {
  name: "model_8/leaky_re_lu_33/LeakyRelu"
  op: "LeakyRelu"
  input: "model_8/dense_65/BiasAdd"
  attr {
    key: "T"
    value {
      type: DT_FLOAT
    }
  }
  attr {
    key: "alpha"
    value {
      f: 0.009999999776482582
    }
  }
}
node {
  name: "model_8/batch_normalization_16/batchnorm/ReadVariableOp"
  op: "Identity"
  input: "model_8/batch_normalization_16/batchnorm/ReadVariableOp/resource"
  attr {
    key: "T"
    value {
      type: DT_FLOAT
    }
  }
  attr {
    key: "_has_manual_control_dependencies"
    value {
      b: true
    }
  }
}
node {
  name: "model_8/batch_normalization_16/batchnorm/add"
  op: "AddV2"
  input: "model_8/batch_normalization_16/batchnorm/ReadVariableOp"
  input: "model_8/batch_normalization_16/batchnorm/add/y"
  attr {
    key: "T"
    value {
      type: DT_FLOAT
    }
  }
}
node {
  name: "model_8/batch_normalization_16/batchnorm/Rsqrt"
  op: "Rsqrt"
  input: "model_8/batch_normalization_16/batchnorm/add"
  attr {
    key: "T"
    value {
      type: DT_FLOAT
    }
  }
}
node {
  name: "model_8/batch_normalization_16/batchnorm/mul/ReadVariableOp"
  op: "Identity"
  input: "model_8/batch_normalization_16/batchnorm/mul/ReadVariableOp/resource"
  attr {
    key: "T"
    value {
      type: DT_FLOAT
    }
  }
  attr {
    key: "_has_manual_control_dependencies"
    value {
      b: true
    }
  }
}
node {
  name: "model_8/batch_normalization_16/batchnorm/mul"
  op: "Mul"
  input: "model_8/batch_normalization_16/batchnorm/Rsqrt"
  input: "model_8/batch_normalization_16/batchnorm/mul/ReadVariableOp"
  attr {
    key: "T"
    value {
      type: DT_FLOAT
    }
  }
}
node {
  name: "model_8/batch_normalization_16/batchnorm/mul_1"
  op: "Mul"
  input: "model_8/leaky_re_lu_33/LeakyRelu"
  input: "model_8/batch_normalization_16/batchnorm/mul"
  attr {
    key: "T"
    value {
      type: DT_FLOAT
    }
  }
}
node {
  name: "model_8/batch_normalization_16/batchnorm/ReadVariableOp_2"
  op: "Identity"
  input: "model_8/batch_normalization_16/batchnorm/ReadVariableOp_2/resource"
  attr {
    key: "T"
    value {
      type: DT_FLOAT
    }
  }
  attr {
    key: "_has_manual_control_dependencies"
    value {
      b: true
    }
  }
}
node {
  name: "model_8/batch_normalization_16/batchnorm/ReadVariableOp_1"
  op: "Identity"
  input: "model_8/batch_normalization_16/batchnorm/ReadVariableOp_1/resource"
  attr {
    key: "T"
    value {
      type: DT_FLOAT
    }
  }
  attr {
    key: "_has_manual_control_dependencies"
    value {
      b: true
    }
  }
}
node {
  name: "model_8/batch_normalization_16/batchnorm/mul_2"
  op: "Mul"
  input: "model_8/batch_normalization_16/batchnorm/ReadVariableOp_1"
  input: "model_8/batch_normalization_16/batchnorm/mul"
  attr {
    key: "T"
    value {
      type: DT_FLOAT
    }
  }
}
node {
  name: "model_8/batch_normalization_16/batchnorm/sub"
  op: "Sub"
  input: "model_8/batch_normalization_16/batchnorm/ReadVariableOp_2"
  input: "model_8/batch_normalization_16/batchnorm/mul_2"
  attr {
    key: "T"
    value {
      type: DT_FLOAT
    }
  }
}
node {
  name: "model_8/batch_normalization_16/batchnorm/add_1"
  op: "AddV2"
  input: "model_8/batch_normalization_16/batchnorm/mul_1"
  input: "model_8/batch_normalization_16/batchnorm/sub"
  attr {
    key: "T"
    value {
      type: DT_FLOAT
    }
  }
}
node {
  name: "model_8/dropout_16/Identity"
  op: "Identity"
  input: "model_8/batch_normalization_16/batchnorm/add_1"
  attr {
    key: "T"
    value {
      type: DT_FLOAT
    }
  }
}
node {
  name: "model_8/dense_66/MatMul/ReadVariableOp"
  op: "Identity"
  input: "model_8/dense_66/MatMul/ReadVariableOp/resource"
  attr {
    key: "T"
    value {
      type: DT_FLOAT
    }
  }
  attr {
    key: "_has_manual_control_dependencies"
    value {
      b: true
    }
  }
}
node {
  name: "model_8/dense_66/MatMul"
  op: "MatMul"
  input: "model_8/concatenate_16/concat"
  input: "model_8/dense_66/MatMul/ReadVariableOp"
  attr {
    key: "T"
    value {
      type: DT_FLOAT
    }
  }
  attr {
    key: "transpose_a"
    value {
      b: false
    }
  }
  attr {
    key: "transpose_b"
    value {
      b: false
    }
  }
}
node {
  name: "model_8/dense_66/BiasAdd/ReadVariableOp"
  op: "Identity"
  input: "model_8/dense_66/BiasAdd/ReadVariableOp/resource"
  attr {
    key: "T"
    value {
      type: DT_FLOAT
    }
  }
  attr {
    key: "_has_manual_control_dependencies"
    value {
      b: true
    }
  }
}
node {
  name: "model_8/dense_66/BiasAdd"
  op: "BiasAdd"
  input: "model_8/dense_66/MatMul"
  input: "model_8/dense_66/BiasAdd/ReadVariableOp"
  attr {
    key: "T"
    value {
      type: DT_FLOAT
    }
  }
  attr {
    key: "data_format"
    value {
      s: "NHWC"
    }
  }
}
node {
  name: "model_8/add_16/add"
  op: "AddV2"
  input: "model_8/dropout_16/Identity"
  input: "model_8/dense_66/BiasAdd"
  attr {
    key: "T"
    value {
      type: DT_FLOAT
    }
  }
}
node {
  name: "model_8/dense_67/MatMul/ReadVariableOp"
  op: "Identity"
  input: "model_8/dense_67/MatMul/ReadVariableOp/resource"
  attr {
    key: "T"
    value {
      type: DT_FLOAT
    }
  }
  attr {
    key: "_has_manual_control_dependencies"
    value {
      b: true
    }
  }
}
node {
  name: "model_8/dense_67/MatMul"
  op: "MatMul"
  input: "model_8/add_16/add"
  input: "model_8/dense_67/MatMul/ReadVariableOp"
  attr {
    key: "T"
    value {
      type: DT_FLOAT
    }
  }
  attr {
    key: "transpose_a"
    value {
      b: false
    }
  }
  attr {
    key: "transpose_b"
    value {
      b: false
    }
  }
}
node {
  name: "model_8/dense_67/BiasAdd/ReadVariableOp"
  op: "Identity"
  input: "model_8/dense_67/BiasAdd/ReadVariableOp/resource"
  attr {
    key: "T"
    value {
      type: DT_FLOAT
    }
  }
  attr {
    key: "_has_manual_control_dependencies"
    value {
      b: true
    }
  }
}
node {
  name: "model_8/dense_67/BiasAdd"
  op: "BiasAdd"
  input: "model_8/dense_67/MatMul"
  input: "model_8/dense_67/BiasAdd/ReadVariableOp"
  attr {
    key: "T"
    value {
      type: DT_FLOAT
    }
  }
  attr {
    key: "data_format"
    value {
      s: "NHWC"
    }
  }
}
node {
  name: "model_8/dense_68/MatMul/ReadVariableOp"
  op: "Identity"
  input: "model_8/dense_68/MatMul/ReadVariableOp/resource"
  attr {
    key: "T"
    value {
      type: DT_FLOAT
    }
  }
  attr {
    key: "_has_manual_control_dependencies"
    value {
      b: true
    }
  }
}
node {
  name: "model_8/dense_68/MatMul"
  op: "MatMul"
  input: "model_8/concatenate_16/concat"
  input: "model_8/dense_68/MatMul/ReadVariableOp"
  attr {
    key: "T"
    value {
      type: DT_FLOAT
    }
  }
  attr {
    key: "transpose_a"
    value {
      b: false
    }
  }
  attr {
    key: "transpose_b"
    value {
      b: false
    }
  }
}
node {
  name: "model_8/dense_68/BiasAdd/ReadVariableOp"
  op: "Identity"
  input: "model_8/dense_68/BiasAdd/ReadVariableOp/resource"
  attr {
    key: "T"
    value {
      type: DT_FLOAT
    }
  }
  attr {
    key: "_has_manual_control_dependencies"
    value {
      b: true
    }
  }
}
node {
  name: "model_8/dense_68/BiasAdd"
  op: "BiasAdd"
  input: "model_8/dense_68/MatMul"
  input: "model_8/dense_68/BiasAdd/ReadVariableOp"
  attr {
    key: "T"
    value {
      type: DT_FLOAT
    }
  }
  attr {
    key: "data_format"
    value {
      s: "NHWC"
    }
  }
}
node {
  name: "model_8/leaky_re_lu_34/LeakyRelu"
  op: "LeakyRelu"
  input: "model_8/dense_68/BiasAdd"
  attr {
    key: "T"
    value {
      type: DT_FLOAT
    }
  }
  attr {
    key: "alpha"
    value {
      f: 0.009999999776482582
    }
  }
}
node {
  name: "model_8/dense_69/MatMul/ReadVariableOp"
  op: "Identity"
  input: "model_8/dense_69/MatMul/ReadVariableOp/resource"
  attr {
    key: "T"
    value {
      type: DT_FLOAT
    }
  }
  attr {
    key: "_has_manual_control_dependencies"
    value {
      b: true
    }
  }
}
node {
  name: "model_8/dense_69/MatMul"
  op: "MatMul"
  input: "model_8/leaky_re_lu_34/LeakyRelu"
  input: "model_8/dense_69/MatMul/ReadVariableOp"
  attr {
    key: "T"
    value {
      type: DT_FLOAT
    }
  }
  attr {
    key: "transpose_a"
    value {
      b: false
    }
  }
  attr {
    key: "transpose_b"
    value {
      b: false
    }
  }
}
node {
  name: "model_8/dense_69/BiasAdd/ReadVariableOp"
  op: "Identity"
  input: "model_8/dense_69/BiasAdd/ReadVariableOp/resource"
  attr {
    key: "T"
    value {
      type: DT_FLOAT
    }
  }
  attr {
    key: "_has_manual_control_dependencies"
    value {
      b: true
    }
  }
}
node {
  name: "model_8/dense_69/BiasAdd"
  op: "BiasAdd"
  input: "model_8/dense_69/MatMul"
  input: "model_8/dense_69/BiasAdd/ReadVariableOp"
  attr {
    key: "T"
    value {
      type: DT_FLOAT
    }
  }
  attr {
    key: "data_format"
    value {
      s: "NHWC"
    }
  }
}
node {
  name: "model_8/leaky_re_lu_35/LeakyRelu"
  op: "LeakyRelu"
  input: "model_8/dense_69/BiasAdd"
  attr {
    key: "T"
    value {
      type: DT_FLOAT
    }
  }
  attr {
    key: "alpha"
    value {
      f: 0.009999999776482582
    }
  }
}
node {
  name: "model_8/batch_normalization_17/batchnorm/ReadVariableOp"
  op: "Identity"
  input: "model_8/batch_normalization_17/batchnorm/ReadVariableOp/resource"
  attr {
    key: "T"
    value {
      type: DT_FLOAT
    }
  }
  attr {
    key: "_has_manual_control_dependencies"
    value {
      b: true
    }
  }
}
node {
  name: "model_8/batch_normalization_17/batchnorm/add"
  op: "AddV2"
  input: "model_8/batch_normalization_17/batchnorm/ReadVariableOp"
  input: "model_8/batch_normalization_17/batchnorm/add/y"
  attr {
    key: "T"
    value {
      type: DT_FLOAT
    }
  }
}
node {
  name: "model_8/batch_normalization_17/batchnorm/Rsqrt"
  op: "Rsqrt"
  input: "model_8/batch_normalization_17/batchnorm/add"
  attr {
    key: "T"
    value {
      type: DT_FLOAT
    }
  }
}
node {
  name: "model_8/batch_normalization_17/batchnorm/mul/ReadVariableOp"
  op: "Identity"
  input: "model_8/batch_normalization_17/batchnorm/mul/ReadVariableOp/resource"
  attr {
    key: "T"
    value {
      type: DT_FLOAT
    }
  }
  attr {
    key: "_has_manual_control_dependencies"
    value {
      b: true
    }
  }
}
node {
  name: "model_8/batch_normalization_17/batchnorm/mul"
  op: "Mul"
  input: "model_8/batch_normalization_17/batchnorm/Rsqrt"
  input: "model_8/batch_normalization_17/batchnorm/mul/ReadVariableOp"
  attr {
    key: "T"
    value {
      type: DT_FLOAT
    }
  }
}
node {
  name: "model_8/batch_normalization_17/batchnorm/mul_1"
  op: "Mul"
  input: "model_8/leaky_re_lu_35/LeakyRelu"
  input: "model_8/batch_normalization_17/batchnorm/mul"
  attr {
    key: "T"
    value {
      type: DT_FLOAT
    }
  }
}
node {
  name: "model_8/batch_normalization_17/batchnorm/ReadVariableOp_2"
  op: "Identity"
  input: "model_8/batch_normalization_17/batchnorm/ReadVariableOp_2/resource"
  attr {
    key: "T"
    value {
      type: DT_FLOAT
    }
  }
  attr {
    key: "_has_manual_control_dependencies"
    value {
      b: true
    }
  }
}
node {
  name: "model_8/batch_normalization_17/batchnorm/ReadVariableOp_1"
  op: "Identity"
  input: "model_8/batch_normalization_17/batchnorm/ReadVariableOp_1/resource"
  attr {
    key: "T"
    value {
      type: DT_FLOAT
    }
  }
  attr {
    key: "_has_manual_control_dependencies"
    value {
      b: true
    }
  }
}
node {
  name: "model_8/batch_normalization_17/batchnorm/mul_2"
  op: "Mul"
  input: "model_8/batch_normalization_17/batchnorm/ReadVariableOp_1"
  input: "model_8/batch_normalization_17/batchnorm/mul"
  attr {
    key: "T"
    value {
      type: DT_FLOAT
    }
  }
}
node {
  name: "model_8/batch_normalization_17/batchnorm/sub"
  op: "Sub"
  input: "model_8/batch_normalization_17/batchnorm/ReadVariableOp_2"
  input: "model_8/batch_normalization_17/batchnorm/mul_2"
  attr {
    key: "T"
    value {
      type: DT_FLOAT
    }
  }
}
node {
  name: "model_8/batch_normalization_17/batchnorm/add_1"
  op: "AddV2"
  input: "model_8/batch_normalization_17/batchnorm/mul_1"
  input: "model_8/batch_normalization_17/batchnorm/sub"
  attr {
    key: "T"
    value {
      type: DT_FLOAT
    }
  }
}
node {
  name: "model_8/dropout_17/Identity"
  op: "Identity"
  input: "model_8/batch_normalization_17/batchnorm/add_1"
  attr {
    key: "T"
    value {
      type: DT_FLOAT
    }
  }
}
node {
  name: "model_8/dense_70/MatMul/ReadVariableOp"
  op: "Identity"
  input: "model_8/dense_70/MatMul/ReadVariableOp/resource"
  attr {
    key: "T"
    value {
      type: DT_FLOAT
    }
  }
  attr {
    key: "_has_manual_control_dependencies"
    value {
      b: true
    }
  }
}
node {
  name: "model_8/dense_70/MatMul"
  op: "MatMul"
  input: "model_8/concatenate_16/concat"
  input: "model_8/dense_70/MatMul/ReadVariableOp"
  attr {
    key: "T"
    value {
      type: DT_FLOAT
    }
  }
  attr {
    key: "transpose_a"
    value {
      b: false
    }
  }
  attr {
    key: "transpose_b"
    value {
      b: false
    }
  }
}
node {
  name: "model_8/dense_70/BiasAdd/ReadVariableOp"
  op: "Identity"
  input: "model_8/dense_70/BiasAdd/ReadVariableOp/resource"
  attr {
    key: "T"
    value {
      type: DT_FLOAT
    }
  }
  attr {
    key: "_has_manual_control_dependencies"
    value {
      b: true
    }
  }
}
node {
  name: "model_8/dense_70/BiasAdd"
  op: "BiasAdd"
  input: "model_8/dense_70/MatMul"
  input: "model_8/dense_70/BiasAdd/ReadVariableOp"
  attr {
    key: "T"
    value {
      type: DT_FLOAT
    }
  }
  attr {
    key: "data_format"
    value {
      s: "NHWC"
    }
  }
}
node {
  name: "model_8/add_17/add"
  op: "AddV2"
  input: "model_8/dropout_17/Identity"
  input: "model_8/dense_70/BiasAdd"
  attr {
    key: "T"
    value {
      type: DT_FLOAT
    }
  }
}
node {
  name: "model_8/dense_71/MatMul/ReadVariableOp"
  op: "Identity"
  input: "model_8/dense_71/MatMul/ReadVariableOp/resource"
  attr {
    key: "T"
    value {
      type: DT_FLOAT
    }
  }
  attr {
    key: "_has_manual_control_dependencies"
    value {
      b: true
    }
  }
}
node {
  name: "model_8/dense_71/MatMul"
  op: "MatMul"
  input: "model_8/add_17/add"
  input: "model_8/dense_71/MatMul/ReadVariableOp"
  attr {
    key: "T"
    value {
      type: DT_FLOAT
    }
  }
  attr {
    key: "transpose_a"
    value {
      b: false
    }
  }
  attr {
    key: "transpose_b"
    value {
      b: false
    }
  }
}
node {
  name: "model_8/dense_71/BiasAdd/ReadVariableOp"
  op: "Identity"
  input: "model_8/dense_71/BiasAdd/ReadVariableOp/resource"
  attr {
    key: "T"
    value {
      type: DT_FLOAT
    }
  }
  attr {
    key: "_has_manual_control_dependencies"
    value {
      b: true
    }
  }
}
node {
  name: "model_8/dense_71/BiasAdd"
  op: "BiasAdd"
  input: "model_8/dense_71/MatMul"
  input: "model_8/dense_71/BiasAdd/ReadVariableOp"
  attr {
    key: "T"
    value {
      type: DT_FLOAT
    }
  }
  attr {
    key: "data_format"
    value {
      s: "NHWC"
    }
  }
}
node {
  name: "model_8/dense_71/Softplus"
  op: "Softplus"
  input: "model_8/dense_71/BiasAdd"
  attr {
    key: "T"
    value {
      type: DT_FLOAT
    }
  }
}
node {
  name: "model_8/tf.clip_by_value_8/clip_by_value/Minimum"
  op: "Minimum"
  input: "model_8/dense_71/Softplus"
  input: "model_8/tf.clip_by_value_8/clip_by_value/Minimum/y"
  attr {
    key: "T"
    value {
      type: DT_FLOAT
    }
  }
}
node {
  name: "model_8/tf.clip_by_value_8/clip_by_value"
  op: "Maximum"
  input: "model_8/tf.clip_by_value_8/clip_by_value/Minimum"
  input: "model_8/tf.clip_by_value_8/clip_by_value/y"
  attr {
    key: "T"
    value {
      type: DT_FLOAT
    }
  }
}
node {
  name: "model_8/concatenate_17/concat"
  op: "ConcatV2"
  input: "model_8/dense_67/BiasAdd"
  input: "model_8/tf.clip_by_value_8/clip_by_value"
  input: "model_8/concatenate_17/concat/axis"
  attr {
    key: "N"
    value {
      i: 2
    }
  }
  attr {
    key: "T"
    value {
      type: DT_FLOAT
    }
  }
  attr {
    key: "Tidx"
    value {
      type: DT_INT32
    }
  }
}
node {
  name: "NoOp"
  op: "NoOp"
  input: "^model_8/batch_normalization_16/batchnorm/ReadVariableOp"
  input: "^model_8/batch_normalization_16/batchnorm/ReadVariableOp_1"
  input: "^model_8/batch_normalization_16/batchnorm/ReadVariableOp_2"
  input: "^model_8/batch_normalization_16/batchnorm/mul/ReadVariableOp"
  input: "^model_8/batch_normalization_17/batchnorm/ReadVariableOp"
  input: "^model_8/batch_normalization_17/batchnorm/ReadVariableOp_1"
  input: "^model_8/batch_normalization_17/batchnorm/ReadVariableOp_2"
  input: "^model_8/batch_normalization_17/batchnorm/mul/ReadVariableOp"
  input: "^model_8/dense_64/BiasAdd/ReadVariableOp"
  input: "^model_8/dense_64/MatMul/ReadVariableOp"
  input: "^model_8/dense_65/BiasAdd/ReadVariableOp"
  input: "^model_8/dense_65/MatMul/ReadVariableOp"
  input: "^model_8/dense_66/BiasAdd/ReadVariableOp"
  input: "^model_8/dense_66/MatMul/ReadVariableOp"
  input: "^model_8/dense_67/BiasAdd/ReadVariableOp"
  input: "^model_8/dense_67/MatMul/ReadVariableOp"
  input: "^model_8/dense_68/BiasAdd/ReadVariableOp"
  input: "^model_8/dense_68/MatMul/ReadVariableOp"
  input: "^model_8/dense_69/BiasAdd/ReadVariableOp"
  input: "^model_8/dense_69/MatMul/ReadVariableOp"
  input: "^model_8/dense_70/BiasAdd/ReadVariableOp"
  input: "^model_8/dense_70/MatMul/ReadVariableOp"
  input: "^model_8/dense_71/BiasAdd/ReadVariableOp"
  input: "^model_8/dense_71/MatMul/ReadVariableOp"
  attr {
    key: "_has_manual_control_dependencies"
    value {
      b: true
    }
  }
}
node {
  name: "Identity"
  op: "Identity"
  input: "model_8/concatenate_17/concat"
  input: "^NoOp"
  attr {
    key: "T"
    value {
      type: DT_FLOAT
    }
  }
}
versions {
  producer: 1482
}
