node {
  name: "input_3"
  op: "Placeholder"
  attr {
    key: "dtype"
    value {
      type: DT_FLOAT
    }
  }
  attr {
    key: "shape"
    value {
      shape {
        dim {
          size: -1
        }
        dim {
          size: 21
        }
        dim {
          size: 1
        }
      }
    }
  }
}
node {
  name: "input_4"
  op: "Placeholder"
  attr {
    key: "dtype"
    value {
      type: DT_FLOAT
    }
  }
  attr {
    key: "shape"
    value {
      shape {
        dim {
          size: -1
        }
        dim {
          size: 2
        }
      }
    }
  }
}
node {
  name: "model_1/conv1d_4/conv1d/ExpandDims/dim"
  op: "Const"
  attr {
    key: "dtype"
    value {
      type: DT_INT32
    }
  }
  attr {
    key: "value"
    value {
      tensor {
        dtype: DT_INT32
        tensor_shape {
        }
        int_val: 1
      }
    }
  }
}
node {
  name: "model_1/conv1d_4/conv1d/ExpandDims"
  op: "ExpandDims"
  input: "input_3"
  input: "model_1/conv1d_4/conv1d/ExpandDims/dim"
  attr {
    key: "T"
    value {
      type: DT_FLOAT
    }
  }
  attr {
    key: "Tdim"
    value {
      type: DT_INT32
    }
  }
}
node {
  name: "model_1/conv1d_4/conv1d/ExpandDims_1/ReadVariableOp/resource"
  op: "Const"
  attr {
    key: "dtype"
    value {
      type: DT_FLOAT
    }
  }
  attr {
    key: "value"
    value {
      tensor {
        dtype: DT_FLOAT
        tensor_shape {
          dim {
            size: 3
          }
          dim {
            size: 1
          }
          dim {
            size: 64
          }
        }
        tensor_content: "…"
      }
    }
  }
}
node {
  name: "model_1/conv1d_4/conv1d/ExpandDims_1/ReadVariableOp"
  op: "Identity"
  input: "model_1/conv1d_4/conv1d/ExpandDims_1/ReadVariableOp/resource"
  attr {
    key: "T"
    value {
      type: DT_FLOAT
    }
  }
}
node {
  name: "model_1/conv1d_4/conv1d/ExpandDims_1/dim"
  op: "Const"
  attr {
    key: "dtype"
    value {
      type: DT_INT32
    }
  }
  attr {
    key: "value"
    value {
      tensor {
        dtype: DT_INT32
        tensor_shape {
        }
        int_val: 0
      }
    }
  }
}
node {
  name: "model_1/conv1d_4/conv1d/ExpandDims_1"
  op: "ExpandDims"
  input: "model_1/conv1d_4/conv1d/ExpandDims_1/ReadVariableOp"
  input: "model_1/conv1d_4/conv1d/ExpandDims_1/dim"
  attr {
    key: "T"
    value {
      type: DT_FLOAT
    }
  }
  attr {
    key: "Tdim"
    value {
      type: DT_INT32
    }
  }
}
node {
  name: "model_1/conv1d_4/conv1d"
  op: "Conv2D"
  input: "model_1/conv1d_4/conv1d/ExpandDims"
  input: "model_1/conv1d_4/conv1d/ExpandDims_1"
  attr {
    key: "T"
    value {
      type: DT_FLOAT
    }
  }
  attr {
    key: "data_format"
    value {
      s: "NHWC"
    }
  }
  attr {
    key: "dilations"
    value {
      list {
        i: 1
        i: 1
        i: 1
        i: 1
      }
    }
  }
  attr {
    key: "explicit_paddings"
    value {
      list {
      }
    }
  }
  attr {
    key: "padding"
    value {
      s: "SAME"
    }
  }
  attr {
    key: "strides"
    value {
      list {
        i: 1
        i: 1
        i: 1
        i: 1
      }
    }
  }
  attr {
    key: "use_cudnn_on_gpu"
    value {
      b: true
    }
  }
}
node {
  name: "model_1/conv1d_4/conv1d/Squeeze"
  op: "Squeeze"
  input: "model_1/conv1d_4/conv1d"
  attr {
    key: "T"
    value {
      type: DT_FLOAT
    }
  }
  attr {
    key: "squeeze_dims"
    value {
      list {
        i: 1
      }
    }
  }
}
node {
  name: "model_1/conv1d_4/BiasAdd/ReadVariableOp/resource"
  op: "Const"
  attr {
    key: "dtype"
    value {
      type: DT_FLOAT
    }
  }
  attr {
    key: "value"
    value {
      tensor {
        dtype: DT_FLOAT
        tensor_shape {
          dim {
            size: 64
          }
        }
        tensor_content: "…"
      }
    }
  }
}
node {
  name: "model_1/conv1d_4/BiasAdd/ReadVariableOp"
  op: "Identity"
  input: "model_1/conv1d_4/BiasAdd/ReadVariableOp/resource"
  attr {
    key: "T"
    value {
      type: DT_FLOAT
    }
  }
}
node {
  name: "model_1/conv1d_4/BiasAdd"
  op: "BiasAdd"
  input: "model_1/conv1d_4/conv1d/Squeeze"
  input: "model_1/conv1d_4/BiasAdd/ReadVariableOp"
  attr {
    key: "T"
    value {
      type: DT_FLOAT
    }
  }
  attr {
    key: "data_format"
    value {
      s: "NHWC"
    }
  }
}
node {
  name: "model_1/activation_7/Relu"
  op: "Relu"
  input: "model_1/conv1d_4/BiasAdd"
  attr {
    key: "T"
    value {
      type: DT_FLOAT
    }
  }
}
node {
  name: "model_1/conv1d_5/conv1d/ExpandDims/dim"
  op: "Const"
  attr {
    key: "dtype"
    value {
      type: DT_INT32
    }
  }
  attr {
    key: "value"
    value {
      tensor {
        dtype: DT_INT32
        tensor_shape {
        }
        int_val: 1
      }
    }
  }
}
node {
  name: "model_1/conv1d_5/conv1d/ExpandDims"
  op: "ExpandDims"
  input: "model_1/activation_7/Relu"
  input: "model_1/conv1d_5/conv1d/ExpandDims/dim"
  attr {
    key: "T"
    value {
      type: DT_FLOAT
    }
  }
  attr {
    key: "Tdim"
    value {
      type: DT_INT32
    }
  }
}
node {
  name: "model_1/conv1d_5/conv1d/ExpandDims_1/ReadVariableOp/resource"
  op: "Const"
  attr {
    key: "dtype"
    value {
      type: DT_FLOAT
    }
  }
  attr {
    key: "value"
    value {
      tensor {
        dtype: DT_FLOAT
        tensor_shape {
          dim {
            size: 3
          }
          dim {
            size: 64
          }
          dim {
            size: 64
          }
        }
        tensor_content: "…"
      }
    }
  }
}
node {
  name: "model_1/conv1d_5/conv1d/ExpandDims_1/ReadVariableOp"
  op: "Identity"
  input: "model_1/conv1d_5/conv1d/ExpandDims_1/ReadVariableOp/resource"
  attr {
    key: "T"
    value {
      type: DT_FLOAT
    }
  }
}
node {
  name: "model_1/conv1d_5/conv1d/ExpandDims_1/dim"
  op: "Const"
  attr {
    key: "dtype"
    value {
      type: DT_INT32
    }
  }
  attr {
    key: "value"
    value {
      tensor {
        dtype: DT_INT32
        tensor_shape {
        }
        int_val: 0
      }
    }
  }
}
node {
  name: "model_1/conv1d_5/conv1d/ExpandDims_1"
  op: "ExpandDims"
  input: "model_1/conv1d_5/conv1d/ExpandDims_1/ReadVariableOp"
  input: "model_1/conv1d_5/conv1d/ExpandDims_1/dim"
  attr {
    key: "T"
    value {
      type: DT_FLOAT
    }
  }
  attr {
    key: "Tdim"
    value {
      type: DT_INT32
    }
  }
}
node {
  name: "model_1/conv1d_5/conv1d"
  op: "Conv2D"
  input: "model_1/conv1d_5/conv1d/ExpandDims"
  input: "model_1/conv1d_5/conv1d/ExpandDims_1"
  attr {
    key: "T"
    value {
      type: DT_FLOAT
    }
  }
  attr {
    key: "data_format"
    value {
      s: "NHWC"
    }
  }
  attr {
    key: "dilations"
    value {
      list {
        i: 1
        i: 1
        i: 1
        i: 1
      }
    }
  }
  attr {
    key: "explicit_paddings"
    value {
      list {
      }
    }
  }
  attr {
    key: "padding"
    value {
      s: "SAME"
    }
  }
  attr {
    key: "strides"
    value {
      list {
        i: 1
        i: 1
        i: 1
        i: 1
      }
    }
  }
  attr {
    key: "use_cudnn_on_gpu"
    value {
      b: true
    }
  }
}
node {
  name: "model_1/conv1d_5/conv1d/Squeeze"
  op: "Squeeze"
  input: "model_1/conv1d_5/conv1d"
  attr {
    key: "T"
    value {
      type: DT_FLOAT
    }
  }
  attr {
    key: "squeeze_dims"
    value {
      list {
        i: 1
      }
    }
  }
}
node {
  name: "model_1/conv1d_5/BiasAdd/ReadVariableOp/resource"
  op: "Const"
  attr {
    key: "dtype"
    value {
      type: DT_FLOAT
    }
  }
  attr {
    key: "value"
    value {
      tensor {
        dtype: DT_FLOAT
        tensor_shape {
          dim {
            size: 64
          }
        }
        tensor_content: "…"
      }
    }
  }
}
node {
  name: "model_1/conv1d_5/BiasAdd/ReadVariableOp"
  op: "Identity"
  input: "model_1/conv1d_5/BiasAdd/ReadVariableOp/resource"
  attr {
    key: "T"
    value {
      type: DT_FLOAT
    }
  }
}
node {
  name: "model_1/conv1d_5/BiasAdd"
  op: "BiasAdd"
  input: "model_1/conv1d_5/conv1d/Squeeze"
  input: "model_1/conv1d_5/BiasAdd/ReadVariableOp"
  attr {
    key: "T"
    value {
      type: DT_FLOAT
    }
  }
  attr {
    key: "data_format"
    value {
      s: "NHWC"
    }
  }
}
node {
  name: "model_1/activation_8/Relu"
  op: "Relu"
  input: "model_1/conv1d_5/BiasAdd"
  attr {
    key: "T"
    value {
      type: DT_FLOAT
    }
  }
}
node {
  name: "model_1/batch_normalization_5/batchnorm/ReadVariableOp/resource"
  op: "Const"
  attr {
    key: "dtype"
    value {
      type: DT_FLOAT
    }
  }
  attr {
    key: "value"
    value {
      tensor {
        dtype: DT_FLOAT
        tensor_shape {
          dim {
            size: 64
          }
        }
        tensor_content: "…"
      }
    }
  }
}
node {
  name: "model_1/batch_normalization_5/batchnorm/ReadVariableOp"
  op: "Identity"
  input: "model_1/batch_normalization_5/batchnorm/ReadVariableOp/resource"
  attr {
    key: "T"
    value {
      type: DT_FLOAT
    }
  }
}
node {
  name: "model_1/batch_normalization_5/batchnorm/add/y"
  op: "Const"
  attr {
    key: "dtype"
    value {
      type: DT_FLOAT
    }
  }
  attr {
    key: "value"
    value {
      tensor {
        dtype: DT_FLOAT
        tensor_shape {
        }
        float_val: 0.0010000000475
      }
    }
  }
}
node {
  name: "model_1/batch_normalization_5/batchnorm/add"
  op: "AddV2"
  input: "model_1/batch_normalization_5/batchnorm/ReadVariableOp"
  input: "model_1/batch_normalization_5/batchnorm/add/y"
  attr {
    key: "T"
    value {
      type: DT_FLOAT
    }
  }
}
node {
  name: "model_1/batch_normalization_5/batchnorm/Rsqrt"
  op: "Rsqrt"
  input: "model_1/batch_normalization_5/batchnorm/add"
  attr {
    key: "T"
    value {
      type: DT_FLOAT
    }
  }
}
node {
  name: "model_1/batch_normalization_5/batchnorm/mul/ReadVariableOp/resource"
  op: "Const"
  attr {
    key: "dtype"
    value {
      type: DT_FLOAT
    }
  }
  attr {
    key: "value"
    value {
      tensor {
        dtype: DT_FLOAT
        tensor_shape {
          dim {
            size: 64
          }
        }
        tensor_content: "…"
      }
    }
  }
}
node {
  name: "model_1/batch_normalization_5/batchnorm/mul/ReadVariableOp"
  op: "Identity"
  input: "model_1/batch_normalization_5/batchnorm/mul/ReadVariableOp/resource"
  attr {
    key: "T"
    value {
      type: DT_FLOAT
    }
  }
}
node {
  name: "model_1/batch_normalization_5/batchnorm/mul"
  op: "Mul"
  input: "model_1/batch_normalization_5/batchnorm/Rsqrt"
  input: "model_1/batch_normalization_5/batchnorm/mul/ReadVariableOp"
  attr {
    key: "T"
    value {
      type: DT_FLOAT
    }
  }
}
node {
  name: "model_1/batch_normalization_5/batchnorm/mul_1"
  op: "Mul"
  input: "model_1/activation_8/Relu"
  input: "model_1/batch_normalization_5/batchnorm/mul"
  attr {
    key: "T"
    value {
      type: DT_FLOAT
    }
  }
}
node {
  name: "model_1/batch_normalization_5/batchnorm/ReadVariableOp_2/resource"
  op: "Const"
  attr {
    key: "dtype"
    value {
      type: DT_FLOAT
    }
  }
  attr {
    key: "value"
    value {
      tensor {
        dtype: DT_FLOAT
        tensor_shape {
          dim {
            size: 64
          }
        }
        tensor_content: "…"
      }
    }
  }
}
node {
  name: "model_1/batch_normalization_5/batchnorm/ReadVariableOp_2"
  op: "Identity"
  input: "model_1/batch_normalization_5/batchnorm/ReadVariableOp_2/resource"
  attr {
    key: "T"
    value {
      type: DT_FLOAT
    }
  }
}
node {
  name: "model_1/batch_normalization_5/batchnorm/ReadVariableOp_1/resource"
  op: "Const"
  attr {
    key: "dtype"
    value {
      type: DT_FLOAT
    }
  }
  attr {
    key: "value"
    value {
      tensor {
        dtype: DT_FLOAT
        tensor_shape {
          dim {
            size: 64
          }
        }
        tensor_content: "…"
      }
    }
  }
}
node {
  name: "model_1/batch_normalization_5/batchnorm/ReadVariableOp_1"
  op: "Identity"
  input: "model_1/batch_normalization_5/batchnorm/ReadVariableOp_1/resource"
  attr {
    key: "T"
    value {
      type: DT_FLOAT
    }
  }
}
node {
  name: "model_1/batch_normalization_5/batchnorm/mul_2"
  op: "Mul"
  input: "model_1/batch_normalization_5/batchnorm/ReadVariableOp_1"
  input: "model_1/batch_normalization_5/batchnorm/mul"
  attr {
    key: "T"
    value {
      type: DT_FLOAT
    }
  }
}
node {
  name: "model_1/batch_normalization_5/batchnorm/sub"
  op: "Sub"
  input: "model_1/batch_normalization_5/batchnorm/ReadVariableOp_2"
  input: "model_1/batch_normalization_5/batchnorm/mul_2"
  attr {
    key: "T"
    value {
      type: DT_FLOAT
    }
  }
}
node {
  name: "model_1/batch_normalization_5/batchnorm/add_1"
  op: "AddV2"
  input: "model_1/batch_normalization_5/batchnorm/mul_1"
  input: "model_1/batch_normalization_5/batchnorm/sub"
  attr {
    key: "T"
    value {
      type: DT_FLOAT
    }
  }
}
node {
  name: "model_1/max_pooling1d_2/ExpandDims/dim"
  op: "Const"
  attr {
    key: "dtype"
    value {
      type: DT_INT32
    }
  }
  attr {
    key: "value"
    value {
      tensor {
        dtype: DT_INT32
        tensor_shape {
        }
        int_val: 2
      }
    }
  }
}
node {
  name: "model_1/max_pooling1d_2/ExpandDims"
  op: "ExpandDims"
  input: "model_1/batch_normalization_5/batchnorm/add_1"
  input: "model_1/max_pooling1d_2/ExpandDims/dim"
  attr {
    key: "T"
    value {
      type: DT_FLOAT
    }
  }
  attr {
    key: "Tdim"
    value {
      type: DT_INT32
    }
  }
}
node {
  name: "model_1/max_pooling1d_2/MaxPool"
  op: "MaxPool"
  input: "model_1/max_pooling1d_2/ExpandDims"
  attr {
    key: "T"
    value {
      type: DT_FLOAT
    }
  }
  attr {
    key: "data_format"
    value {
      s: "NHWC"
    }
  }
  attr {
    key: "ksize"
    value {
      list {
        i: 1
        i: 2
        i: 1
        i: 1
      }
    }
  }
  attr {
    key: "padding"
    value {
      s: "SAME"
    }
  }
  attr {
    key: "strides"
    value {
      list {
        i: 1
        i: 2
        i: 1
        i: 1
      }
    }
  }
}
node {
  name: "model_1/max_pooling1d_2/Squeeze"
  op: "Squeeze"
  input: "model_1/max_pooling1d_2/MaxPool"
  attr {
    key: "T"
    value {
      type: DT_FLOAT
    }
  }
  attr {
    key: "squeeze_dims"
    value {
      list {
        i: 2
      }
    }
  }
}
node {
  name: "model_1/dropout_5/Identity"
  op: "Identity"
  input: "model_1/max_pooling1d_2/Squeeze"
  attr {
    key: "T"
    value {
      type: DT_FLOAT
    }
  }
}
node {
  name: "model_1/conv1d_6/conv1d/ExpandDims/dim"
  op: "Const"
  attr {
    key: "dtype"
    value {
      type: DT_INT32
    }
  }
  attr {
    key: "value"
    value {
      tensor {
        dtype: DT_INT32
        tensor_shape {
        }
        int_val: 1
      }
    }
  }
}
node {
  name: "model_1/conv1d_6/conv1d/ExpandDims"
  op: "ExpandDims"
  input: "model_1/dropout_5/Identity"
  input: "model_1/conv1d_6/conv1d/ExpandDims/dim"
  attr {
    key: "T"
    value {
      type: DT_FLOAT
    }
  }
  attr {
    key: "Tdim"
    value {
      type: DT_INT32
    }
  }
}
node {
  name: "model_1/conv1d_6/conv1d/ExpandDims_1/ReadVariableOp/resource"
  op: "Const"
  attr {
    key: "dtype"
    value {
      type: DT_FLOAT
    }
  }
  attr {
    key: "value"
    value {
      tensor {
        dtype: DT_FLOAT
        tensor_shape {
          dim {
            size: 3
          }
          dim {
            size: 64
          }
          dim {
            size: 64
          }
        }
        tensor_content: "…"
      }
    }
  }
}
node {
  name: "model_1/conv1d_6/conv1d/ExpandDims_1/ReadVariableOp"
  op: "Identity"
  input: "model_1/conv1d_6/conv1d/ExpandDims_1/ReadVariableOp/resource"
  attr {
    key: "T"
    value {
      type: DT_FLOAT
    }
  }
}
node {
  name: "model_1/conv1d_6/conv1d/ExpandDims_1/dim"
  op: "Const"
  attr {
    key: "dtype"
    value {
      type: DT_INT32
    }
  }
  attr {
    key: "value"
    value {
      tensor {
        dtype: DT_INT32
        tensor_shape {
        }
        int_val: 0
      }
    }
  }
}
node {
  name: "model_1/conv1d_6/conv1d/ExpandDims_1"
  op: "ExpandDims"
  input: "model_1/conv1d_6/conv1d/ExpandDims_1/ReadVariableOp"
  input: "model_1/conv1d_6/conv1d/ExpandDims_1/dim"
  attr {
    key: "T"
    value {
      type: DT_FLOAT
    }
  }
  attr {
    key: "Tdim"
    value {
      type: DT_INT32
    }
  }
}
node {
  name: "model_1/conv1d_6/conv1d"
  op: "Conv2D"
  input: "model_1/conv1d_6/conv1d/ExpandDims"
  input: "model_1/conv1d_6/conv1d/ExpandDims_1"
  attr {
    key: "T"
    value {
      type: DT_FLOAT
    }
  }
  attr {
    key: "data_format"
    value {
      s: "NHWC"
    }
  }
  attr {
    key: "dilations"
    value {
      list {
        i: 1
        i: 1
        i: 1
        i: 1
      }
    }
  }
  attr {
    key: "explicit_paddings"
    value {
      list {
      }
    }
  }
  attr {
    key: "padding"
    value {
      s: "SAME"
    }
  }
  attr {
    key: "strides"
    value {
      list {
        i: 1
        i: 1
        i: 1
        i: 1
      }
    }
  }
  attr {
    key: "use_cudnn_on_gpu"
    value {
      b: true
    }
  }
}
node {
  name: "model_1/conv1d_6/conv1d/Squeeze"
  op: "Squeeze"
  input: "model_1/conv1d_6/conv1d"
  attr {
    key: "T"
    value {
      type: DT_FLOAT
    }
  }
  attr {
    key: "squeeze_dims"
    value {
      list {
        i: 1
      }
    }
  }
}
node {
  name: "model_1/conv1d_6/BiasAdd/ReadVariableOp/resource"
  op: "Const"
  attr {
    key: "dtype"
    value {
      type: DT_FLOAT
    }
  }
  attr {
    key: "value"
    value {
      tensor {
        dtype: DT_FLOAT
        tensor_shape {
          dim {
            size: 64
          }
        }
        tensor_content: "…"
      }
    }
  }
}
node {
  name: "model_1/conv1d_6/BiasAdd/ReadVariableOp"
  op: "Identity"
  input: "model_1/conv1d_6/BiasAdd/ReadVariableOp/resource"
  attr {
    key: "T"
    value {
      type: DT_FLOAT
    }
  }
}
node {
  name: "model_1/conv1d_6/BiasAdd"
  op: "BiasAdd"
  input: "model_1/conv1d_6/conv1d/Squeeze"
  input: "model_1/conv1d_6/BiasAdd/ReadVariableOp"
  attr {
    key: "T"
    value {
      type: DT_FLOAT
    }
  }
  attr {
    key: "data_format"
    value {
      s: "NHWC"
    }
  }
}
node {
  name: "model_1/activation_9/Relu"
  op: "Relu"
  input: "model_1/conv1d_6/BiasAdd"
  attr {
    key: "T"
    value {
      type: DT_FLOAT
    }
  }
}
node {
  name: "model_1/conv1d_7/conv1d/ExpandDims/dim"
  op: "Const"
  attr {
    key: "dtype"
    value {
      type: DT_INT32
    }
  }
  attr {
    key: "value"
    value {
      tensor {
        dtype: DT_INT32
        tensor_shape {
        }
        int_val: 1
      }
    }
  }
}
node {
  name: "model_1/conv1d_7/conv1d/ExpandDims"
  op: "ExpandDims"
  input: "model_1/activation_9/Relu"
  input: "model_1/conv1d_7/conv1d/ExpandDims/dim"
  attr {
    key: "T"
    value {
      type: DT_FLOAT
    }
  }
  attr {
    key: "Tdim"
    value {
      type: DT_INT32
    }
  }
}
node {
  name: "model_1/conv1d_7/conv1d/ExpandDims_1/ReadVariableOp/resource"
  op: "Const"
  attr {
    key: "dtype"
    value {
      type: DT_FLOAT
    }
  }
  attr {
    key: "value"
    value {
      tensor {
        dtype: DT_FLOAT
        tensor_shape {
          dim {
            size: 3
          }
          dim {
            size: 64
          }
          dim {
            size: 64
          }
        }
        tensor_content: "…"
      }
    }
  }
}
node {
  name: "model_1/conv1d_7/conv1d/ExpandDims_1/ReadVariableOp"
  op: "Identity"
  input: "model_1/conv1d_7/conv1d/ExpandDims_1/ReadVariableOp/resource"
  attr {
    key: "T"
    value {
      type: DT_FLOAT
    }
  }
}
node {
  name: "model_1/conv1d_7/conv1d/ExpandDims_1/dim"
  op: "Const"
  attr {
    key: "dtype"
    value {
      type: DT_INT32
    }
  }
  attr {
    key: "value"
    value {
      tensor {
        dtype: DT_INT32
        tensor_shape {
        }
        int_val: 0
      }
    }
  }
}
node {
  name: "model_1/conv1d_7/conv1d/ExpandDims_1"
  op: "ExpandDims"
  input: "model_1/conv1d_7/conv1d/ExpandDims_1/ReadVariableOp"
  input: "model_1/conv1d_7/conv1d/ExpandDims_1/dim"
  attr {
    key: "T"
    value {
      type: DT_FLOAT
    }
  }
  attr {
    key: "Tdim"
    value {
      type: DT_INT32
    }
  }
}
node {
  name: "model_1/conv1d_7/conv1d"
  op: "Conv2D"
  input: "model_1/conv1d_7/conv1d/ExpandDims"
  input: "model_1/conv1d_7/conv1d/ExpandDims_1"
  attr {
    key: "T"
    value {
      type: DT_FLOAT
    }
  }
  attr {
    key: "data_format"
    value {
      s: "NHWC"
    }
  }
  attr {
    key: "dilations"
    value {
      list {
        i: 1
        i: 1
        i: 1
        i: 1
      }
    }
  }
  attr {
    key: "explicit_paddings"
    value {
      list {
      }
    }
  }
  attr {
    key: "padding"
    value {
      s: "SAME"
    }
  }
  attr {
    key: "strides"
    value {
      list {
        i: 1
        i: 1
        i: 1
        i: 1
      }
    }
  }
  attr {
    key: "use_cudnn_on_gpu"
    value {
      b: true
    }
  }
}
node {
  name: "model_1/conv1d_7/conv1d/Squeeze"
  op: "Squeeze"
  input: "model_1/conv1d_7/conv1d"
  attr {
    key: "T"
    value {
      type: DT_FLOAT
    }
  }
  attr {
    key: "squeeze_dims"
    value {
      list {
        i: 1
      }
    }
  }
}
node {
  name: "model_1/conv1d_7/BiasAdd/ReadVariableOp/resource"
  op: "Const"
  attr {
    key: "dtype"
    value {
      type: DT_FLOAT
    }
  }
  attr {
    key: "value"
    value {
      tensor {
        dtype: DT_FLOAT
        tensor_shape {
          dim {
            size: 64
          }
        }
        tensor_content: "…"
      }
    }
  }
}
node {
  name: "model_1/conv1d_7/BiasAdd/ReadVariableOp"
  op: "Identity"
  input: "model_1/conv1d_7/BiasAdd/ReadVariableOp/resource"
  attr {
    key: "T"
    value {
      type: DT_FLOAT
    }
  }
}
node {
  name: "model_1/conv1d_7/BiasAdd"
  op: "BiasAdd"
  input: "model_1/conv1d_7/conv1d/Squeeze"
  input: "model_1/conv1d_7/BiasAdd/ReadVariableOp"
  attr {
    key: "T"
    value {
      type: DT_FLOAT
    }
  }
  attr {
    key: "data_format"
    value {
      s: "NHWC"
    }
  }
}
node {
  name: "model_1/activation_10/Relu"
  op: "Relu"
  input: "model_1/conv1d_7/BiasAdd"
  attr {
    key: "T"
    value {
      type: DT_FLOAT
    }
  }
}
node {
  name: "model_1/batch_normalization_6/batchnorm/ReadVariableOp/resource"
  op: "Const"
  attr {
    key: "dtype"
    value {
      type: DT_FLOAT
    }
  }
  attr {
    key: "value"
    value {
      tensor {
        dtype: DT_FLOAT
        tensor_shape {
          dim {
            size: 64
          }
        }
        tensor_content: "…"
      }
    }
  }
}
node {
  name: "model_1/batch_normalization_6/batchnorm/ReadVariableOp"
  op: "Identity"
  input: "model_1/batch_normalization_6/batchnorm/ReadVariableOp/resource"
  attr {
    key: "T"
    value {
      type: DT_FLOAT
    }
  }
}
node {
  name: "model_1/batch_normalization_6/batchnorm/add/y"
  op: "Const"
  attr {
    key: "dtype"
    value {
      type: DT_FLOAT
    }
  }
  attr {
    key: "value"
    value {
      tensor {
        dtype: DT_FLOAT
        tensor_shape {
        }
        float_val: 0.0010000000475
      }
    }
  }
}
node {
  name: "model_1/batch_normalization_6/batchnorm/add"
  op: "AddV2"
  input: "model_1/batch_normalization_6/batchnorm/ReadVariableOp"
  input: "model_1/batch_normalization_6/batchnorm/add/y"
  attr {
    key: "T"
    value {
      type: DT_FLOAT
    }
  }
}
node {
  name: "model_1/batch_normalization_6/batchnorm/Rsqrt"
  op: "Rsqrt"
  input: "model_1/batch_normalization_6/batchnorm/add"
  attr {
    key: "T"
    value {
      type: DT_FLOAT
    }
  }
}
node {
  name: "model_1/batch_normalization_6/batchnorm/mul/ReadVariableOp/resource"
  op: "Const"
  attr {
    key: "dtype"
    value {
      type: DT_FLOAT
    }
  }
  attr {
    key: "value"
    value {
      tensor {
        dtype: DT_FLOAT
        tensor_shape {
          dim {
            size: 64
          }
        }
        tensor_content: "…"
      }
    }
  }
}
node {
  name: "model_1/batch_normalization_6/batchnorm/mul/ReadVariableOp"
  op: "Identity"
  input: "model_1/batch_normalization_6/batchnorm/mul/ReadVariableOp/resource"
  attr {
    key: "T"
    value {
      type: DT_FLOAT
    }
  }
}
node {
  name: "model_1/batch_normalization_6/batchnorm/mul"
  op: "Mul"
  input: "model_1/batch_normalization_6/batchnorm/Rsqrt"
  input: "model_1/batch_normalization_6/batchnorm/mul/ReadVariableOp"
  attr {
    key: "T"
    value {
      type: DT_FLOAT
    }
  }
}
node {
  name: "model_1/batch_normalization_6/batchnorm/mul_1"
  op: "Mul"
  input: "model_1/activation_10/Relu"
  input: "model_1/batch_normalization_6/batchnorm/mul"
  attr {
    key: "T"
    value {
      type: DT_FLOAT
    }
  }
}
node {
  name: "model_1/batch_normalization_6/batchnorm/ReadVariableOp_2/resource"
  op: "Const"
  attr {
    key: "dtype"
    value {
      type: DT_FLOAT
    }
  }
  attr {
    key: "value"
    value {
      tensor {
        dtype: DT_FLOAT
        tensor_shape {
          dim {
            size: 64
          }
        }
        tensor_content: "…"
      }
    }
  }
}
node {
  name: "model_1/batch_normalization_6/batchnorm/ReadVariableOp_2"
  op: "Identity"
  input: "model_1/batch_normalization_6/batchnorm/ReadVariableOp_2/resource"
  attr {
    key: "T"
    value {
      type: DT_FLOAT
    }
  }
}
node {
  name: "model_1/batch_normalization_6/batchnorm/ReadVariableOp_1/resource"
  op: "Const"
  attr {
    key: "dtype"
    value {
      type: DT_FLOAT
    }
  }
  attr {
    key: "value"
    value {
      tensor {
        dtype: DT_FLOAT
        tensor_shape {
          dim {
            size: 64
          }
        }
        tensor_content: "…"
      }
    }
  }
}
node {
  name: "model_1/batch_normalization_6/batchnorm/ReadVariableOp_1"
  op: "Identity"
  input: "model_1/batch_normalization_6/batchnorm/ReadVariableOp_1/resource"
  attr {
    key: "T"
    value {
      type: DT_FLOAT
    }
  }
}
node {
  name: "model_1/batch_normalization_6/batchnorm/mul_2"
  op: "Mul"
  input: "model_1/batch_normalization_6/batchnorm/ReadVariableOp_1"
  input: "model_1/batch_normalization_6/batchnorm/mul"
  attr {
    key: "T"
    value {
      type: DT_FLOAT
    }
  }
}
node {
  name: "model_1/batch_normalization_6/batchnorm/sub"
  op: "Sub"
  input: "model_1/batch_normalization_6/batchnorm/ReadVariableOp_2"
  input: "model_1/batch_normalization_6/batchnorm/mul_2"
  attr {
    key: "T"
    value {
      type: DT_FLOAT
    }
  }
}
node {
  name: "model_1/batch_normalization_6/batchnorm/add_1"
  op: "AddV2"
  input: "model_1/batch_normalization_6/batchnorm/mul_1"
  input: "model_1/batch_normalization_6/batchnorm/sub"
  attr {
    key: "T"
    value {
      type: DT_FLOAT
    }
  }
}
node {
  name: "model_1/max_pooling1d_3/ExpandDims/dim"
  op: "Const"
  attr {
    key: "dtype"
    value {
      type: DT_INT32
    }
  }
  attr {
    key: "value"
    value {
      tensor {
        dtype: DT_INT32
        tensor_shape {
        }
        int_val: 2
      }
    }
  }
}
node {
  name: "model_1/max_pooling1d_3/ExpandDims"
  op: "ExpandDims"
  input: "model_1/batch_normalization_6/batchnorm/add_1"
  input: "model_1/max_pooling1d_3/ExpandDims/dim"
  attr {
    key: "T"
    value {
      type: DT_FLOAT
    }
  }
  attr {
    key: "Tdim"
    value {
      type: DT_INT32
    }
  }
}
node {
  name: "model_1/max_pooling1d_3/MaxPool"
  op: "MaxPool"
  input: "model_1/max_pooling1d_3/ExpandDims"
  attr {
    key: "T"
    value {
      type: DT_FLOAT
    }
  }
  attr {
    key: "data_format"
    value {
      s: "NHWC"
    }
  }
  attr {
    key: "ksize"
    value {
      list {
        i: 1
        i: 2
        i: 1
        i: 1
      }
    }
  }
  attr {
    key: "padding"
    value {
      s: "SAME"
    }
  }
  attr {
    key: "strides"
    value {
      list {
        i: 1
        i: 2
        i: 1
        i: 1
      }
    }
  }
}
node {
  name: "model_1/max_pooling1d_3/Squeeze"
  op: "Squeeze"
  input: "model_1/max_pooling1d_3/MaxPool"
  attr {
    key: "T"
    value {
      type: DT_FLOAT
    }
  }
  attr {
    key: "squeeze_dims"
    value {
      list {
        i: 2
      }
    }
  }
}
node {
  name: "model_1/dropout_6/Identity"
  op: "Identity"
  input: "model_1/max_pooling1d_3/Squeeze"
  attr {
    key: "T"
    value {
      type: DT_FLOAT
    }
  }
}
node {
  name: "model_1/flatten_1/Const"
  op: "Const"
  attr {
    key: "dtype"
    value {
      type: DT_INT32
    }
  }
  attr {
    key: "value"
    value {
      tensor {
        dtype: DT_INT32
        tensor_shape {
          dim {
            size: 2
          }
        }
        tensor_content: "\377\377\377\377\200\001\000\000"
      }
    }
  }
}
node {
  name: "model_1/flatten_1/Reshape"
  op: "Reshape"
  input: "model_1/dropout_6/Identity"
  input: "model_1/flatten_1/Const"
  attr {
    key: "T"
    value {
      type: DT_FLOAT
    }
  }
  attr {
    key: "Tshape"
    value {
      type: DT_INT32
    }
  }
}
node {
  name: "model_1/concatenate_1/concat/axis"
  op: "Const"
  attr {
    key: "dtype"
    value {
      type: DT_INT32
    }
  }
  attr {
    key: "value"
    value {
      tensor {
        dtype: DT_INT32
        tensor_shape {
        }
        int_val: 1
      }
    }
  }
}
node {
  name: "model_1/concatenate_1/concat"
  op: "ConcatV2"
  input: "model_1/flatten_1/Reshape"
  input: "input_4"
  input: "model_1/concatenate_1/concat/axis"
  attr {
    key: "N"
    value {
      i: 2
    }
  }
  attr {
    key: "T"
    value {
      type: DT_FLOAT
    }
  }
  attr {
    key: "Tidx"
    value {
      type: DT_INT32
    }
  }
}
node {
  name: "model_1/dense_4/MatMul/ReadVariableOp/resource"
  op: "Const"
  attr {
    key: "dtype"
    value {
      type: DT_FLOAT
    }
  }
  attr {
    key: "value"
    value {
      tensor {
        dtype: DT_FLOAT
        tensor_shape {
          dim {
            size: 386
          }
          dim {
            size: 64
          }
        }
        tensor_content: "…"
      }
    }
  }
}
node {
  name: "model_1/dense_4/MatMul/ReadVariableOp"
  op: "Identity"
  input: "model_1/dense_4/MatMul/ReadVariableOp/resource"
  attr {
    key: "T"
    value {
      type: DT_FLOAT
    }
  }
}
node {
  name: "model_1/dense_4/MatMul"
  op: "MatMul"
  input: "model_1/concatenate_1/concat"
  input: "model_1/dense_4/MatMul/ReadVariableOp"
  attr {
    key: "T"
    value {
      type: DT_FLOAT
    }
  }
  attr {
    key: "transpose_a"
    value {
      b: false
    }
  }
  attr {
    key: "transpose_b"
    value {
      b: false
    }
  }
}
node {
  name: "model_1/dense_4/BiasAdd/ReadVariableOp/resource"
  op: "Const"
  attr {
    key: "dtype"
    value {
      type: DT_FLOAT
    }
  }
  attr {
    key: "value"
    value {
      tensor {
        dtype: DT_FLOAT
        tensor_shape {
          dim {
            size: 64
          }
        }
        tensor_content: "…"
      }
    }
  }
}
node {
  name: "model_1/dense_4/BiasAdd/ReadVariableOp"
  op: "Identity"
  input: "model_1/dense_4/BiasAdd/ReadVariableOp/resource"
  attr {
    key: "T"
    value {
      type: DT_FLOAT
    }
  }
}
node {
  name: "model_1/dense_4/BiasAdd"
  op: "BiasAdd"
  input: "model_1/dense_4/MatMul"
  input: "model_1/dense_4/BiasAdd/ReadVariableOp"
  attr {
    key: "T"
    value {
      type: DT_FLOAT
    }
  }
  attr {
    key: "data_format"
    value {
      s: "NHWC"
    }
  }
}
node {
  name: "model_1/activation_11/Relu"
  op: "Relu"
  input: "model_1/dense_4/BiasAdd"
  attr {
    key: "T"
    value {
      type: DT_FLOAT
    }
  }
}
node {
  name: "model_1/batch_normalization_7/batchnorm/ReadVariableOp/resource"
  op: "Const"
  attr {
    key: "dtype"
    value {
      type: DT_FLOAT
    }
  }
  attr {
    key: "value"
    value {
      tensor {
        dtype: DT_FLOAT
        tensor_shape {
          dim {
            size: 64
          }
        }
        tensor_content: "…"
      }
    }
  }
}
node {
  name: "model_1/batch_normalization_7/batchnorm/ReadVariableOp"
  op: "Identity"
  input: "model_1/batch_normalization_7/batchnorm/ReadVariableOp/resource"
  attr {
    key: "T"
    value {
      type: DT_FLOAT
    }
  }
}
node {
  name: "model_1/batch_normalization_7/batchnorm/add/y"
  op: "Const"
  attr {
    key: "dtype"
    value {
      type: DT_FLOAT
    }
  }
  attr {
    key: "value"
    value {
      tensor {
        dtype: DT_FLOAT
        tensor_shape {
        }
        float_val: 0.0010000000475
      }
    }
  }
}
node {
  name: "model_1/batch_normalization_7/batchnorm/add"
  op: "AddV2"
  input: "model_1/batch_normalization_7/batchnorm/ReadVariableOp"
  input: "model_1/batch_normalization_7/batchnorm/add/y"
  attr {
    key: "T"
    value {
      type: DT_FLOAT
    }
  }
}
node {
  name: "model_1/batch_normalization_7/batchnorm/Rsqrt"
  op: "Rsqrt"
  input: "model_1/batch_normalization_7/batchnorm/add"
  attr {
    key: "T"
    value {
      type: DT_FLOAT
    }
  }
}
node {
  name: "model_1/batch_normalization_7/batchnorm/mul/ReadVariableOp/resource"
  op: "Const"
  attr {
    key: "dtype"
    value {
      type: DT_FLOAT
    }
  }
  attr {
    key: "value"
    value {
      tensor {
        dtype: DT_FLOAT
        tensor_shape {
          dim {
            size: 64
          }
        }
        tensor_content: "…"
      }
    }
  }
}
node {
  name: "model_1/batch_normalization_7/batchnorm/mul/ReadVariableOp"
  op: "Identity"
  input: "model_1/batch_normalization_7/batchnorm/mul/ReadVariableOp/resource"
  attr {
    key: "T"
    value {
      type: DT_FLOAT
    }
  }
}
node {
  name: "model_1/batch_normalization_7/batchnorm/mul"
  op: "Mul"
  input: "model_1/batch_normalization_7/batchnorm/Rsqrt"
  input: "model_1/batch_normalization_7/batchnorm/mul/ReadVariableOp"
  attr {
    key: "T"
    value {
      type: DT_FLOAT
    }
  }
}
node {
  name: "model_1/batch_normalization_7/batchnorm/mul_1"
  op: "Mul"
  input: "model_1/activation_11/Relu"
  input: "model_1/batch_normalization_7/batchnorm/mul"
  attr {
    key: "T"
    value {
      type: DT_FLOAT
    }
  }
}
node {
  name: "model_1/batch_normalization_7/batchnorm/ReadVariableOp_2/resource"
  op: "Const"
  attr {
    key: "dtype"
    value {
      type: DT_FLOAT
    }
  }
  attr {
    key: "value"
    value {
      tensor {
        dtype: DT_FLOAT
        tensor_shape {
          dim {
            size: 64
          }
        }
        tensor_content: "…"
      }
    }
  }
}
node {
  name: "model_1/batch_normalization_7/batchnorm/ReadVariableOp_2"
  op: "Identity"
  input: "model_1/batch_normalization_7/batchnorm/ReadVariableOp_2/resource"
  attr {
    key: "T"
    value {
      type: DT_FLOAT
    }
  }
}
node {
  name: "model_1/batch_normalization_7/batchnorm/ReadVariableOp_1/resource"
  op: "Const"
  attr {
    key: "dtype"
    value {
      type: DT_FLOAT
    }
  }
  attr {
    key: "value"
    value {
      tensor {
        dtype: DT_FLOAT
        tensor_shape {
          dim {
            size: 64
          }
        }
        tensor_content: "…"
      }
    }
  }
}
node {
  name: "model_1/batch_normalization_7/batchnorm/ReadVariableOp_1"
  op: "Identity"
  input: "model_1/batch_normalization_7/batchnorm/ReadVariableOp_1/resource"
  attr {
    key: "T"
    value {
      type: DT_FLOAT
    }
  }
}
node {
  name: "model_1/batch_normalization_7/batchnorm/mul_2"
  op: "Mul"
  input: "model_1/batch_normalization_7/batchnorm/ReadVariableOp_1"
  input: "model_1/batch_normalization_7/batchnorm/mul"
  attr {
    key: "T"
    value {
      type: DT_FLOAT
    }
  }
}
node {
  name: "model_1/batch_normalization_7/batchnorm/sub"
  op: "Sub"
  input: "model_1/batch_normalization_7/batchnorm/ReadVariableOp_2"
  input: "model_1/batch_normalization_7/batchnorm/mul_2"
  attr {
    key: "T"
    value {
      type: DT_FLOAT
    }
  }
}
node {
  name: "model_1/batch_normalization_7/batchnorm/add_1"
  op: "AddV2"
  input: "model_1/batch_normalization_7/batchnorm/mul_1"
  input: "model_1/batch_normalization_7/batchnorm/sub"
  attr {
    key: "T"
    value {
      type: DT_FLOAT
    }
  }
}
node {
  name: "model_1/dropout_7/Identity"
  op: "Identity"
  input: "model_1/batch_normalization_7/batchnorm/add_1"
  attr {
    key: "T"
    value {
      type: DT_FLOAT
    }
  }
}
node {
  name: "model_1/dense_5/MatMul/ReadVariableOp/resource"
  op: "Const"
  attr {
    key: "dtype"
    value {
      type: DT_FLOAT
    }
  }
  attr {
    key: "value"
    value {
      tensor {
        dtype: DT_FLOAT
        tensor_shape {
          dim {
            size: 64
          }
          dim {
            size: 64
          }
        }
        tensor_content: "…"
      }
    }
  }
}
node {
  name: "model_1/dense_5/MatMul/ReadVariableOp"
  op: "Identity"
  input: "model_1/dense_5/MatMul/ReadVariableOp/resource"
  attr {
    key: "T"
    value {
      type: DT_FLOAT
    }
  }
}
node {
  name: "model_1/dense_5/MatMul"
  op: "MatMul"
  input: "model_1/dropout_7/Identity"
  input: "model_1/dense_5/MatMul/ReadVariableOp"
  attr {
    key: "T"
    value {
      type: DT_FLOAT
    }
  }
  attr {
    key: "transpose_a"
    value {
      b: false
    }
  }
  attr {
    key: "transpose_b"
    value {
      b: false
    }
  }
}
node {
  name: "model_1/dense_5/BiasAdd/ReadVariableOp/resource"
  op: "Const"
  attr {
    key: "dtype"
    value {
      type: DT_FLOAT
    }
  }
  attr {
    key: "value"
    value {
      tensor {
        dtype: DT_FLOAT
        tensor_shape {
          dim {
            size: 64
          }
        }
        tensor_content: "…"
      }
    }
  }
}
node {
  name: "model_1/dense_5/BiasAdd/ReadVariableOp"
  op: "Identity"
  input: "model_1/dense_5/BiasAdd/ReadVariableOp/resource"
  attr {
    key: "T"
    value {
      type: DT_FLOAT
    }
  }
}
node {
  name: "model_1/dense_5/BiasAdd"
  op: "BiasAdd"
  input: "model_1/dense_5/MatMul"
  input: "model_1/dense_5/BiasAdd/ReadVariableOp"
  attr {
    key: "T"
    value {
      type: DT_FLOAT
    }
  }
  attr {
    key: "data_format"
    value {
      s: "NHWC"
    }
  }
}
node {
  name: "model_1/activation_12/Relu"
  op: "Relu"
  input: "model_1/dense_5/BiasAdd"
  attr {
    key: "T"
    value {
      type: DT_FLOAT
    }
  }
}
node {
  name: "model_1/batch_normalization_8/batchnorm/ReadVariableOp/resource"
  op: "Const"
  attr {
    key: "dtype"
    value {
      type: DT_FLOAT
    }
  }
  attr {
    key: "value"
    value {
      tensor {
        dtype: DT_FLOAT
        tensor_shape {
          dim {
            size: 64
          }
        }
        tensor_content: "…"
      }
    }
  }
}
node {
  name: "model_1/batch_normalization_8/batchnorm/ReadVariableOp"
  op: "Identity"
  input: "model_1/batch_normalization_8/batchnorm/ReadVariableOp/resource"
  attr {
    key: "T"
    value {
      type: DT_FLOAT
    }
  }
}
node {
  name: "model_1/batch_normalization_8/batchnorm/add/y"
  op: "Const"
  attr {
    key: "dtype"
    value {
      type: DT_FLOAT
    }
  }
  attr {
    key: "value"
    value {
      tensor {
        dtype: DT_FLOAT
        tensor_shape {
        }
        float_val: 0.0010000000475
      }
    }
  }
}
node {
  name: "model_1/batch_normalization_8/batchnorm/add"
  op: "AddV2"
  input: "model_1/batch_normalization_8/batchnorm/ReadVariableOp"
  input: "model_1/batch_normalization_8/batchnorm/add/y"
  attr {
    key: "T"
    value {
      type: DT_FLOAT
    }
  }
}
node {
  name: "model_1/batch_normalization_8/batchnorm/Rsqrt"
  op: "Rsqrt"
  input: "model_1/batch_normalization_8/batchnorm/add"
  attr {
    key: "T"
    value {
      type: DT_FLOAT
    }
  }
}
node {
  name: "model_1/batch_normalization_8/batchnorm/mul/ReadVariableOp/resource"
  op: "Const"
  attr {
    key: "dtype"
    value {
      type: DT_FLOAT
    }
  }
  attr {
    key: "value"
    value {
      tensor {
        dtype: DT_FLOAT
        tensor_shape {
          dim {
            size: 64
          }
        }
        tensor_content: "…"
      }
    }
  }
}
node {
  name: "model_1/batch_normalization_8/batchnorm/mul/ReadVariableOp"
  op: "Identity"
  input: "model_1/batch_normalization_8/batchnorm/mul/ReadVariableOp/resource"
  attr {
    key: "T"
    value {
      type: DT_FLOAT
    }
  }
}
node {
  name: "model_1/batch_normalization_8/batchnorm/mul"
  op: "Mul"
  input: "model_1/batch_normalization_8/batchnorm/Rsqrt"
  input: "model_1/batch_normalization_8/batchnorm/mul/ReadVariableOp"
  attr {
    key: "T"
    value {
      type: DT_FLOAT
    }
  }
}
node {
  name: "model_1/batch_normalization_8/batchnorm/mul_1"
  op: "Mul"
  input: "model_1/activation_12/Relu"
  input: "model_1/batch_normalization_8/batchnorm/mul"
  attr {
    key: "T"
    value {
      type: DT_FLOAT
    }
  }
}
node {
  name: "model_1/batch_normalization_8/batchnorm/ReadVariableOp_2/resource"
  op: "Const"
  attr {
    key: "dtype"
    value {
      type: DT_FLOAT
    }
  }
  attr {
    key: "value"
    value {
      tensor {
        dtype: DT_FLOAT
        tensor_shape {
          dim {
            size: 64
          }
        }
        tensor_content: "…"
      }
    }
  }
}
node {
  name: "model_1/batch_normalization_8/batchnorm/ReadVariableOp_2"
  op: "Identity"
  input: "model_1/batch_normalization_8/batchnorm/ReadVariableOp_2/resource"
  attr {
    key: "T"
    value {
      type: DT_FLOAT
    }
  }
}
node {
  name: "model_1/batch_normalization_8/batchnorm/ReadVariableOp_1/resource"
  op: "Const"
  attr {
    key: "dtype"
    value {
      type: DT_FLOAT
    }
  }
  attr {
    key: "value"
    value {
      tensor {
        dtype: DT_FLOAT
        tensor_shape {
          dim {
            size: 64
          }
        }
        tensor_content: "…"
      }
    }
  }
}
node {
  name: "model_1/batch_normalization_8/batchnorm/ReadVariableOp_1"
  op: "Identity"
  input: "model_1/batch_normalization_8/batchnorm/ReadVariableOp_1/resource"
  attr {
    key: "T"
    value {
      type: DT_FLOAT
    }
  }
}
node {
  name: "model_1/batch_normalization_8/batchnorm/mul_2"
  op: "Mul"
  input: "model_1/batch_normalization_8/batchnorm/ReadVariableOp_1"
  input: "model_1/batch_normalization_8/batchnorm/mul"
  attr {
    key: "T"
    value {
      type: DT_FLOAT
    }
  }
}
node {
  name: "model_1/batch_normalization_8/batchnorm/sub"
  op: "Sub"
  input: "model_1/batch_normalization_8/batchnorm/ReadVariableOp_2"
  input: "model_1/batch_normalization_8/batchnorm/mul_2"
  attr {
    key: "T"
    value {
      type: DT_FLOAT
    }
  }
}
node {
  name: "model_1/batch_normalization_8/batchnorm/add_1"
  op: "AddV2"
  input: "model_1/batch_normalization_8/batchnorm/mul_1"
  input: "model_1/batch_normalization_8/batchnorm/sub"
  attr {
    key: "T"
    value {
      type: DT_FLOAT
    }
  }
}
node {
  name: "model_1/dropout_8/Identity"
  op: "Identity"
  input: "model_1/batch_normalization_8/batchnorm/add_1"
  attr {
    key: "T"
    value {
      type: DT_FLOAT
    }
  }
}
node {
  name: "model_1/dense_6/MatMul/ReadVariableOp/resource"
  op: "Const"
  attr {
    key: "dtype"
    value {
      type: DT_FLOAT
    }
  }
  attr {
    key: "value"
    value {
      tensor {
        dtype: DT_FLOAT
        tensor_shape {
          dim {
            size: 64
          }
          dim {
            size: 64
          }
        }
        tensor_content: "…"
      }
    }
  }
}
node {
  name: "model_1/dense_6/MatMul/ReadVariableOp"
  op: "Identity"
  input: "model_1/dense_6/MatMul/ReadVariableOp/resource"
  attr {
    key: "T"
    value {
      type: DT_FLOAT
    }
  }
}
node {
  name: "model_1/dense_6/MatMul"
  op: "MatMul"
  input: "model_1/dropout_8/Identity"
  input: "model_1/dense_6/MatMul/ReadVariableOp"
  attr {
    key: "T"
    value {
      type: DT_FLOAT
    }
  }
  attr {
    key: "transpose_a"
    value {
      b: false
    }
  }
  attr {
    key: "transpose_b"
    value {
      b: false
    }
  }
}
node {
  name: "model_1/dense_6/BiasAdd/ReadVariableOp/resource"
  op: "Const"
  attr {
    key: "dtype"
    value {
      type: DT_FLOAT
    }
  }
  attr {
    key: "value"
    value {
      tensor {
        dtype: DT_FLOAT
        tensor_shape {
          dim {
            size: 64
          }
        }
        tensor_content: "…"
      }
    }
  }
}
node {
  name: "model_1/dense_6/BiasAdd/ReadVariableOp"
  op: "Identity"
  input: "model_1/dense_6/BiasAdd/ReadVariableOp/resource"
  attr {
    key: "T"
    value {
      type: DT_FLOAT
    }
  }
}
node {
  name: "model_1/dense_6/BiasAdd"
  op: "BiasAdd"
  input: "model_1/dense_6/MatMul"
  input: "model_1/dense_6/BiasAdd/ReadVariableOp"
  attr {
    key: "T"
    value {
      type: DT_FLOAT
    }
  }
  attr {
    key: "data_format"
    value {
      s: "NHWC"
    }
  }
}
node {
  name: "model_1/activation_13/Relu"
  op: "Relu"
  input: "model_1/dense_6/BiasAdd"
  attr {
    key: "T"
    value {
      type: DT_FLOAT
    }
  }
}
node {
  name: "model_1/batch_normalization_9/batchnorm/ReadVariableOp/resource"
  op: "Const"
  attr {
    key: "dtype"
    value {
      type: DT_FLOAT
    }
  }
  attr {
    key: "value"
    value {
      tensor {
        dtype: DT_FLOAT
        tensor_shape {
          dim {
            size: 64
          }
        }
        tensor_content: "…"
      }
    }
  }
}
node {
  name: "model_1/batch_normalization_9/batchnorm/ReadVariableOp"
  op: "Identity"
  input: "model_1/batch_normalization_9/batchnorm/ReadVariableOp/resource"
  attr {
    key: "T"
    value {
      type: DT_FLOAT
    }
  }
}
node {
  name: "model_1/batch_normalization_9/batchnorm/add/y"
  op: "Const"
  attr {
    key: "dtype"
    value {
      type: DT_FLOAT
    }
  }
  attr {
    key: "value"
    value {
      tensor {
        dtype: DT_FLOAT
        tensor_shape {
        }
        float_val: 0.0010000000475
      }
    }
  }
}
node {
  name: "model_1/batch_normalization_9/batchnorm/add"
  op: "AddV2"
  input: "model_1/batch_normalization_9/batchnorm/ReadVariableOp"
  input: "model_1/batch_normalization_9/batchnorm/add/y"
  attr {
    key: "T"
    value {
      type: DT_FLOAT
    }
  }
}
node {
  name: "model_1/batch_normalization_9/batchnorm/Rsqrt"
  op: "Rsqrt"
  input: "model_1/batch_normalization_9/batchnorm/add"
  attr {
    key: "T"
    value {
      type: DT_FLOAT
    }
  }
}
node {
  name: "model_1/batch_normalization_9/batchnorm/mul/ReadVariableOp/resource"
  op: "Const"
  attr {
    key: "dtype"
    value {
      type: DT_FLOAT
    }
  }
  attr {
    key: "value"
    value {
      tensor {
        dtype: DT_FLOAT
        tensor_shape {
          dim {
            size: 64
          }
        }
        tensor_content: "…"
      }
    }
  }
}
node {
  name: "model_1/batch_normalization_9/batchnorm/mul/ReadVariableOp"
  op: "Identity"
  input: "model_1/batch_normalization_9/batchnorm/mul/ReadVariableOp/resource"
  attr {
    key: "T"
    value {
      type: DT_FLOAT
    }
  }
}
node {
  name: "model_1/batch_normalization_9/batchnorm/mul"
  op: "Mul"
  input: "model_1/batch_normalization_9/batchnorm/Rsqrt"
  input: "model_1/batch_normalization_9/batchnorm/mul/ReadVariableOp"
  attr {
    key: "T"
    value {
      type: DT_FLOAT
    }
  }
}
node {
  name: "model_1/batch_normalization_9/batchnorm/mul_1"
  op: "Mul"
  input: "model_1/activation_13/Relu"
  input: "model_1/batch_normalization_9/batchnorm/mul"
  attr {
    key: "T"
    value {
      type: DT_FLOAT
    }
  }
}
node {
  name: "model_1/batch_normalization_9/batchnorm/ReadVariableOp_2/resource"
  op: "Const"
  attr {
    key: "dtype"
    value {
      type: DT_FLOAT
    }
  }
  attr {
    key: "value"
    value {
      tensor {
        dtype: DT_FLOAT
        tensor_shape {
          dim {
            size: 64
          }
        }
        tensor_content: "…"
      }
    }
  }
}
node {
  name: "model_1/batch_normalization_9/batchnorm/ReadVariableOp_2"
  op: "Identity"
  input: "model_1/batch_normalization_9/batchnorm/ReadVariableOp_2/resource"
  attr {
    key: "T"
    value {
      type: DT_FLOAT
    }
  }
}
node {
  name: "model_1/batch_normalization_9/batchnorm/ReadVariableOp_1/resource"
  op: "Const"
  attr {
    key: "dtype"
    value {
      type: DT_FLOAT
    }
  }
  attr {
    key: "value"
    value {
      tensor {
        dtype: DT_FLOAT
        tensor_shape {
          dim {
            size: 64
          }
        }
        tensor_content: "…"
      }
    }
  }
}
node {
  name: "model_1/batch_normalization_9/batchnorm/ReadVariableOp_1"
  op: "Identity"
  input: "model_1/batch_normalization_9/batchnorm/ReadVariableOp_1/resource"
  attr {
    key: "T"
    value {
      type: DT_FLOAT
    }
  }
}
node {
  name: "model_1/batch_normalization_9/batchnorm/mul_2"
  op: "Mul"
  input: "model_1/batch_normalization_9/batchnorm/ReadVariableOp_1"
  input: "model_1/batch_normalization_9/batchnorm/mul"
  attr {
    key: "T"
    value {
      type: DT_FLOAT
    }
  }
}
node {
  name: "model_1/batch_normalization_9/batchnorm/sub"
  op: "Sub"
  input: "model_1/batch_normalization_9/batchnorm/ReadVariableOp_2"
  input: "model_1/batch_normalization_9/batchnorm/mul_2"
  attr {
    key: "T"
    value {
      type: DT_FLOAT
    }
  }
}
node {
  name: "model_1/batch_normalization_9/batchnorm/add_1"
  op: "AddV2"
  input: "model_1/batch_normalization_9/batchnorm/mul_1"
  input: "model_1/batch_normalization_9/batchnorm/sub"
  attr {
    key: "T"
    value {
      type: DT_FLOAT
    }
  }
}
node {
  name: "model_1/dropout_9/Identity"
  op: "Identity"
  input: "model_1/batch_normalization_9/batchnorm/add_1"
  attr {
    key: "T"
    value {
      type: DT_FLOAT
    }
  }
}
node {
  name: "model_1/dense_7/MatMul/ReadVariableOp/resource"
  op: "Const"
  attr {
    key: "dtype"
    value {
      type: DT_FLOAT
    }
  }
  attr {
    key: "value"
    value {
      tensor {
        dtype: DT_FLOAT
        tensor_shape {
          dim {
            size: 64
          }
          dim {
            size: 1
          }
        }
        tensor_content: "…"
      }
    }
  }
}
node {
  name: "model_1/dense_7/MatMul/ReadVariableOp"
  op: "Identity"
  input: "model_1/dense_7/MatMul/ReadVariableOp/resource"
  attr {
    key: "T"
    value {
      type: DT_FLOAT
    }
  }
}
node {
  name: "model_1/dense_7/MatMul"
  op: "MatMul"
  input: "model_1/dropout_9/Identity"
  input: "model_1/dense_7/MatMul/ReadVariableOp"
  attr {
    key: "T"
    value {
      type: DT_FLOAT
    }
  }
  attr {
    key: "transpose_a"
    value {
      b: false
    }
  }
  attr {
    key: "transpose_b"
    value {
      b: false
    }
  }
}
node {
  name: "model_1/dense_7/BiasAdd/ReadVariableOp/resource"
  op: "Const"
  attr {
    key: "dtype"
    value {
      type: DT_FLOAT
    }
  }
  attr {
    key: "value"
    value {
      tensor {
        dtype: DT_FLOAT
        tensor_shape {
          dim {
            size: 1
          }
        }
        float_val: -0.0241433698684
      }
    }
  }
}
node {
  name: "model_1/dense_7/BiasAdd/ReadVariableOp"
  op: "Identity"
  input: "model_1/dense_7/BiasAdd/ReadVariableOp/resource"
  attr {
    key: "T"
    value {
      type: DT_FLOAT
    }
  }
}
node {
  name: "model_1/dense_7/BiasAdd"
  op: "BiasAdd"
  input: "model_1/dense_7/MatMul"
  input: "model_1/dense_7/BiasAdd/ReadVariableOp"
  attr {
    key: "T"
    value {
      type: DT_FLOAT
    }
  }
  attr {
    key: "data_format"
    value {
      s: "NHWC"
    }
  }
}
node {
  name: "Identity"
  op: "Identity"
  input: "model_1/dense_7/BiasAdd"
  input: "^model_1/batch_normalization_5/batchnorm/ReadVariableOp"
  input: "^model_1/batch_normalization_5/batchnorm/ReadVariableOp_1"
  input: "^model_1/batch_normalization_5/batchnorm/ReadVariableOp_2"
  input: "^model_1/batch_normalization_5/batchnorm/mul/ReadVariableOp"
  input: "^model_1/batch_normalization_6/batchnorm/ReadVariableOp"
  input: "^model_1/batch_normalization_6/batchnorm/ReadVariableOp_1"
  input: "^model_1/batch_normalization_6/batchnorm/ReadVariableOp_2"
  input: "^model_1/batch_normalization_6/batchnorm/mul/ReadVariableOp"
  input: "^model_1/batch_normalization_7/batchnorm/ReadVariableOp"
  input: "^model_1/batch_normalization_7/batchnorm/ReadVariableOp_1"
  input: "^model_1/batch_normalization_7/batchnorm/ReadVariableOp_2"
  input: "^model_1/batch_normalization_7/batchnorm/mul/ReadVariableOp"
  input: "^model_1/batch_normalization_8/batchnorm/ReadVariableOp"
  input: "^model_1/batch_normalization_8/batchnorm/ReadVariableOp_1"
  input: "^model_1/batch_normalization_8/batchnorm/ReadVariableOp_2"
  input: "^model_1/batch_normalization_8/batchnorm/mul/ReadVariableOp"
  input: "^model_1/batch_normalization_9/batchnorm/ReadVariableOp"
  input: "^model_1/batch_normalization_9/batchnorm/ReadVariableOp_1"
  input: "^model_1/batch_normalization_9/batchnorm/ReadVariableOp_2"
  input: "^model_1/batch_normalization_9/batchnorm/mul/ReadVariableOp"
  input: "^model_1/conv1d_4/BiasAdd/ReadVariableOp"
  input: "^model_1/conv1d_4/conv1d/ExpandDims_1/ReadVariableOp"
  input: "^model_1/conv1d_5/BiasAdd/ReadVariableOp"
  input: "^model_1/conv1d_5/conv1d/ExpandDims_1/ReadVariableOp"
  input: "^model_1/conv1d_6/BiasAdd/ReadVariableOp"
  input: "^model_1/conv1d_6/conv1d/ExpandDims_1/ReadVariableOp"
  input: "^model_1/conv1d_7/BiasAdd/ReadVariableOp"
  input: "^model_1/conv1d_7/conv1d/ExpandDims_1/ReadVariableOp"
  input: "^model_1/dense_4/BiasAdd/ReadVariableOp"
  input: "^model_1/dense_4/MatMul/ReadVariableOp"
  input: "^model_1/dense_5/BiasAdd/ReadVariableOp"
  input: "^model_1/dense_5/MatMul/ReadVariableOp"
  input: "^model_1/dense_6/BiasAdd/ReadVariableOp"
  input: "^model_1/dense_6/MatMul/ReadVariableOp"
  input: "^model_1/dense_7/BiasAdd/ReadVariableOp"
  input: "^model_1/dense_7/MatMul/ReadVariableOp"
  attr {
    key: "T"
    value {
      type: DT_FLOAT
    }
  }
}
versions {
  producer: 175
}
