node {
  name: "input_3"
  op: "Placeholder"
  attr {
    key: "dtype"
    value {
      type: DT_FLOAT
    }
  }
  attr {
    key: "shape"
    value {
      shape {
        dim {
          size: -1
        }
        dim {
          size: 21
        }
      }
    }
  }
}
node {
  name: "input_4"
  op: "Placeholder"
  attr {
    key: "dtype"
    value {
      type: DT_FLOAT
    }
  }
  attr {
    key: "shape"
    value {
      shape {
        dim {
          size: -1
        }
        dim {
          size: 2
        }
      }
    }
  }
}
node {
  name: "model_1/dense_9/MatMul/ReadVariableOp/resource"
  op: "Const"
  attr {
    key: "dtype"
    value {
      type: DT_FLOAT
    }
  }
  attr {
    key: "value"
    value {
      tensor {
        dtype: DT_FLOAT
        tensor_shape {
          dim {
            size: 21
          }
          dim {
            size: 128
          }
        }
        tensor_content: "…"
      }
    }
  }
}
node {
  name: "model_1/dense_9/MatMul/ReadVariableOp"
  op: "Identity"
  input: "model_1/dense_9/MatMul/ReadVariableOp/resource"
  attr {
    key: "T"
    value {
      type: DT_FLOAT
    }
  }
}
node {
  name: "model_1/dense_9/MatMul"
  op: "MatMul"
  input: "input_3"
  input: "model_1/dense_9/MatMul/ReadVariableOp"
  attr {
    key: "T"
    value {
      type: DT_FLOAT
    }
  }
  attr {
    key: "transpose_a"
    value {
      b: false
    }
  }
  attr {
    key: "transpose_b"
    value {
      b: false
    }
  }
}
node {
  name: "model_1/dense_9/BiasAdd/ReadVariableOp/resource"
  op: "Const"
  attr {
    key: "dtype"
    value {
      type: DT_FLOAT
    }
  }
  attr {
    key: "value"
    value {
      tensor {
        dtype: DT_FLOAT
        tensor_shape {
          dim {
            size: 128
          }
        }
        tensor_content: "…"
      }
    }
  }
}
node {
  name: "model_1/dense_9/BiasAdd/ReadVariableOp"
  op: "Identity"
  input: "model_1/dense_9/BiasAdd/ReadVariableOp/resource"
  attr {
    key: "T"
    value {
      type: DT_FLOAT
    }
  }
}
node {
  name: "model_1/dense_9/BiasAdd"
  op: "BiasAdd"
  input: "model_1/dense_9/MatMul"
  input: "model_1/dense_9/BiasAdd/ReadVariableOp"
  attr {
    key: "T"
    value {
      type: DT_FLOAT
    }
  }
  attr {
    key: "data_format"
    value {
      s: "NHWC"
    }
  }
}
node {
  name: "model_1/activation_8/Relu"
  op: "Relu"
  input: "model_1/dense_9/BiasAdd"
  attr {
    key: "T"
    value {
      type: DT_FLOAT
    }
  }
}
node {
  name: "model_1/dense_10/MatMul/ReadVariableOp/resource"
  op: "Const"
  attr {
    key: "dtype"
    value {
      type: DT_FLOAT
    }
  }
  attr {
    key: "value"
    value {
      tensor {
        dtype: DT_FLOAT
        tensor_shape {
          dim {
            size: 128
          }
          dim {
            size: 256
          }
        }
        tensor_content: "…"
      }
    }
  }
}
node {
  name: "model_1/dense_10/MatMul/ReadVariableOp"
  op: "Identity"
  input: "model_1/dense_10/MatMul/ReadVariableOp/resource"
  attr {
    key: "T"
    value {
      type: DT_FLOAT
    }
  }
}
node {
  name: "model_1/dense_10/MatMul"
  op: "MatMul"
  input: "model_1/activation_8/Relu"
  input: "model_1/dense_10/MatMul/ReadVariableOp"
  attr {
    key: "T"
    value {
      type: DT_FLOAT
    }
  }
  attr {
    key: "transpose_a"
    value {
      b: false
    }
  }
  attr {
    key: "transpose_b"
    value {
      b: false
    }
  }
}
node {
  name: "model_1/dense_10/BiasAdd/ReadVariableOp/resource"
  op: "Const"
  attr {
    key: "dtype"
    value {
      type: DT_FLOAT
    }
  }
  attr {
    key: "value"
    value {
      tensor {
        dtype: DT_FLOAT
        tensor_shape {
          dim {
            size: 256
          }
        }
        tensor_content: "…"
      }
    }
  }
}
node {
  name: "model_1/dense_10/BiasAdd/ReadVariableOp"
  op: "Identity"
  input: "model_1/dense_10/BiasAdd/ReadVariableOp/resource"
  attr {
    key: "T"
    value {
      type: DT_FLOAT
    }
  }
}
node {
  name: "model_1/dense_10/BiasAdd"
  op: "BiasAdd"
  input: "model_1/dense_10/MatMul"
  input: "model_1/dense_10/BiasAdd/ReadVariableOp"
  attr {
    key: "T"
    value {
      type: DT_FLOAT
    }
  }
  attr {
    key: "data_format"
    value {
      s: "NHWC"
    }
  }
}
node {
  name: "model_1/activation_9/Relu"
  op: "Relu"
  input: "model_1/dense_10/BiasAdd"
  attr {
    key: "T"
    value {
      type: DT_FLOAT
    }
  }
}
node {
  name: "model_1/dense_11/MatMul/ReadVariableOp/resource"
  op: "Const"
  attr {
    key: "dtype"
    value {
      type: DT_FLOAT
    }
  }
  attr {
    key: "value"
    value {
      tensor {
        dtype: DT_FLOAT
        tensor_shape {
          dim {
            size: 256
          }
          dim {
            size: 512
          }
        }
        tensor_content: "…"
      }
    }
  }
}
node {
  name: "model_1/dense_11/MatMul/ReadVariableOp"
  op: "Identity"
  input: "model_1/dense_11/MatMul/ReadVariableOp/resource"
  attr {
    key: "T"
    value {
      type: DT_FLOAT
    }
  }
}
node {
  name: "model_1/dense_11/MatMul"
  op: "MatMul"
  input: "model_1/activation_9/Relu"
  input: "model_1/dense_11/MatMul/ReadVariableOp"
  attr {
    key: "T"
    value {
      type: DT_FLOAT
    }
  }
  attr {
    key: "transpose_a"
    value {
      b: false
    }
  }
  attr {
    key: "transpose_b"
    value {
      b: false
    }
  }
}
node {
  name: "model_1/dense_11/BiasAdd/ReadVariableOp/resource"
  op: "Const"
  attr {
    key: "dtype"
    value {
      type: DT_FLOAT
    }
  }
  attr {
    key: "value"
    value {
      tensor {
        dtype: DT_FLOAT
        tensor_shape {
          dim {
            size: 512
          }
        }
        tensor_content: "…"
      }
    }
  }
}
node {
  name: "model_1/dense_11/BiasAdd/ReadVariableOp"
  op: "Identity"
  input: "model_1/dense_11/BiasAdd/ReadVariableOp/resource"
  attr {
    key: "T"
    value {
      type: DT_FLOAT
    }
  }
}
node {
  name: "model_1/dense_11/BiasAdd"
  op: "BiasAdd"
  input: "model_1/dense_11/MatMul"
  input: "model_1/dense_11/BiasAdd/ReadVariableOp"
  attr {
    key: "T"
    value {
      type: DT_FLOAT
    }
  }
  attr {
    key: "data_format"
    value {
      s: "NHWC"
    }
  }
}
node {
  name: "model_1/activation_10/Relu"
  op: "Relu"
  input: "model_1/dense_11/BiasAdd"
  attr {
    key: "T"
    value {
      type: DT_FLOAT
    }
  }
}
node {
  name: "model_1/dense_12/MatMul/ReadVariableOp/resource"
  op: "Const"
  attr {
    key: "dtype"
    value {
      type: DT_FLOAT
    }
  }
  attr {
    key: "value"
    value {
      tensor {
        dtype: DT_FLOAT
        tensor_shape {
          dim {
            size: 512
          }
          dim {
            size: 256
          }
        }
        tensor_content: "…"
      }
    }
  }
}
node {
  name: "model_1/dense_12/MatMul/ReadVariableOp"
  op: "Identity"
  input: "model_1/dense_12/MatMul/ReadVariableOp/resource"
  attr {
    key: "T"
    value {
      type: DT_FLOAT
    }
  }
}
node {
  name: "model_1/dense_12/MatMul"
  op: "MatMul"
  input: "model_1/activation_10/Relu"
  input: "model_1/dense_12/MatMul/ReadVariableOp"
  attr {
    key: "T"
    value {
      type: DT_FLOAT
    }
  }
  attr {
    key: "transpose_a"
    value {
      b: false
    }
  }
  attr {
    key: "transpose_b"
    value {
      b: false
    }
  }
}
node {
  name: "model_1/dense_12/BiasAdd/ReadVariableOp/resource"
  op: "Const"
  attr {
    key: "dtype"
    value {
      type: DT_FLOAT
    }
  }
  attr {
    key: "value"
    value {
      tensor {
        dtype: DT_FLOAT
        tensor_shape {
          dim {
            size: 256
          }
        }
        tensor_content: "…"
      }
    }
  }
}
node {
  name: "model_1/dense_12/BiasAdd/ReadVariableOp"
  op: "Identity"
  input: "model_1/dense_12/BiasAdd/ReadVariableOp/resource"
  attr {
    key: "T"
    value {
      type: DT_FLOAT
    }
  }
}
node {
  name: "model_1/dense_12/BiasAdd"
  op: "BiasAdd"
  input: "model_1/dense_12/MatMul"
  input: "model_1/dense_12/BiasAdd/ReadVariableOp"
  attr {
    key: "T"
    value {
      type: DT_FLOAT
    }
  }
  attr {
    key: "data_format"
    value {
      s: "NHWC"
    }
  }
}
node {
  name: "model_1/activation_11/Relu"
  op: "Relu"
  input: "model_1/dense_12/BiasAdd"
  attr {
    key: "T"
    value {
      type: DT_FLOAT
    }
  }
}
node {
  name: "model_1/dense_13/MatMul/ReadVariableOp/resource"
  op: "Const"
  attr {
    key: "dtype"
    value {
      type: DT_FLOAT
    }
  }
  attr {
    key: "value"
    value {
      tensor {
        dtype: DT_FLOAT
        tensor_shape {
          dim {
            size: 256
          }
          dim {
            size: 128
          }
        }
        tensor_content: "…"
      }
    }
  }
}
node {
  name: "model_1/dense_13/MatMul/ReadVariableOp"
  op: "Identity"
  input: "model_1/dense_13/MatMul/ReadVariableOp/resource"
  attr {
    key: "T"
    value {
      type: DT_FLOAT
    }
  }
}
node {
  name: "model_1/dense_13/MatMul"
  op: "MatMul"
  input: "model_1/activation_11/Relu"
  input: "model_1/dense_13/MatMul/ReadVariableOp"
  attr {
    key: "T"
    value {
      type: DT_FLOAT
    }
  }
  attr {
    key: "transpose_a"
    value {
      b: false
    }
  }
  attr {
    key: "transpose_b"
    value {
      b: false
    }
  }
}
node {
  name: "model_1/dense_13/BiasAdd/ReadVariableOp/resource"
  op: "Const"
  attr {
    key: "dtype"
    value {
      type: DT_FLOAT
    }
  }
  attr {
    key: "value"
    value {
      tensor {
        dtype: DT_FLOAT
        tensor_shape {
          dim {
            size: 128
          }
        }
        tensor_content: "…"
      }
    }
  }
}
node {
  name: "model_1/dense_13/BiasAdd/ReadVariableOp"
  op: "Identity"
  input: "model_1/dense_13/BiasAdd/ReadVariableOp/resource"
  attr {
    key: "T"
    value {
      type: DT_FLOAT
    }
  }
}
node {
  name: "model_1/dense_13/BiasAdd"
  op: "BiasAdd"
  input: "model_1/dense_13/MatMul"
  input: "model_1/dense_13/BiasAdd/ReadVariableOp"
  attr {
    key: "T"
    value {
      type: DT_FLOAT
    }
  }
  attr {
    key: "data_format"
    value {
      s: "NHWC"
    }
  }
}
node {
  name: "model_1/activation_12/Relu"
  op: "Relu"
  input: "model_1/dense_13/BiasAdd"
  attr {
    key: "T"
    value {
      type: DT_FLOAT
    }
  }
}
node {
  name: "model_1/dense_14/MatMul/ReadVariableOp/resource"
  op: "Const"
  attr {
    key: "dtype"
    value {
      type: DT_FLOAT
    }
  }
  attr {
    key: "value"
    value {
      tensor {
        dtype: DT_FLOAT
        tensor_shape {
          dim {
            size: 128
          }
          dim {
            size: 64
          }
        }
        tensor_content: "…"
      }
    }
  }
}
node {
  name: "model_1/dense_14/MatMul/ReadVariableOp"
  op: "Identity"
  input: "model_1/dense_14/MatMul/ReadVariableOp/resource"
  attr {
    key: "T"
    value {
      type: DT_FLOAT
    }
  }
}
node {
  name: "model_1/dense_14/MatMul"
  op: "MatMul"
  input: "model_1/activation_12/Relu"
  input: "model_1/dense_14/MatMul/ReadVariableOp"
  attr {
    key: "T"
    value {
      type: DT_FLOAT
    }
  }
  attr {
    key: "transpose_a"
    value {
      b: false
    }
  }
  attr {
    key: "transpose_b"
    value {
      b: false
    }
  }
}
node {
  name: "model_1/dense_14/BiasAdd/ReadVariableOp/resource"
  op: "Const"
  attr {
    key: "dtype"
    value {
      type: DT_FLOAT
    }
  }
  attr {
    key: "value"
    value {
      tensor {
        dtype: DT_FLOAT
        tensor_shape {
          dim {
            size: 64
          }
        }
        tensor_content: "…"
      }
    }
  }
}
node {
  name: "model_1/dense_14/BiasAdd/ReadVariableOp"
  op: "Identity"
  input: "model_1/dense_14/BiasAdd/ReadVariableOp/resource"
  attr {
    key: "T"
    value {
      type: DT_FLOAT
    }
  }
}
node {
  name: "model_1/dense_14/BiasAdd"
  op: "BiasAdd"
  input: "model_1/dense_14/MatMul"
  input: "model_1/dense_14/BiasAdd/ReadVariableOp"
  attr {
    key: "T"
    value {
      type: DT_FLOAT
    }
  }
  attr {
    key: "data_format"
    value {
      s: "NHWC"
    }
  }
}
node {
  name: "model_1/activation_13/Relu"
  op: "Relu"
  input: "model_1/dense_14/BiasAdd"
  attr {
    key: "T"
    value {
      type: DT_FLOAT
    }
  }
}
node {
  name: "model_1/dense_15/MatMul/ReadVariableOp/resource"
  op: "Const"
  attr {
    key: "dtype"
    value {
      type: DT_FLOAT
    }
  }
  attr {
    key: "value"
    value {
      tensor {
        dtype: DT_FLOAT
        tensor_shape {
          dim {
            size: 64
          }
          dim {
            size: 1
          }
        }
        tensor_content: "…"
      }
    }
  }
}
node {
  name: "model_1/dense_15/MatMul/ReadVariableOp"
  op: "Identity"
  input: "model_1/dense_15/MatMul/ReadVariableOp/resource"
  attr {
    key: "T"
    value {
      type: DT_FLOAT
    }
  }
}
node {
  name: "model_1/dense_15/MatMul"
  op: "MatMul"
  input: "model_1/activation_13/Relu"
  input: "model_1/dense_15/MatMul/ReadVariableOp"
  attr {
    key: "T"
    value {
      type: DT_FLOAT
    }
  }
  attr {
    key: "transpose_a"
    value {
      b: false
    }
  }
  attr {
    key: "transpose_b"
    value {
      b: false
    }
  }
}
node {
  name: "model_1/dense_15/BiasAdd/ReadVariableOp/resource"
  op: "Const"
  attr {
    key: "dtype"
    value {
      type: DT_FLOAT
    }
  }
  attr {
    key: "value"
    value {
      tensor {
        dtype: DT_FLOAT
        tensor_shape {
          dim {
            size: 1
          }
        }
        float_val: -0.0111100031063
      }
    }
  }
}
node {
  name: "model_1/dense_15/BiasAdd/ReadVariableOp"
  op: "Identity"
  input: "model_1/dense_15/BiasAdd/ReadVariableOp/resource"
  attr {
    key: "T"
    value {
      type: DT_FLOAT
    }
  }
}
node {
  name: "model_1/dense_15/BiasAdd"
  op: "BiasAdd"
  input: "model_1/dense_15/MatMul"
  input: "model_1/dense_15/BiasAdd/ReadVariableOp"
  attr {
    key: "T"
    value {
      type: DT_FLOAT
    }
  }
  attr {
    key: "data_format"
    value {
      s: "NHWC"
    }
  }
}
node {
  name: "Identity"
  op: "Identity"
  input: "model_1/dense_15/BiasAdd"
  input: "^model_1/dense_10/BiasAdd/ReadVariableOp"
  input: "^model_1/dense_10/MatMul/ReadVariableOp"
  input: "^model_1/dense_11/BiasAdd/ReadVariableOp"
  input: "^model_1/dense_11/MatMul/ReadVariableOp"
  input: "^model_1/dense_12/BiasAdd/ReadVariableOp"
  input: "^model_1/dense_12/MatMul/ReadVariableOp"
  input: "^model_1/dense_13/BiasAdd/ReadVariableOp"
  input: "^model_1/dense_13/MatMul/ReadVariableOp"
  input: "^model_1/dense_14/BiasAdd/ReadVariableOp"
  input: "^model_1/dense_14/MatMul/ReadVariableOp"
  input: "^model_1/dense_15/BiasAdd/ReadVariableOp"
  input: "^model_1/dense_15/MatMul/ReadVariableOp"
  input: "^model_1/dense_9/BiasAdd/ReadVariableOp"
  input: "^model_1/dense_9/MatMul/ReadVariableOp"
  attr {
    key: "T"
    value {
      type: DT_FLOAT
    }
  }
}
versions {
  producer: 175
}
