node {
  name: "input_1"
  op: "Placeholder"
  attr {
    key: "dtype"
    value {
      type: DT_FLOAT
    }
  }
  attr {
    key: "shape"
    value {
      shape {
        dim {
          size: -1
        }
        dim {
          size: 13
        }
        dim {
          size: 21
        }
        dim {
          size: 1
        }
      }
    }
  }
}
node {
  name: "input_2"
  op: "Placeholder"
  attr {
    key: "dtype"
    value {
      type: DT_FLOAT
    }
  }
  attr {
    key: "shape"
    value {
      shape {
        dim {
          size: -1
        }
        dim {
          size: 2
        }
      }
    }
  }
}
node {
  name: "model/conv2d/Conv2D/ReadVariableOp/resource"
  op: "Const"
  attr {
    key: "dtype"
    value {
      type: DT_FLOAT
    }
  }
  attr {
    key: "value"
    value {
      tensor {
        dtype: DT_FLOAT
        tensor_shape {
          dim {
            size: 3
          }
          dim {
            size: 3
          }
          dim {
            size: 1
          }
          dim {
            size: 64
          }
        }
        tensor_content: "…"
      }
    }
  }
}
node {
  name: "model/conv2d/Conv2D/ReadVariableOp"
  op: "Identity"
  input: "model/conv2d/Conv2D/ReadVariableOp/resource"
  attr {
    key: "T"
    value {
      type: DT_FLOAT
    }
  }
}
node {
  name: "model/conv2d/Conv2D"
  op: "Conv2D"
  input: "input_1"
  input: "model/conv2d/Conv2D/ReadVariableOp"
  attr {
    key: "T"
    value {
      type: DT_FLOAT
    }
  }
  attr {
    key: "data_format"
    value {
      s: "NHWC"
    }
  }
  attr {
    key: "dilations"
    value {
      list {
        i: 1
        i: 1
        i: 1
        i: 1
      }
    }
  }
  attr {
    key: "explicit_paddings"
    value {
      list {
      }
    }
  }
  attr {
    key: "padding"
    value {
      s: "SAME"
    }
  }
  attr {
    key: "strides"
    value {
      list {
        i: 1
        i: 1
        i: 1
        i: 1
      }
    }
  }
  attr {
    key: "use_cudnn_on_gpu"
    value {
      b: true
    }
  }
}
node {
  name: "model/conv2d/BiasAdd/ReadVariableOp/resource"
  op: "Const"
  attr {
    key: "dtype"
    value {
      type: DT_FLOAT
    }
  }
  attr {
    key: "value"
    value {
      tensor {
        dtype: DT_FLOAT
        tensor_shape {
          dim {
            size: 64
          }
        }
        tensor_content: "…"
      }
    }
  }
}
node {
  name: "model/conv2d/BiasAdd/ReadVariableOp"
  op: "Identity"
  input: "model/conv2d/BiasAdd/ReadVariableOp/resource"
  attr {
    key: "T"
    value {
      type: DT_FLOAT
    }
  }
}
node {
  name: "model/conv2d/BiasAdd"
  op: "BiasAdd"
  input: "model/conv2d/Conv2D"
  input: "model/conv2d/BiasAdd/ReadVariableOp"
  attr {
    key: "T"
    value {
      type: DT_FLOAT
    }
  }
  attr {
    key: "data_format"
    value {
      s: "NHWC"
    }
  }
}
node {
  name: "model/activation/Relu"
  op: "Relu"
  input: "model/conv2d/BiasAdd"
  attr {
    key: "T"
    value {
      type: DT_FLOAT
    }
  }
}
node {
  name: "model/batch_normalization/ReadVariableOp/resource"
  op: "Const"
  attr {
    key: "dtype"
    value {
      type: DT_FLOAT
    }
  }
  attr {
    key: "value"
    value {
      tensor {
        dtype: DT_FLOAT
        tensor_shape {
          dim {
            size: 64
          }
        }
        tensor_content: "…"
      }
    }
  }
}
node {
  name: "model/batch_normalization/ReadVariableOp"
  op: "Identity"
  input: "model/batch_normalization/ReadVariableOp/resource"
  attr {
    key: "T"
    value {
      type: DT_FLOAT
    }
  }
}
node {
  name: "model/batch_normalization/ReadVariableOp_1/resource"
  op: "Const"
  attr {
    key: "dtype"
    value {
      type: DT_FLOAT
    }
  }
  attr {
    key: "value"
    value {
      tensor {
        dtype: DT_FLOAT
        tensor_shape {
          dim {
            size: 64
          }
        }
        tensor_content: "…"
      }
    }
  }
}
node {
  name: "model/batch_normalization/ReadVariableOp_1"
  op: "Identity"
  input: "model/batch_normalization/ReadVariableOp_1/resource"
  attr {
    key: "T"
    value {
      type: DT_FLOAT
    }
  }
}
node {
  name: "model/batch_normalization/FusedBatchNormV3/ReadVariableOp/resource"
  op: "Const"
  attr {
    key: "dtype"
    value {
      type: DT_FLOAT
    }
  }
  attr {
    key: "value"
    value {
      tensor {
        dtype: DT_FLOAT
        tensor_shape {
          dim {
            size: 64
          }
        }
        tensor_content: "…"
      }
    }
  }
}
node {
  name: "model/batch_normalization/FusedBatchNormV3/ReadVariableOp"
  op: "Identity"
  input: "model/batch_normalization/FusedBatchNormV3/ReadVariableOp/resource"
  attr {
    key: "T"
    value {
      type: DT_FLOAT
    }
  }
}
node {
  name: "model/batch_normalization/FusedBatchNormV3/ReadVariableOp_1/resource"
  op: "Const"
  attr {
    key: "dtype"
    value {
      type: DT_FLOAT
    }
  }
  attr {
    key: "value"
    value {
      tensor {
        dtype: DT_FLOAT
        tensor_shape {
          dim {
            size: 64
          }
        }
        tensor_content: "…"
      }
    }
  }
}
node {
  name: "model/batch_normalization/FusedBatchNormV3/ReadVariableOp_1"
  op: "Identity"
  input: "model/batch_normalization/FusedBatchNormV3/ReadVariableOp_1/resource"
  attr {
    key: "T"
    value {
      type: DT_FLOAT
    }
  }
}
node {
  name: "model/batch_normalization/FusedBatchNormV3"
  op: "FusedBatchNormV3"
  input: "model/activation/Relu"
  input: "model/batch_normalization/ReadVariableOp"
  input: "model/batch_normalization/ReadVariableOp_1"
  input: "model/batch_normalization/FusedBatchNormV3/ReadVariableOp"
  input: "model/batch_normalization/FusedBatchNormV3/ReadVariableOp_1"
  attr {
    key: "T"
    value {
      type: DT_FLOAT
    }
  }
  attr {
    key: "U"
    value {
      type: DT_FLOAT
    }
  }
  attr {
    key: "data_format"
    value {
      s: "NHWC"
    }
  }
  attr {
    key: "epsilon"
    value {
      f: 0.0010000000475
    }
  }
  attr {
    key: "is_training"
    value {
      b: false
    }
  }
}
node {
  name: "model/max_pooling2d/MaxPool"
  op: "MaxPool"
  input: "model/batch_normalization/FusedBatchNormV3"
  attr {
    key: "T"
    value {
      type: DT_FLOAT
    }
  }
  attr {
    key: "data_format"
    value {
      s: "NHWC"
    }
  }
  attr {
    key: "ksize"
    value {
      list {
        i: 1
        i: 2
        i: 2
        i: 1
      }
    }
  }
  attr {
    key: "padding"
    value {
      s: "SAME"
    }
  }
  attr {
    key: "strides"
    value {
      list {
        i: 1
        i: 2
        i: 2
        i: 1
      }
    }
  }
}
node {
  name: "model/dropout/Identity"
  op: "Identity"
  input: "model/max_pooling2d/MaxPool"
  attr {
    key: "T"
    value {
      type: DT_FLOAT
    }
  }
}
node {
  name: "model/conv2d_1/Conv2D/ReadVariableOp/resource"
  op: "Const"
  attr {
    key: "dtype"
    value {
      type: DT_FLOAT
    }
  }
  attr {
    key: "value"
    value {
      tensor {
        dtype: DT_FLOAT
        tensor_shape {
          dim {
            size: 3
          }
          dim {
            size: 3
          }
          dim {
            size: 64
          }
          dim {
            size: 64
          }
        }
        tensor_content: "…"
      }
    }
  }
}
node {
  name: "model/conv2d_1/Conv2D/ReadVariableOp"
  op: "Identity"
  input: "model/conv2d_1/Conv2D/ReadVariableOp/resource"
  attr {
    key: "T"
    value {
      type: DT_FLOAT
    }
  }
}
node {
  name: "model/conv2d_1/Conv2D"
  op: "Conv2D"
  input: "model/dropout/Identity"
  input: "model/conv2d_1/Conv2D/ReadVariableOp"
  attr {
    key: "T"
    value {
      type: DT_FLOAT
    }
  }
  attr {
    key: "data_format"
    value {
      s: "NHWC"
    }
  }
  attr {
    key: "dilations"
    value {
      list {
        i: 1
        i: 1
        i: 1
        i: 1
      }
    }
  }
  attr {
    key: "explicit_paddings"
    value {
      list {
      }
    }
  }
  attr {
    key: "padding"
    value {
      s: "SAME"
    }
  }
  attr {
    key: "strides"
    value {
      list {
        i: 1
        i: 1
        i: 1
        i: 1
      }
    }
  }
  attr {
    key: "use_cudnn_on_gpu"
    value {
      b: true
    }
  }
}
node {
  name: "model/conv2d_1/BiasAdd/ReadVariableOp/resource"
  op: "Const"
  attr {
    key: "dtype"
    value {
      type: DT_FLOAT
    }
  }
  attr {
    key: "value"
    value {
      tensor {
        dtype: DT_FLOAT
        tensor_shape {
          dim {
            size: 64
          }
        }
        tensor_content: "…"
      }
    }
  }
}
node {
  name: "model/conv2d_1/BiasAdd/ReadVariableOp"
  op: "Identity"
  input: "model/conv2d_1/BiasAdd/ReadVariableOp/resource"
  attr {
    key: "T"
    value {
      type: DT_FLOAT
    }
  }
}
node {
  name: "model/conv2d_1/BiasAdd"
  op: "BiasAdd"
  input: "model/conv2d_1/Conv2D"
  input: "model/conv2d_1/BiasAdd/ReadVariableOp"
  attr {
    key: "T"
    value {
      type: DT_FLOAT
    }
  }
  attr {
    key: "data_format"
    value {
      s: "NHWC"
    }
  }
}
node {
  name: "model/activation_1/Relu"
  op: "Relu"
  input: "model/conv2d_1/BiasAdd"
  attr {
    key: "T"
    value {
      type: DT_FLOAT
    }
  }
}
node {
  name: "model/batch_normalization_1/ReadVariableOp/resource"
  op: "Const"
  attr {
    key: "dtype"
    value {
      type: DT_FLOAT
    }
  }
  attr {
    key: "value"
    value {
      tensor {
        dtype: DT_FLOAT
        tensor_shape {
          dim {
            size: 64
          }
        }
        tensor_content: "…"
      }
    }
  }
}
node {
  name: "model/batch_normalization_1/ReadVariableOp"
  op: "Identity"
  input: "model/batch_normalization_1/ReadVariableOp/resource"
  attr {
    key: "T"
    value {
      type: DT_FLOAT
    }
  }
}
node {
  name: "model/batch_normalization_1/ReadVariableOp_1/resource"
  op: "Const"
  attr {
    key: "dtype"
    value {
      type: DT_FLOAT
    }
  }
  attr {
    key: "value"
    value {
      tensor {
        dtype: DT_FLOAT
        tensor_shape {
          dim {
            size: 64
          }
        }
        tensor_content: "…"
      }
    }
  }
}
node {
  name: "model/batch_normalization_1/ReadVariableOp_1"
  op: "Identity"
  input: "model/batch_normalization_1/ReadVariableOp_1/resource"
  attr {
    key: "T"
    value {
      type: DT_FLOAT
    }
  }
}
node {
  name: "model/batch_normalization_1/FusedBatchNormV3/ReadVariableOp/resource"
  op: "Const"
  attr {
    key: "dtype"
    value {
      type: DT_FLOAT
    }
  }
  attr {
    key: "value"
    value {
      tensor {
        dtype: DT_FLOAT
        tensor_shape {
          dim {
            size: 64
          }
        }
        tensor_content: "…"
      }
    }
  }
}
node {
  name: "model/batch_normalization_1/FusedBatchNormV3/ReadVariableOp"
  op: "Identity"
  input: "model/batch_normalization_1/FusedBatchNormV3/ReadVariableOp/resource"
  attr {
    key: "T"
    value {
      type: DT_FLOAT
    }
  }
}
node {
  name: "model/batch_normalization_1/FusedBatchNormV3/ReadVariableOp_1/resource"
  op: "Const"
  attr {
    key: "dtype"
    value {
      type: DT_FLOAT
    }
  }
  attr {
    key: "value"
    value {
      tensor {
        dtype: DT_FLOAT
        tensor_shape {
          dim {
            size: 64
          }
        }
        tensor_content: "…"
      }
    }
  }
}
node {
  name: "model/batch_normalization_1/FusedBatchNormV3/ReadVariableOp_1"
  op: "Identity"
  input: "model/batch_normalization_1/FusedBatchNormV3/ReadVariableOp_1/resource"
  attr {
    key: "T"
    value {
      type: DT_FLOAT
    }
  }
}
node {
  name: "model/batch_normalization_1/FusedBatchNormV3"
  op: "FusedBatchNormV3"
  input: "model/activation_1/Relu"
  input: "model/batch_normalization_1/ReadVariableOp"
  input: "model/batch_normalization_1/ReadVariableOp_1"
  input: "model/batch_normalization_1/FusedBatchNormV3/ReadVariableOp"
  input: "model/batch_normalization_1/FusedBatchNormV3/ReadVariableOp_1"
  attr {
    key: "T"
    value {
      type: DT_FLOAT
    }
  }
  attr {
    key: "U"
    value {
      type: DT_FLOAT
    }
  }
  attr {
    key: "data_format"
    value {
      s: "NHWC"
    }
  }
  attr {
    key: "epsilon"
    value {
      f: 0.0010000000475
    }
  }
  attr {
    key: "is_training"
    value {
      b: false
    }
  }
}
node {
  name: "model/max_pooling2d_1/MaxPool"
  op: "MaxPool"
  input: "model/batch_normalization_1/FusedBatchNormV3"
  attr {
    key: "T"
    value {
      type: DT_FLOAT
    }
  }
  attr {
    key: "data_format"
    value {
      s: "NHWC"
    }
  }
  attr {
    key: "ksize"
    value {
      list {
        i: 1
        i: 2
        i: 2
        i: 1
      }
    }
  }
  attr {
    key: "padding"
    value {
      s: "SAME"
    }
  }
  attr {
    key: "strides"
    value {
      list {
        i: 1
        i: 2
        i: 2
        i: 1
      }
    }
  }
}
node {
  name: "model/dropout_1/Identity"
  op: "Identity"
  input: "model/max_pooling2d_1/MaxPool"
  attr {
    key: "T"
    value {
      type: DT_FLOAT
    }
  }
}
node {
  name: "model/flatten/Const"
  op: "Const"
  attr {
    key: "dtype"
    value {
      type: DT_INT32
    }
  }
  attr {
    key: "value"
    value {
      tensor {
        dtype: DT_INT32
        tensor_shape {
          dim {
            size: 2
          }
        }
        tensor_content: "\377\377\377\377\000\006\000\000"
      }
    }
  }
}
node {
  name: "model/flatten/Reshape"
  op: "Reshape"
  input: "model/dropout_1/Identity"
  input: "model/flatten/Const"
  attr {
    key: "T"
    value {
      type: DT_FLOAT
    }
  }
  attr {
    key: "Tshape"
    value {
      type: DT_INT32
    }
  }
}
node {
  name: "model/concatenate/concat/axis"
  op: "Const"
  attr {
    key: "dtype"
    value {
      type: DT_INT32
    }
  }
  attr {
    key: "value"
    value {
      tensor {
        dtype: DT_INT32
        tensor_shape {
        }
        int_val: 1
      }
    }
  }
}
node {
  name: "model/concatenate/concat"
  op: "ConcatV2"
  input: "model/flatten/Reshape"
  input: "input_2"
  input: "model/concatenate/concat/axis"
  attr {
    key: "N"
    value {
      i: 2
    }
  }
  attr {
    key: "T"
    value {
      type: DT_FLOAT
    }
  }
  attr {
    key: "Tidx"
    value {
      type: DT_INT32
    }
  }
}
node {
  name: "model/dense/MatMul/ReadVariableOp/resource"
  op: "Const"
  attr {
    key: "dtype"
    value {
      type: DT_FLOAT
    }
  }
  attr {
    key: "value"
    value {
      tensor {
        dtype: DT_FLOAT
        tensor_shape {
          dim {
            size: 1538
          }
          dim {
            size: 64
          }
        }
        tensor_content: "…"
      }
    }
  }
}
node {
  name: "model/dense/MatMul/ReadVariableOp"
  op: "Identity"
  input: "model/dense/MatMul/ReadVariableOp/resource"
  attr {
    key: "T"
    value {
      type: DT_FLOAT
    }
  }
}
node {
  name: "model/dense/MatMul"
  op: "MatMul"
  input: "model/concatenate/concat"
  input: "model/dense/MatMul/ReadVariableOp"
  attr {
    key: "T"
    value {
      type: DT_FLOAT
    }
  }
  attr {
    key: "transpose_a"
    value {
      b: false
    }
  }
  attr {
    key: "transpose_b"
    value {
      b: false
    }
  }
}
node {
  name: "model/dense/BiasAdd/ReadVariableOp/resource"
  op: "Const"
  attr {
    key: "dtype"
    value {
      type: DT_FLOAT
    }
  }
  attr {
    key: "value"
    value {
      tensor {
        dtype: DT_FLOAT
        tensor_shape {
          dim {
            size: 64
          }
        }
        tensor_content: "…"
      }
    }
  }
}
node {
  name: "model/dense/BiasAdd/ReadVariableOp"
  op: "Identity"
  input: "model/dense/BiasAdd/ReadVariableOp/resource"
  attr {
    key: "T"
    value {
      type: DT_FLOAT
    }
  }
}
node {
  name: "model/dense/BiasAdd"
  op: "BiasAdd"
  input: "model/dense/MatMul"
  input: "model/dense/BiasAdd/ReadVariableOp"
  attr {
    key: "T"
    value {
      type: DT_FLOAT
    }
  }
  attr {
    key: "data_format"
    value {
      s: "NHWC"
    }
  }
}
node {
  name: "model/activation_2/Relu"
  op: "Relu"
  input: "model/dense/BiasAdd"
  attr {
    key: "T"
    value {
      type: DT_FLOAT
    }
  }
}
node {
  name: "model/batch_normalization_2/batchnorm/ReadVariableOp/resource"
  op: "Const"
  attr {
    key: "dtype"
    value {
      type: DT_FLOAT
    }
  }
  attr {
    key: "value"
    value {
      tensor {
        dtype: DT_FLOAT
        tensor_shape {
          dim {
            size: 64
          }
        }
        tensor_content: "…"
      }
    }
  }
}
node {
  name: "model/batch_normalization_2/batchnorm/ReadVariableOp"
  op: "Identity"
  input: "model/batch_normalization_2/batchnorm/ReadVariableOp/resource"
  attr {
    key: "T"
    value {
      type: DT_FLOAT
    }
  }
}
node {
  name: "model/batch_normalization_2/batchnorm/add/y"
  op: "Const"
  attr {
    key: "dtype"
    value {
      type: DT_FLOAT
    }
  }
  attr {
    key: "value"
    value {
      tensor {
        dtype: DT_FLOAT
        tensor_shape {
        }
        float_val: 0.0010000000475
      }
    }
  }
}
node {
  name: "model/batch_normalization_2/batchnorm/add"
  op: "AddV2"
  input: "model/batch_normalization_2/batchnorm/ReadVariableOp"
  input: "model/batch_normalization_2/batchnorm/add/y"
  attr {
    key: "T"
    value {
      type: DT_FLOAT
    }
  }
}
node {
  name: "model/batch_normalization_2/batchnorm/Rsqrt"
  op: "Rsqrt"
  input: "model/batch_normalization_2/batchnorm/add"
  attr {
    key: "T"
    value {
      type: DT_FLOAT
    }
  }
}
node {
  name: "model/batch_normalization_2/batchnorm/mul/ReadVariableOp/resource"
  op: "Const"
  attr {
    key: "dtype"
    value {
      type: DT_FLOAT
    }
  }
  attr {
    key: "value"
    value {
      tensor {
        dtype: DT_FLOAT
        tensor_shape {
          dim {
            size: 64
          }
        }
        tensor_content: "…"
      }
    }
  }
}
node {
  name: "model/batch_normalization_2/batchnorm/mul/ReadVariableOp"
  op: "Identity"
  input: "model/batch_normalization_2/batchnorm/mul/ReadVariableOp/resource"
  attr {
    key: "T"
    value {
      type: DT_FLOAT
    }
  }
}
node {
  name: "model/batch_normalization_2/batchnorm/mul"
  op: "Mul"
  input: "model/batch_normalization_2/batchnorm/Rsqrt"
  input: "model/batch_normalization_2/batchnorm/mul/ReadVariableOp"
  attr {
    key: "T"
    value {
      type: DT_FLOAT
    }
  }
}
node {
  name: "model/batch_normalization_2/batchnorm/mul_1"
  op: "Mul"
  input: "model/activation_2/Relu"
  input: "model/batch_normalization_2/batchnorm/mul"
  attr {
    key: "T"
    value {
      type: DT_FLOAT
    }
  }
}
node {
  name: "model/batch_normalization_2/batchnorm/ReadVariableOp_2/resource"
  op: "Const"
  attr {
    key: "dtype"
    value {
      type: DT_FLOAT
    }
  }
  attr {
    key: "value"
    value {
      tensor {
        dtype: DT_FLOAT
        tensor_shape {
          dim {
            size: 64
          }
        }
        tensor_content: "…"
      }
    }
  }
}
node {
  name: "model/batch_normalization_2/batchnorm/ReadVariableOp_2"
  op: "Identity"
  input: "model/batch_normalization_2/batchnorm/ReadVariableOp_2/resource"
  attr {
    key: "T"
    value {
      type: DT_FLOAT
    }
  }
}
node {
  name: "model/batch_normalization_2/batchnorm/ReadVariableOp_1/resource"
  op: "Const"
  attr {
    key: "dtype"
    value {
      type: DT_FLOAT
    }
  }
  attr {
    key: "value"
    value {
      tensor {
        dtype: DT_FLOAT
        tensor_shape {
          dim {
            size: 64
          }
        }
        tensor_content: "…"
      }
    }
  }
}
node {
  name: "model/batch_normalization_2/batchnorm/ReadVariableOp_1"
  op: "Identity"
  input: "model/batch_normalization_2/batchnorm/ReadVariableOp_1/resource"
  attr {
    key: "T"
    value {
      type: DT_FLOAT
    }
  }
}
node {
  name: "model/batch_normalization_2/batchnorm/mul_2"
  op: "Mul"
  input: "model/batch_normalization_2/batchnorm/ReadVariableOp_1"
  input: "model/batch_normalization_2/batchnorm/mul"
  attr {
    key: "T"
    value {
      type: DT_FLOAT
    }
  }
}
node {
  name: "model/batch_normalization_2/batchnorm/sub"
  op: "Sub"
  input: "model/batch_normalization_2/batchnorm/ReadVariableOp_2"
  input: "model/batch_normalization_2/batchnorm/mul_2"
  attr {
    key: "T"
    value {
      type: DT_FLOAT
    }
  }
}
node {
  name: "model/batch_normalization_2/batchnorm/add_1"
  op: "AddV2"
  input: "model/batch_normalization_2/batchnorm/mul_1"
  input: "model/batch_normalization_2/batchnorm/sub"
  attr {
    key: "T"
    value {
      type: DT_FLOAT
    }
  }
}
node {
  name: "model/dropout_2/Identity"
  op: "Identity"
  input: "model/batch_normalization_2/batchnorm/add_1"
  attr {
    key: "T"
    value {
      type: DT_FLOAT
    }
  }
}
node {
  name: "model/dense_1/MatMul/ReadVariableOp/resource"
  op: "Const"
  attr {
    key: "dtype"
    value {
      type: DT_FLOAT
    }
  }
  attr {
    key: "value"
    value {
      tensor {
        dtype: DT_FLOAT
        tensor_shape {
          dim {
            size: 64
          }
          dim {
            size: 128
          }
        }
        tensor_content: "…"
      }
    }
  }
}
node {
  name: "model/dense_1/MatMul/ReadVariableOp"
  op: "Identity"
  input: "model/dense_1/MatMul/ReadVariableOp/resource"
  attr {
    key: "T"
    value {
      type: DT_FLOAT
    }
  }
}
node {
  name: "model/dense_1/MatMul"
  op: "MatMul"
  input: "model/dropout_2/Identity"
  input: "model/dense_1/MatMul/ReadVariableOp"
  attr {
    key: "T"
    value {
      type: DT_FLOAT
    }
  }
  attr {
    key: "transpose_a"
    value {
      b: false
    }
  }
  attr {
    key: "transpose_b"
    value {
      b: false
    }
  }
}
node {
  name: "model/dense_1/BiasAdd/ReadVariableOp/resource"
  op: "Const"
  attr {
    key: "dtype"
    value {
      type: DT_FLOAT
    }
  }
  attr {
    key: "value"
    value {
      tensor {
        dtype: DT_FLOAT
        tensor_shape {
          dim {
            size: 128
          }
        }
        tensor_content: "…"
      }
    }
  }
}
node {
  name: "model/dense_1/BiasAdd/ReadVariableOp"
  op: "Identity"
  input: "model/dense_1/BiasAdd/ReadVariableOp/resource"
  attr {
    key: "T"
    value {
      type: DT_FLOAT
    }
  }
}
node {
  name: "model/dense_1/BiasAdd"
  op: "BiasAdd"
  input: "model/dense_1/MatMul"
  input: "model/dense_1/BiasAdd/ReadVariableOp"
  attr {
    key: "T"
    value {
      type: DT_FLOAT
    }
  }
  attr {
    key: "data_format"
    value {
      s: "NHWC"
    }
  }
}
node {
  name: "model/activation_3/Relu"
  op: "Relu"
  input: "model/dense_1/BiasAdd"
  attr {
    key: "T"
    value {
      type: DT_FLOAT
    }
  }
}
node {
  name: "model/batch_normalization_3/batchnorm/ReadVariableOp/resource"
  op: "Const"
  attr {
    key: "dtype"
    value {
      type: DT_FLOAT
    }
  }
  attr {
    key: "value"
    value {
      tensor {
        dtype: DT_FLOAT
        tensor_shape {
          dim {
            size: 128
          }
        }
        tensor_content: "…"
      }
    }
  }
}
node {
  name: "model/batch_normalization_3/batchnorm/ReadVariableOp"
  op: "Identity"
  input: "model/batch_normalization_3/batchnorm/ReadVariableOp/resource"
  attr {
    key: "T"
    value {
      type: DT_FLOAT
    }
  }
}
node {
  name: "model/batch_normalization_3/batchnorm/add/y"
  op: "Const"
  attr {
    key: "dtype"
    value {
      type: DT_FLOAT
    }
  }
  attr {
    key: "value"
    value {
      tensor {
        dtype: DT_FLOAT
        tensor_shape {
        }
        float_val: 0.0010000000475
      }
    }
  }
}
node {
  name: "model/batch_normalization_3/batchnorm/add"
  op: "AddV2"
  input: "model/batch_normalization_3/batchnorm/ReadVariableOp"
  input: "model/batch_normalization_3/batchnorm/add/y"
  attr {
    key: "T"
    value {
      type: DT_FLOAT
    }
  }
}
node {
  name: "model/batch_normalization_3/batchnorm/Rsqrt"
  op: "Rsqrt"
  input: "model/batch_normalization_3/batchnorm/add"
  attr {
    key: "T"
    value {
      type: DT_FLOAT
    }
  }
}
node {
  name: "model/batch_normalization_3/batchnorm/mul/ReadVariableOp/resource"
  op: "Const"
  attr {
    key: "dtype"
    value {
      type: DT_FLOAT
    }
  }
  attr {
    key: "value"
    value {
      tensor {
        dtype: DT_FLOAT
        tensor_shape {
          dim {
            size: 128
          }
        }
        tensor_content: "…"
      }
    }
  }
}
node {
  name: "model/batch_normalization_3/batchnorm/mul/ReadVariableOp"
  op: "Identity"
  input: "model/batch_normalization_3/batchnorm/mul/ReadVariableOp/resource"
  attr {
    key: "T"
    value {
      type: DT_FLOAT
    }
  }
}
node {
  name: "model/batch_normalization_3/batchnorm/mul"
  op: "Mul"
  input: "model/batch_normalization_3/batchnorm/Rsqrt"
  input: "model/batch_normalization_3/batchnorm/mul/ReadVariableOp"
  attr {
    key: "T"
    value {
      type: DT_FLOAT
    }
  }
}
node {
  name: "model/batch_normalization_3/batchnorm/mul_1"
  op: "Mul"
  input: "model/activation_3/Relu"
  input: "model/batch_normalization_3/batchnorm/mul"
  attr {
    key: "T"
    value {
      type: DT_FLOAT
    }
  }
}
node {
  name: "model/batch_normalization_3/batchnorm/ReadVariableOp_2/resource"
  op: "Const"
  attr {
    key: "dtype"
    value {
      type: DT_FLOAT
    }
  }
  attr {
    key: "value"
    value {
      tensor {
        dtype: DT_FLOAT
        tensor_shape {
          dim {
            size: 128
          }
        }
        tensor_content: "…"
      }
    }
  }
}
node {
  name: "model/batch_normalization_3/batchnorm/ReadVariableOp_2"
  op: "Identity"
  input: "model/batch_normalization_3/batchnorm/ReadVariableOp_2/resource"
  attr {
    key: "T"
    value {
      type: DT_FLOAT
    }
  }
}
node {
  name: "model/batch_normalization_3/batchnorm/ReadVariableOp_1/resource"
  op: "Const"
  attr {
    key: "dtype"
    value {
      type: DT_FLOAT
    }
  }
  attr {
    key: "value"
    value {
      tensor {
        dtype: DT_FLOAT
        tensor_shape {
          dim {
            size: 128
          }
        }
        tensor_content: "…"
      }
    }
  }
}
node {
  name: "model/batch_normalization_3/batchnorm/ReadVariableOp_1"
  op: "Identity"
  input: "model/batch_normalization_3/batchnorm/ReadVariableOp_1/resource"
  attr {
    key: "T"
    value {
      type: DT_FLOAT
    }
  }
}
node {
  name: "model/batch_normalization_3/batchnorm/mul_2"
  op: "Mul"
  input: "model/batch_normalization_3/batchnorm/ReadVariableOp_1"
  input: "model/batch_normalization_3/batchnorm/mul"
  attr {
    key: "T"
    value {
      type: DT_FLOAT
    }
  }
}
node {
  name: "model/batch_normalization_3/batchnorm/sub"
  op: "Sub"
  input: "model/batch_normalization_3/batchnorm/ReadVariableOp_2"
  input: "model/batch_normalization_3/batchnorm/mul_2"
  attr {
    key: "T"
    value {
      type: DT_FLOAT
    }
  }
}
node {
  name: "model/batch_normalization_3/batchnorm/add_1"
  op: "AddV2"
  input: "model/batch_normalization_3/batchnorm/mul_1"
  input: "model/batch_normalization_3/batchnorm/sub"
  attr {
    key: "T"
    value {
      type: DT_FLOAT
    }
  }
}
node {
  name: "model/dropout_3/Identity"
  op: "Identity"
  input: "model/batch_normalization_3/batchnorm/add_1"
  attr {
    key: "T"
    value {
      type: DT_FLOAT
    }
  }
}
node {
  name: "model/dense_2/MatMul/ReadVariableOp/resource"
  op: "Const"
  attr {
    key: "dtype"
    value {
      type: DT_FLOAT
    }
  }
  attr {
    key: "value"
    value {
      tensor {
        dtype: DT_FLOAT
        tensor_shape {
          dim {
            size: 128
          }
          dim {
            size: 64
          }
        }
        tensor_content: "…"
      }
    }
  }
}
node {
  name: "model/dense_2/MatMul/ReadVariableOp"
  op: "Identity"
  input: "model/dense_2/MatMul/ReadVariableOp/resource"
  attr {
    key: "T"
    value {
      type: DT_FLOAT
    }
  }
}
node {
  name: "model/dense_2/MatMul"
  op: "MatMul"
  input: "model/dropout_3/Identity"
  input: "model/dense_2/MatMul/ReadVariableOp"
  attr {
    key: "T"
    value {
      type: DT_FLOAT
    }
  }
  attr {
    key: "transpose_a"
    value {
      b: false
    }
  }
  attr {
    key: "transpose_b"
    value {
      b: false
    }
  }
}
node {
  name: "model/dense_2/BiasAdd/ReadVariableOp/resource"
  op: "Const"
  attr {
    key: "dtype"
    value {
      type: DT_FLOAT
    }
  }
  attr {
    key: "value"
    value {
      tensor {
        dtype: DT_FLOAT
        tensor_shape {
          dim {
            size: 64
          }
        }
        tensor_content: "…"
      }
    }
  }
}
node {
  name: "model/dense_2/BiasAdd/ReadVariableOp"
  op: "Identity"
  input: "model/dense_2/BiasAdd/ReadVariableOp/resource"
  attr {
    key: "T"
    value {
      type: DT_FLOAT
    }
  }
}
node {
  name: "model/dense_2/BiasAdd"
  op: "BiasAdd"
  input: "model/dense_2/MatMul"
  input: "model/dense_2/BiasAdd/ReadVariableOp"
  attr {
    key: "T"
    value {
      type: DT_FLOAT
    }
  }
  attr {
    key: "data_format"
    value {
      s: "NHWC"
    }
  }
}
node {
  name: "model/activation_4/Relu"
  op: "Relu"
  input: "model/dense_2/BiasAdd"
  attr {
    key: "T"
    value {
      type: DT_FLOAT
    }
  }
}
node {
  name: "model/batch_normalization_4/batchnorm/ReadVariableOp/resource"
  op: "Const"
  attr {
    key: "dtype"
    value {
      type: DT_FLOAT
    }
  }
  attr {
    key: "value"
    value {
      tensor {
        dtype: DT_FLOAT
        tensor_shape {
          dim {
            size: 64
          }
        }
        tensor_content: "…"
      }
    }
  }
}
node {
  name: "model/batch_normalization_4/batchnorm/ReadVariableOp"
  op: "Identity"
  input: "model/batch_normalization_4/batchnorm/ReadVariableOp/resource"
  attr {
    key: "T"
    value {
      type: DT_FLOAT
    }
  }
}
node {
  name: "model/batch_normalization_4/batchnorm/add/y"
  op: "Const"
  attr {
    key: "dtype"
    value {
      type: DT_FLOAT
    }
  }
  attr {
    key: "value"
    value {
      tensor {
        dtype: DT_FLOAT
        tensor_shape {
        }
        float_val: 0.0010000000475
      }
    }
  }
}
node {
  name: "model/batch_normalization_4/batchnorm/add"
  op: "AddV2"
  input: "model/batch_normalization_4/batchnorm/ReadVariableOp"
  input: "model/batch_normalization_4/batchnorm/add/y"
  attr {
    key: "T"
    value {
      type: DT_FLOAT
    }
  }
}
node {
  name: "model/batch_normalization_4/batchnorm/Rsqrt"
  op: "Rsqrt"
  input: "model/batch_normalization_4/batchnorm/add"
  attr {
    key: "T"
    value {
      type: DT_FLOAT
    }
  }
}
node {
  name: "model/batch_normalization_4/batchnorm/mul/ReadVariableOp/resource"
  op: "Const"
  attr {
    key: "dtype"
    value {
      type: DT_FLOAT
    }
  }
  attr {
    key: "value"
    value {
      tensor {
        dtype: DT_FLOAT
        tensor_shape {
          dim {
            size: 64
          }
        }
        tensor_content: "…"
      }
    }
  }
}
node {
  name: "model/batch_normalization_4/batchnorm/mul/ReadVariableOp"
  op: "Identity"
  input: "model/batch_normalization_4/batchnorm/mul/ReadVariableOp/resource"
  attr {
    key: "T"
    value {
      type: DT_FLOAT
    }
  }
}
node {
  name: "model/batch_normalization_4/batchnorm/mul"
  op: "Mul"
  input: "model/batch_normalization_4/batchnorm/Rsqrt"
  input: "model/batch_normalization_4/batchnorm/mul/ReadVariableOp"
  attr {
    key: "T"
    value {
      type: DT_FLOAT
    }
  }
}
node {
  name: "model/batch_normalization_4/batchnorm/mul_1"
  op: "Mul"
  input: "model/activation_4/Relu"
  input: "model/batch_normalization_4/batchnorm/mul"
  attr {
    key: "T"
    value {
      type: DT_FLOAT
    }
  }
}
node {
  name: "model/batch_normalization_4/batchnorm/ReadVariableOp_2/resource"
  op: "Const"
  attr {
    key: "dtype"
    value {
      type: DT_FLOAT
    }
  }
  attr {
    key: "value"
    value {
      tensor {
        dtype: DT_FLOAT
        tensor_shape {
          dim {
            size: 64
          }
        }
        tensor_content: "…"
      }
    }
  }
}
node {
  name: "model/batch_normalization_4/batchnorm/ReadVariableOp_2"
  op: "Identity"
  input: "model/batch_normalization_4/batchnorm/ReadVariableOp_2/resource"
  attr {
    key: "T"
    value {
      type: DT_FLOAT
    }
  }
}
node {
  name: "model/batch_normalization_4/batchnorm/ReadVariableOp_1/resource"
  op: "Const"
  attr {
    key: "dtype"
    value {
      type: DT_FLOAT
    }
  }
  attr {
    key: "value"
    value {
      tensor {
        dtype: DT_FLOAT
        tensor_shape {
          dim {
            size: 64
          }
        }
        tensor_content: "…"
      }
    }
  }
}
node {
  name: "model/batch_normalization_4/batchnorm/ReadVariableOp_1"
  op: "Identity"
  input: "model/batch_normalization_4/batchnorm/ReadVariableOp_1/resource"
  attr {
    key: "T"
    value {
      type: DT_FLOAT
    }
  }
}
node {
  name: "model/batch_normalization_4/batchnorm/mul_2"
  op: "Mul"
  input: "model/batch_normalization_4/batchnorm/ReadVariableOp_1"
  input: "model/batch_normalization_4/batchnorm/mul"
  attr {
    key: "T"
    value {
      type: DT_FLOAT
    }
  }
}
node {
  name: "model/batch_normalization_4/batchnorm/sub"
  op: "Sub"
  input: "model/batch_normalization_4/batchnorm/ReadVariableOp_2"
  input: "model/batch_normalization_4/batchnorm/mul_2"
  attr {
    key: "T"
    value {
      type: DT_FLOAT
    }
  }
}
node {
  name: "model/batch_normalization_4/batchnorm/add_1"
  op: "AddV2"
  input: "model/batch_normalization_4/batchnorm/mul_1"
  input: "model/batch_normalization_4/batchnorm/sub"
  attr {
    key: "T"
    value {
      type: DT_FLOAT
    }
  }
}
node {
  name: "model/dropout_4/Identity"
  op: "Identity"
  input: "model/batch_normalization_4/batchnorm/add_1"
  attr {
    key: "T"
    value {
      type: DT_FLOAT
    }
  }
}
node {
  name: "model/dense_3/MatMul/ReadVariableOp/resource"
  op: "Const"
  attr {
    key: "dtype"
    value {
      type: DT_FLOAT
    }
  }
  attr {
    key: "value"
    value {
      tensor {
        dtype: DT_FLOAT
        tensor_shape {
          dim {
            size: 64
          }
          dim {
            size: 1
          }
        }
        tensor_content: "…"
      }
    }
  }
}
node {
  name: "model/dense_3/MatMul/ReadVariableOp"
  op: "Identity"
  input: "model/dense_3/MatMul/ReadVariableOp/resource"
  attr {
    key: "T"
    value {
      type: DT_FLOAT
    }
  }
}
node {
  name: "model/dense_3/MatMul"
  op: "MatMul"
  input: "model/dropout_4/Identity"
  input: "model/dense_3/MatMul/ReadVariableOp"
  attr {
    key: "T"
    value {
      type: DT_FLOAT
    }
  }
  attr {
    key: "transpose_a"
    value {
      b: false
    }
  }
  attr {
    key: "transpose_b"
    value {
      b: false
    }
  }
}
node {
  name: "model/dense_3/BiasAdd/ReadVariableOp/resource"
  op: "Const"
  attr {
    key: "dtype"
    value {
      type: DT_FLOAT
    }
  }
  attr {
    key: "value"
    value {
      tensor {
        dtype: DT_FLOAT
        tensor_shape {
          dim {
            size: 1
          }
        }
        float_val: -1.00072932243
      }
    }
  }
}
node {
  name: "model/dense_3/BiasAdd/ReadVariableOp"
  op: "Identity"
  input: "model/dense_3/BiasAdd/ReadVariableOp/resource"
  attr {
    key: "T"
    value {
      type: DT_FLOAT
    }
  }
}
node {
  name: "model/dense_3/BiasAdd"
  op: "BiasAdd"
  input: "model/dense_3/MatMul"
  input: "model/dense_3/BiasAdd/ReadVariableOp"
  attr {
    key: "T"
    value {
      type: DT_FLOAT
    }
  }
  attr {
    key: "data_format"
    value {
      s: "NHWC"
    }
  }
}
node {
  name: "Identity"
  op: "Identity"
  input: "model/dense_3/BiasAdd"
  input: "^model/batch_normalization/FusedBatchNormV3/ReadVariableOp"
  input: "^model/batch_normalization/FusedBatchNormV3/ReadVariableOp_1"
  input: "^model/batch_normalization/ReadVariableOp"
  input: "^model/batch_normalization/ReadVariableOp_1"
  input: "^model/batch_normalization_1/FusedBatchNormV3/ReadVariableOp"
  input: "^model/batch_normalization_1/FusedBatchNormV3/ReadVariableOp_1"
  input: "^model/batch_normalization_1/ReadVariableOp"
  input: "^model/batch_normalization_1/ReadVariableOp_1"
  input: "^model/batch_normalization_2/batchnorm/ReadVariableOp"
  input: "^model/batch_normalization_2/batchnorm/ReadVariableOp_1"
  input: "^model/batch_normalization_2/batchnorm/ReadVariableOp_2"
  input: "^model/batch_normalization_2/batchnorm/mul/ReadVariableOp"
  input: "^model/batch_normalization_3/batchnorm/ReadVariableOp"
  input: "^model/batch_normalization_3/batchnorm/ReadVariableOp_1"
  input: "^model/batch_normalization_3/batchnorm/ReadVariableOp_2"
  input: "^model/batch_normalization_3/batchnorm/mul/ReadVariableOp"
  input: "^model/batch_normalization_4/batchnorm/ReadVariableOp"
  input: "^model/batch_normalization_4/batchnorm/ReadVariableOp_1"
  input: "^model/batch_normalization_4/batchnorm/ReadVariableOp_2"
  input: "^model/batch_normalization_4/batchnorm/mul/ReadVariableOp"
  input: "^model/conv2d/BiasAdd/ReadVariableOp"
  input: "^model/conv2d/Conv2D/ReadVariableOp"
  input: "^model/conv2d_1/BiasAdd/ReadVariableOp"
  input: "^model/conv2d_1/Conv2D/ReadVariableOp"
  input: "^model/dense/BiasAdd/ReadVariableOp"
  input: "^model/dense/MatMul/ReadVariableOp"
  input: "^model/dense_1/BiasAdd/ReadVariableOp"
  input: "^model/dense_1/MatMul/ReadVariableOp"
  input: "^model/dense_2/BiasAdd/ReadVariableOp"
  input: "^model/dense_2/MatMul/ReadVariableOp"
  input: "^model/dense_3/BiasAdd/ReadVariableOp"
  input: "^model/dense_3/MatMul/ReadVariableOp"
  attr {
    key: "T"
    value {
      type: DT_FLOAT
    }
  }
}
versions {
  producer: 175
}
