node {
  name: "input_3"
  op: "Placeholder"
  attr {
    key: "dtype"
    value {
      type: DT_FLOAT
    }
  }
  attr {
    key: "shape"
    value {
      shape {
        dim {
          size: -1
        }
        dim {
          size: 13
        }
        dim {
          size: 21
        }
        dim {
          size: 1
        }
      }
    }
  }
}
node {
  name: "input_4"
  op: "Placeholder"
  attr {
    key: "dtype"
    value {
      type: DT_FLOAT
    }
  }
  attr {
    key: "shape"
    value {
      shape {
        dim {
          size: -1
        }
        dim {
          size: 2
        }
      }
    }
  }
}
node {
  name: "model_1/conv2d_3/Conv2D/ReadVariableOp/resource"
  op: "Const"
  attr {
    key: "dtype"
    value {
      type: DT_FLOAT
    }
  }
  attr {
    key: "value"
    value {
      tensor {
        dtype: DT_FLOAT
        tensor_shape {
          dim {
            size: 3
          }
          dim {
            size: 3
          }
          dim {
            size: 1
          }
          dim {
            size: 32
          }
        }
        tensor_content: "…"
      }
    }
  }
}
node {
  name: "model_1/conv2d_3/Conv2D/ReadVariableOp"
  op: "Identity"
  input: "model_1/conv2d_3/Conv2D/ReadVariableOp/resource"
  attr {
    key: "T"
    value {
      type: DT_FLOAT
    }
  }
}
node {
  name: "model_1/conv2d_3/Conv2D"
  op: "Conv2D"
  input: "input_3"
  input: "model_1/conv2d_3/Conv2D/ReadVariableOp"
  attr {
    key: "T"
    value {
      type: DT_FLOAT
    }
  }
  attr {
    key: "data_format"
    value {
      s: "NHWC"
    }
  }
  attr {
    key: "dilations"
    value {
      list {
        i: 1
        i: 1
        i: 1
        i: 1
      }
    }
  }
  attr {
    key: "explicit_paddings"
    value {
      list {
      }
    }
  }
  attr {
    key: "padding"
    value {
      s: "SAME"
    }
  }
  attr {
    key: "strides"
    value {
      list {
        i: 1
        i: 1
        i: 1
        i: 1
      }
    }
  }
  attr {
    key: "use_cudnn_on_gpu"
    value {
      b: true
    }
  }
}
node {
  name: "model_1/conv2d_3/BiasAdd/ReadVariableOp/resource"
  op: "Const"
  attr {
    key: "dtype"
    value {
      type: DT_FLOAT
    }
  }
  attr {
    key: "value"
    value {
      tensor {
        dtype: DT_FLOAT
        tensor_shape {
          dim {
            size: 32
          }
        }
        tensor_content: "…"
      }
    }
  }
}
node {
  name: "model_1/conv2d_3/BiasAdd/ReadVariableOp"
  op: "Identity"
  input: "model_1/conv2d_3/BiasAdd/ReadVariableOp/resource"
  attr {
    key: "T"
    value {
      type: DT_FLOAT
    }
  }
}
node {
  name: "model_1/conv2d_3/BiasAdd"
  op: "BiasAdd"
  input: "model_1/conv2d_3/Conv2D"
  input: "model_1/conv2d_3/BiasAdd/ReadVariableOp"
  attr {
    key: "T"
    value {
      type: DT_FLOAT
    }
  }
  attr {
    key: "data_format"
    value {
      s: "NHWC"
    }
  }
}
node {
  name: "model_1/activation_6/Relu"
  op: "Relu"
  input: "model_1/conv2d_3/BiasAdd"
  attr {
    key: "T"
    value {
      type: DT_FLOAT
    }
  }
}
node {
  name: "model_1/batch_normalization_6/ReadVariableOp/resource"
  op: "Const"
  attr {
    key: "dtype"
    value {
      type: DT_FLOAT
    }
  }
  attr {
    key: "value"
    value {
      tensor {
        dtype: DT_FLOAT
        tensor_shape {
          dim {
            size: 32
          }
        }
        tensor_content: "…"
      }
    }
  }
}
node {
  name: "model_1/batch_normalization_6/ReadVariableOp"
  op: "Identity"
  input: "model_1/batch_normalization_6/ReadVariableOp/resource"
  attr {
    key: "T"
    value {
      type: DT_FLOAT
    }
  }
}
node {
  name: "model_1/batch_normalization_6/ReadVariableOp_1/resource"
  op: "Const"
  attr {
    key: "dtype"
    value {
      type: DT_FLOAT
    }
  }
  attr {
    key: "value"
    value {
      tensor {
        dtype: DT_FLOAT
        tensor_shape {
          dim {
            size: 32
          }
        }
        tensor_content: "…"
      }
    }
  }
}
node {
  name: "model_1/batch_normalization_6/ReadVariableOp_1"
  op: "Identity"
  input: "model_1/batch_normalization_6/ReadVariableOp_1/resource"
  attr {
    key: "T"
    value {
      type: DT_FLOAT
    }
  }
}
node {
  name: "model_1/batch_normalization_6/FusedBatchNormV3/ReadVariableOp/resource"
  op: "Const"
  attr {
    key: "dtype"
    value {
      type: DT_FLOAT
    }
  }
  attr {
    key: "value"
    value {
      tensor {
        dtype: DT_FLOAT
        tensor_shape {
          dim {
            size: 32
          }
        }
        tensor_content: "…"
      }
    }
  }
}
node {
  name: "model_1/batch_normalization_6/FusedBatchNormV3/ReadVariableOp"
  op: "Identity"
  input: "model_1/batch_normalization_6/FusedBatchNormV3/ReadVariableOp/resource"
  attr {
    key: "T"
    value {
      type: DT_FLOAT
    }
  }
}
node {
  name: "model_1/batch_normalization_6/FusedBatchNormV3/ReadVariableOp_1/resource"
  op: "Const"
  attr {
    key: "dtype"
    value {
      type: DT_FLOAT
    }
  }
  attr {
    key: "value"
    value {
      tensor {
        dtype: DT_FLOAT
        tensor_shape {
          dim {
            size: 32
          }
        }
        tensor_content: "…"
      }
    }
  }
}
node {
  name: "model_1/batch_normalization_6/FusedBatchNormV3/ReadVariableOp_1"
  op: "Identity"
  input: "model_1/batch_normalization_6/FusedBatchNormV3/ReadVariableOp_1/resource"
  attr {
    key: "T"
    value {
      type: DT_FLOAT
    }
  }
}
node {
  name: "model_1/batch_normalization_6/FusedBatchNormV3"
  op: "FusedBatchNormV3"
  input: "model_1/activation_6/Relu"
  input: "model_1/batch_normalization_6/ReadVariableOp"
  input: "model_1/batch_normalization_6/ReadVariableOp_1"
  input: "model_1/batch_normalization_6/FusedBatchNormV3/ReadVariableOp"
  input: "model_1/batch_normalization_6/FusedBatchNormV3/ReadVariableOp_1"
  attr {
    key: "T"
    value {
      type: DT_FLOAT
    }
  }
  attr {
    key: "U"
    value {
      type: DT_FLOAT
    }
  }
  attr {
    key: "data_format"
    value {
      s: "NHWC"
    }
  }
  attr {
    key: "epsilon"
    value {
      f: 0.0010000000475
    }
  }
  attr {
    key: "is_training"
    value {
      b: false
    }
  }
}
node {
  name: "model_1/max_pooling2d_3/MaxPool"
  op: "MaxPool"
  input: "model_1/batch_normalization_6/FusedBatchNormV3"
  attr {
    key: "T"
    value {
      type: DT_FLOAT
    }
  }
  attr {
    key: "data_format"
    value {
      s: "NHWC"
    }
  }
  attr {
    key: "ksize"
    value {
      list {
        i: 1
        i: 2
        i: 2
        i: 1
      }
    }
  }
  attr {
    key: "padding"
    value {
      s: "SAME"
    }
  }
  attr {
    key: "strides"
    value {
      list {
        i: 1
        i: 2
        i: 2
        i: 1
      }
    }
  }
}
node {
  name: "model_1/dropout_6/Identity"
  op: "Identity"
  input: "model_1/max_pooling2d_3/MaxPool"
  attr {
    key: "T"
    value {
      type: DT_FLOAT
    }
  }
}
node {
  name: "model_1/conv2d_4/Conv2D/ReadVariableOp/resource"
  op: "Const"
  attr {
    key: "dtype"
    value {
      type: DT_FLOAT
    }
  }
  attr {
    key: "value"
    value {
      tensor {
        dtype: DT_FLOAT
        tensor_shape {
          dim {
            size: 3
          }
          dim {
            size: 3
          }
          dim {
            size: 32
          }
          dim {
            size: 64
          }
        }
        tensor_content: "…"
      }
    }
  }
}
node {
  name: "model_1/conv2d_4/Conv2D/ReadVariableOp"
  op: "Identity"
  input: "model_1/conv2d_4/Conv2D/ReadVariableOp/resource"
  attr {
    key: "T"
    value {
      type: DT_FLOAT
    }
  }
}
node {
  name: "model_1/conv2d_4/Conv2D"
  op: "Conv2D"
  input: "model_1/dropout_6/Identity"
  input: "model_1/conv2d_4/Conv2D/ReadVariableOp"
  attr {
    key: "T"
    value {
      type: DT_FLOAT
    }
  }
  attr {
    key: "data_format"
    value {
      s: "NHWC"
    }
  }
  attr {
    key: "dilations"
    value {
      list {
        i: 1
        i: 1
        i: 1
        i: 1
      }
    }
  }
  attr {
    key: "explicit_paddings"
    value {
      list {
      }
    }
  }
  attr {
    key: "padding"
    value {
      s: "SAME"
    }
  }
  attr {
    key: "strides"
    value {
      list {
        i: 1
        i: 1
        i: 1
        i: 1
      }
    }
  }
  attr {
    key: "use_cudnn_on_gpu"
    value {
      b: true
    }
  }
}
node {
  name: "model_1/conv2d_4/BiasAdd/ReadVariableOp/resource"
  op: "Const"
  attr {
    key: "dtype"
    value {
      type: DT_FLOAT
    }
  }
  attr {
    key: "value"
    value {
      tensor {
        dtype: DT_FLOAT
        tensor_shape {
          dim {
            size: 64
          }
        }
        tensor_content: "…"
      }
    }
  }
}
node {
  name: "model_1/conv2d_4/BiasAdd/ReadVariableOp"
  op: "Identity"
  input: "model_1/conv2d_4/BiasAdd/ReadVariableOp/resource"
  attr {
    key: "T"
    value {
      type: DT_FLOAT
    }
  }
}
node {
  name: "model_1/conv2d_4/BiasAdd"
  op: "BiasAdd"
  input: "model_1/conv2d_4/Conv2D"
  input: "model_1/conv2d_4/BiasAdd/ReadVariableOp"
  attr {
    key: "T"
    value {
      type: DT_FLOAT
    }
  }
  attr {
    key: "data_format"
    value {
      s: "NHWC"
    }
  }
}
node {
  name: "model_1/activation_7/Relu"
  op: "Relu"
  input: "model_1/conv2d_4/BiasAdd"
  attr {
    key: "T"
    value {
      type: DT_FLOAT
    }
  }
}
node {
  name: "model_1/batch_normalization_7/ReadVariableOp/resource"
  op: "Const"
  attr {
    key: "dtype"
    value {
      type: DT_FLOAT
    }
  }
  attr {
    key: "value"
    value {
      tensor {
        dtype: DT_FLOAT
        tensor_shape {
          dim {
            size: 64
          }
        }
        tensor_content: "…"
      }
    }
  }
}
node {
  name: "model_1/batch_normalization_7/ReadVariableOp"
  op: "Identity"
  input: "model_1/batch_normalization_7/ReadVariableOp/resource"
  attr {
    key: "T"
    value {
      type: DT_FLOAT
    }
  }
}
node {
  name: "model_1/batch_normalization_7/ReadVariableOp_1/resource"
  op: "Const"
  attr {
    key: "dtype"
    value {
      type: DT_FLOAT
    }
  }
  attr {
    key: "value"
    value {
      tensor {
        dtype: DT_FLOAT
        tensor_shape {
          dim {
            size: 64
          }
        }
        tensor_content: "…"
      }
    }
  }
}
node {
  name: "model_1/batch_normalization_7/ReadVariableOp_1"
  op: "Identity"
  input: "model_1/batch_normalization_7/ReadVariableOp_1/resource"
  attr {
    key: "T"
    value {
      type: DT_FLOAT
    }
  }
}
node {
  name: "model_1/batch_normalization_7/FusedBatchNormV3/ReadVariableOp/resource"
  op: "Const"
  attr {
    key: "dtype"
    value {
      type: DT_FLOAT
    }
  }
  attr {
    key: "value"
    value {
      tensor {
        dtype: DT_FLOAT
        tensor_shape {
          dim {
            size: 64
          }
        }
        tensor_content: "…"
      }
    }
  }
}
node {
  name: "model_1/batch_normalization_7/FusedBatchNormV3/ReadVariableOp"
  op: "Identity"
  input: "model_1/batch_normalization_7/FusedBatchNormV3/ReadVariableOp/resource"
  attr {
    key: "T"
    value {
      type: DT_FLOAT
    }
  }
}
node {
  name: "model_1/batch_normalization_7/FusedBatchNormV3/ReadVariableOp_1/resource"
  op: "Const"
  attr {
    key: "dtype"
    value {
      type: DT_FLOAT
    }
  }
  attr {
    key: "value"
    value {
      tensor {
        dtype: DT_FLOAT
        tensor_shape {
          dim {
            size: 64
          }
        }
        tensor_content: "…"
      }
    }
  }
}
node {
  name: "model_1/batch_normalization_7/FusedBatchNormV3/ReadVariableOp_1"
  op: "Identity"
  input: "model_1/batch_normalization_7/FusedBatchNormV3/ReadVariableOp_1/resource"
  attr {
    key: "T"
    value {
      type: DT_FLOAT
    }
  }
}
node {
  name: "model_1/batch_normalization_7/FusedBatchNormV3"
  op: "FusedBatchNormV3"
  input: "model_1/activation_7/Relu"
  input: "model_1/batch_normalization_7/ReadVariableOp"
  input: "model_1/batch_normalization_7/ReadVariableOp_1"
  input: "model_1/batch_normalization_7/FusedBatchNormV3/ReadVariableOp"
  input: "model_1/batch_normalization_7/FusedBatchNormV3/ReadVariableOp_1"
  attr {
    key: "T"
    value {
      type: DT_FLOAT
    }
  }
  attr {
    key: "U"
    value {
      type: DT_FLOAT
    }
  }
  attr {
    key: "data_format"
    value {
      s: "NHWC"
    }
  }
  attr {
    key: "epsilon"
    value {
      f: 0.0010000000475
    }
  }
  attr {
    key: "is_training"
    value {
      b: false
    }
  }
}
node {
  name: "model_1/max_pooling2d_4/MaxPool"
  op: "MaxPool"
  input: "model_1/batch_normalization_7/FusedBatchNormV3"
  attr {
    key: "T"
    value {
      type: DT_FLOAT
    }
  }
  attr {
    key: "data_format"
    value {
      s: "NHWC"
    }
  }
  attr {
    key: "ksize"
    value {
      list {
        i: 1
        i: 2
        i: 2
        i: 1
      }
    }
  }
  attr {
    key: "padding"
    value {
      s: "SAME"
    }
  }
  attr {
    key: "strides"
    value {
      list {
        i: 1
        i: 2
        i: 2
        i: 1
      }
    }
  }
}
node {
  name: "model_1/dropout_7/Identity"
  op: "Identity"
  input: "model_1/max_pooling2d_4/MaxPool"
  attr {
    key: "T"
    value {
      type: DT_FLOAT
    }
  }
}
node {
  name: "model_1/conv2d_5/Conv2D/ReadVariableOp/resource"
  op: "Const"
  attr {
    key: "dtype"
    value {
      type: DT_FLOAT
    }
  }
  attr {
    key: "value"
    value {
      tensor {
        dtype: DT_FLOAT
        tensor_shape {
          dim {
            size: 3
          }
          dim {
            size: 3
          }
          dim {
            size: 64
          }
          dim {
            size: 32
          }
        }
        tensor_content: "…"
      }
    }
  }
}
node {
  name: "model_1/conv2d_5/Conv2D/ReadVariableOp"
  op: "Identity"
  input: "model_1/conv2d_5/Conv2D/ReadVariableOp/resource"
  attr {
    key: "T"
    value {
      type: DT_FLOAT
    }
  }
}
node {
  name: "model_1/conv2d_5/Conv2D"
  op: "Conv2D"
  input: "model_1/dropout_7/Identity"
  input: "model_1/conv2d_5/Conv2D/ReadVariableOp"
  attr {
    key: "T"
    value {
      type: DT_FLOAT
    }
  }
  attr {
    key: "data_format"
    value {
      s: "NHWC"
    }
  }
  attr {
    key: "dilations"
    value {
      list {
        i: 1
        i: 1
        i: 1
        i: 1
      }
    }
  }
  attr {
    key: "explicit_paddings"
    value {
      list {
      }
    }
  }
  attr {
    key: "padding"
    value {
      s: "SAME"
    }
  }
  attr {
    key: "strides"
    value {
      list {
        i: 1
        i: 1
        i: 1
        i: 1
      }
    }
  }
  attr {
    key: "use_cudnn_on_gpu"
    value {
      b: true
    }
  }
}
node {
  name: "model_1/conv2d_5/BiasAdd/ReadVariableOp/resource"
  op: "Const"
  attr {
    key: "dtype"
    value {
      type: DT_FLOAT
    }
  }
  attr {
    key: "value"
    value {
      tensor {
        dtype: DT_FLOAT
        tensor_shape {
          dim {
            size: 32
          }
        }
        tensor_content: "…"
      }
    }
  }
}
node {
  name: "model_1/conv2d_5/BiasAdd/ReadVariableOp"
  op: "Identity"
  input: "model_1/conv2d_5/BiasAdd/ReadVariableOp/resource"
  attr {
    key: "T"
    value {
      type: DT_FLOAT
    }
  }
}
node {
  name: "model_1/conv2d_5/BiasAdd"
  op: "BiasAdd"
  input: "model_1/conv2d_5/Conv2D"
  input: "model_1/conv2d_5/BiasAdd/ReadVariableOp"
  attr {
    key: "T"
    value {
      type: DT_FLOAT
    }
  }
  attr {
    key: "data_format"
    value {
      s: "NHWC"
    }
  }
}
node {
  name: "model_1/activation_8/Relu"
  op: "Relu"
  input: "model_1/conv2d_5/BiasAdd"
  attr {
    key: "T"
    value {
      type: DT_FLOAT
    }
  }
}
node {
  name: "model_1/batch_normalization_8/ReadVariableOp/resource"
  op: "Const"
  attr {
    key: "dtype"
    value {
      type: DT_FLOAT
    }
  }
  attr {
    key: "value"
    value {
      tensor {
        dtype: DT_FLOAT
        tensor_shape {
          dim {
            size: 32
          }
        }
        tensor_content: "…"
      }
    }
  }
}
node {
  name: "model_1/batch_normalization_8/ReadVariableOp"
  op: "Identity"
  input: "model_1/batch_normalization_8/ReadVariableOp/resource"
  attr {
    key: "T"
    value {
      type: DT_FLOAT
    }
  }
}
node {
  name: "model_1/batch_normalization_8/ReadVariableOp_1/resource"
  op: "Const"
  attr {
    key: "dtype"
    value {
      type: DT_FLOAT
    }
  }
  attr {
    key: "value"
    value {
      tensor {
        dtype: DT_FLOAT
        tensor_shape {
          dim {
            size: 32
          }
        }
        tensor_content: "…"
      }
    }
  }
}
node {
  name: "model_1/batch_normalization_8/ReadVariableOp_1"
  op: "Identity"
  input: "model_1/batch_normalization_8/ReadVariableOp_1/resource"
  attr {
    key: "T"
    value {
      type: DT_FLOAT
    }
  }
}
node {
  name: "model_1/batch_normalization_8/FusedBatchNormV3/ReadVariableOp/resource"
  op: "Const"
  attr {
    key: "dtype"
    value {
      type: DT_FLOAT
    }
  }
  attr {
    key: "value"
    value {
      tensor {
        dtype: DT_FLOAT
        tensor_shape {
          dim {
            size: 32
          }
        }
        tensor_content: "…"
      }
    }
  }
}
node {
  name: "model_1/batch_normalization_8/FusedBatchNormV3/ReadVariableOp"
  op: "Identity"
  input: "model_1/batch_normalization_8/FusedBatchNormV3/ReadVariableOp/resource"
  attr {
    key: "T"
    value {
      type: DT_FLOAT
    }
  }
}
node {
  name: "model_1/batch_normalization_8/FusedBatchNormV3/ReadVariableOp_1/resource"
  op: "Const"
  attr {
    key: "dtype"
    value {
      type: DT_FLOAT
    }
  }
  attr {
    key: "value"
    value {
      tensor {
        dtype: DT_FLOAT
        tensor_shape {
          dim {
            size: 32
          }
        }
        tensor_content: "…"
      }
    }
  }
}
node {
  name: "model_1/batch_normalization_8/FusedBatchNormV3/ReadVariableOp_1"
  op: "Identity"
  input: "model_1/batch_normalization_8/FusedBatchNormV3/ReadVariableOp_1/resource"
  attr {
    key: "T"
    value {
      type: DT_FLOAT
    }
  }
}
node {
  name: "model_1/batch_normalization_8/FusedBatchNormV3"
  op: "FusedBatchNormV3"
  input: "model_1/activation_8/Relu"
  input: "model_1/batch_normalization_8/ReadVariableOp"
  input: "model_1/batch_normalization_8/ReadVariableOp_1"
  input: "model_1/batch_normalization_8/FusedBatchNormV3/ReadVariableOp"
  input: "model_1/batch_normalization_8/FusedBatchNormV3/ReadVariableOp_1"
  attr {
    key: "T"
    value {
      type: DT_FLOAT
    }
  }
  attr {
    key: "U"
    value {
      type: DT_FLOAT
    }
  }
  attr {
    key: "data_format"
    value {
      s: "NHWC"
    }
  }
  attr {
    key: "epsilon"
    value {
      f: 0.0010000000475
    }
  }
  attr {
    key: "is_training"
    value {
      b: false
    }
  }
}
node {
  name: "model_1/max_pooling2d_5/MaxPool"
  op: "MaxPool"
  input: "model_1/batch_normalization_8/FusedBatchNormV3"
  attr {
    key: "T"
    value {
      type: DT_FLOAT
    }
  }
  attr {
    key: "data_format"
    value {
      s: "NHWC"
    }
  }
  attr {
    key: "ksize"
    value {
      list {
        i: 1
        i: 2
        i: 2
        i: 1
      }
    }
  }
  attr {
    key: "padding"
    value {
      s: "SAME"
    }
  }
  attr {
    key: "strides"
    value {
      list {
        i: 1
        i: 2
        i: 2
        i: 1
      }
    }
  }
}
node {
  name: "model_1/dropout_8/Identity"
  op: "Identity"
  input: "model_1/max_pooling2d_5/MaxPool"
  attr {
    key: "T"
    value {
      type: DT_FLOAT
    }
  }
}
node {
  name: "model_1/flatten_1/Const"
  op: "Const"
  attr {
    key: "dtype"
    value {
      type: DT_INT32
    }
  }
  attr {
    key: "value"
    value {
      tensor {
        dtype: DT_INT32
        tensor_shape {
          dim {
            size: 2
          }
        }
        tensor_content: "\377\377\377\377\300\000\000\000"
      }
    }
  }
}
node {
  name: "model_1/flatten_1/Reshape"
  op: "Reshape"
  input: "model_1/dropout_8/Identity"
  input: "model_1/flatten_1/Const"
  attr {
    key: "T"
    value {
      type: DT_FLOAT
    }
  }
  attr {
    key: "Tshape"
    value {
      type: DT_INT32
    }
  }
}
node {
  name: "model_1/concatenate_1/concat/axis"
  op: "Const"
  attr {
    key: "dtype"
    value {
      type: DT_INT32
    }
  }
  attr {
    key: "value"
    value {
      tensor {
        dtype: DT_INT32
        tensor_shape {
        }
        int_val: 1
      }
    }
  }
}
node {
  name: "model_1/concatenate_1/concat"
  op: "ConcatV2"
  input: "model_1/flatten_1/Reshape"
  input: "input_4"
  input: "model_1/concatenate_1/concat/axis"
  attr {
    key: "N"
    value {
      i: 2
    }
  }
  attr {
    key: "T"
    value {
      type: DT_FLOAT
    }
  }
  attr {
    key: "Tidx"
    value {
      type: DT_INT32
    }
  }
}
node {
  name: "model_1/dense_4/MatMul/ReadVariableOp/resource"
  op: "Const"
  attr {
    key: "dtype"
    value {
      type: DT_FLOAT
    }
  }
  attr {
    key: "value"
    value {
      tensor {
        dtype: DT_FLOAT
        tensor_shape {
          dim {
            size: 194
          }
          dim {
            size: 32
          }
        }
        tensor_content: "…"
      }
    }
  }
}
node {
  name: "model_1/dense_4/MatMul/ReadVariableOp"
  op: "Identity"
  input: "model_1/dense_4/MatMul/ReadVariableOp/resource"
  attr {
    key: "T"
    value {
      type: DT_FLOAT
    }
  }
}
node {
  name: "model_1/dense_4/MatMul"
  op: "MatMul"
  input: "model_1/concatenate_1/concat"
  input: "model_1/dense_4/MatMul/ReadVariableOp"
  attr {
    key: "T"
    value {
      type: DT_FLOAT
    }
  }
  attr {
    key: "transpose_a"
    value {
      b: false
    }
  }
  attr {
    key: "transpose_b"
    value {
      b: false
    }
  }
}
node {
  name: "model_1/dense_4/BiasAdd/ReadVariableOp/resource"
  op: "Const"
  attr {
    key: "dtype"
    value {
      type: DT_FLOAT
    }
  }
  attr {
    key: "value"
    value {
      tensor {
        dtype: DT_FLOAT
        tensor_shape {
          dim {
            size: 32
          }
        }
        tensor_content: "…"
      }
    }
  }
}
node {
  name: "model_1/dense_4/BiasAdd/ReadVariableOp"
  op: "Identity"
  input: "model_1/dense_4/BiasAdd/ReadVariableOp/resource"
  attr {
    key: "T"
    value {
      type: DT_FLOAT
    }
  }
}
node {
  name: "model_1/dense_4/BiasAdd"
  op: "BiasAdd"
  input: "model_1/dense_4/MatMul"
  input: "model_1/dense_4/BiasAdd/ReadVariableOp"
  attr {
    key: "T"
    value {
      type: DT_FLOAT
    }
  }
  attr {
    key: "data_format"
    value {
      s: "NHWC"
    }
  }
}
node {
  name: "model_1/activation_9/Relu"
  op: "Relu"
  input: "model_1/dense_4/BiasAdd"
  attr {
    key: "T"
    value {
      type: DT_FLOAT
    }
  }
}
node {
  name: "model_1/batch_normalization_9/batchnorm/ReadVariableOp/resource"
  op: "Const"
  attr {
    key: "dtype"
    value {
      type: DT_FLOAT
    }
  }
  attr {
    key: "value"
    value {
      tensor {
        dtype: DT_FLOAT
        tensor_shape {
          dim {
            size: 32
          }
        }
        tensor_content: "…"
      }
    }
  }
}
node {
  name: "model_1/batch_normalization_9/batchnorm/ReadVariableOp"
  op: "Identity"
  input: "model_1/batch_normalization_9/batchnorm/ReadVariableOp/resource"
  attr {
    key: "T"
    value {
      type: DT_FLOAT
    }
  }
}
node {
  name: "model_1/batch_normalization_9/batchnorm/add/y"
  op: "Const"
  attr {
    key: "dtype"
    value {
      type: DT_FLOAT
    }
  }
  attr {
    key: "value"
    value {
      tensor {
        dtype: DT_FLOAT
        tensor_shape {
        }
        float_val: 0.0010000000475
      }
    }
  }
}
node {
  name: "model_1/batch_normalization_9/batchnorm/add"
  op: "AddV2"
  input: "model_1/batch_normalization_9/batchnorm/ReadVariableOp"
  input: "model_1/batch_normalization_9/batchnorm/add/y"
  attr {
    key: "T"
    value {
      type: DT_FLOAT
    }
  }
}
node {
  name: "model_1/batch_normalization_9/batchnorm/Rsqrt"
  op: "Rsqrt"
  input: "model_1/batch_normalization_9/batchnorm/add"
  attr {
    key: "T"
    value {
      type: DT_FLOAT
    }
  }
}
node {
  name: "model_1/batch_normalization_9/batchnorm/mul/ReadVariableOp/resource"
  op: "Const"
  attr {
    key: "dtype"
    value {
      type: DT_FLOAT
    }
  }
  attr {
    key: "value"
    value {
      tensor {
        dtype: DT_FLOAT
        tensor_shape {
          dim {
            size: 32
          }
        }
        tensor_content: "…"
      }
    }
  }
}
node {
  name: "model_1/batch_normalization_9/batchnorm/mul/ReadVariableOp"
  op: "Identity"
  input: "model_1/batch_normalization_9/batchnorm/mul/ReadVariableOp/resource"
  attr {
    key: "T"
    value {
      type: DT_FLOAT
    }
  }
}
node {
  name: "model_1/batch_normalization_9/batchnorm/mul"
  op: "Mul"
  input: "model_1/batch_normalization_9/batchnorm/Rsqrt"
  input: "model_1/batch_normalization_9/batchnorm/mul/ReadVariableOp"
  attr {
    key: "T"
    value {
      type: DT_FLOAT
    }
  }
}
node {
  name: "model_1/batch_normalization_9/batchnorm/mul_1"
  op: "Mul"
  input: "model_1/activation_9/Relu"
  input: "model_1/batch_normalization_9/batchnorm/mul"
  attr {
    key: "T"
    value {
      type: DT_FLOAT
    }
  }
}
node {
  name: "model_1/batch_normalization_9/batchnorm/ReadVariableOp_2/resource"
  op: "Const"
  attr {
    key: "dtype"
    value {
      type: DT_FLOAT
    }
  }
  attr {
    key: "value"
    value {
      tensor {
        dtype: DT_FLOAT
        tensor_shape {
          dim {
            size: 32
          }
        }
        tensor_content: "…"
      }
    }
  }
}
node {
  name: "model_1/batch_normalization_9/batchnorm/ReadVariableOp_2"
  op: "Identity"
  input: "model_1/batch_normalization_9/batchnorm/ReadVariableOp_2/resource"
  attr {
    key: "T"
    value {
      type: DT_FLOAT
    }
  }
}
node {
  name: "model_1/batch_normalization_9/batchnorm/ReadVariableOp_1/resource"
  op: "Const"
  attr {
    key: "dtype"
    value {
      type: DT_FLOAT
    }
  }
  attr {
    key: "value"
    value {
      tensor {
        dtype: DT_FLOAT
        tensor_shape {
          dim {
            size: 32
          }
        }
        tensor_content: "…"
      }
    }
  }
}
node {
  name: "model_1/batch_normalization_9/batchnorm/ReadVariableOp_1"
  op: "Identity"
  input: "model_1/batch_normalization_9/batchnorm/ReadVariableOp_1/resource"
  attr {
    key: "T"
    value {
      type: DT_FLOAT
    }
  }
}
node {
  name: "model_1/batch_normalization_9/batchnorm/mul_2"
  op: "Mul"
  input: "model_1/batch_normalization_9/batchnorm/ReadVariableOp_1"
  input: "model_1/batch_normalization_9/batchnorm/mul"
  attr {
    key: "T"
    value {
      type: DT_FLOAT
    }
  }
}
node {
  name: "model_1/batch_normalization_9/batchnorm/sub"
  op: "Sub"
  input: "model_1/batch_normalization_9/batchnorm/ReadVariableOp_2"
  input: "model_1/batch_normalization_9/batchnorm/mul_2"
  attr {
    key: "T"
    value {
      type: DT_FLOAT
    }
  }
}
node {
  name: "model_1/batch_normalization_9/batchnorm/add_1"
  op: "AddV2"
  input: "model_1/batch_normalization_9/batchnorm/mul_1"
  input: "model_1/batch_normalization_9/batchnorm/sub"
  attr {
    key: "T"
    value {
      type: DT_FLOAT
    }
  }
}
node {
  name: "model_1/dropout_9/Identity"
  op: "Identity"
  input: "model_1/batch_normalization_9/batchnorm/add_1"
  attr {
    key: "T"
    value {
      type: DT_FLOAT
    }
  }
}
node {
  name: "model_1/dense_5/MatMul/ReadVariableOp/resource"
  op: "Const"
  attr {
    key: "dtype"
    value {
      type: DT_FLOAT
    }
  }
  attr {
    key: "value"
    value {
      tensor {
        dtype: DT_FLOAT
        tensor_shape {
          dim {
            size: 32
          }
          dim {
            size: 64
          }
        }
        tensor_content: "…"
      }
    }
  }
}
node {
  name: "model_1/dense_5/MatMul/ReadVariableOp"
  op: "Identity"
  input: "model_1/dense_5/MatMul/ReadVariableOp/resource"
  attr {
    key: "T"
    value {
      type: DT_FLOAT
    }
  }
}
node {
  name: "model_1/dense_5/MatMul"
  op: "MatMul"
  input: "model_1/dropout_9/Identity"
  input: "model_1/dense_5/MatMul/ReadVariableOp"
  attr {
    key: "T"
    value {
      type: DT_FLOAT
    }
  }
  attr {
    key: "transpose_a"
    value {
      b: false
    }
  }
  attr {
    key: "transpose_b"
    value {
      b: false
    }
  }
}
node {
  name: "model_1/dense_5/BiasAdd/ReadVariableOp/resource"
  op: "Const"
  attr {
    key: "dtype"
    value {
      type: DT_FLOAT
    }
  }
  attr {
    key: "value"
    value {
      tensor {
        dtype: DT_FLOAT
        tensor_shape {
          dim {
            size: 64
          }
        }
        tensor_content: "…"
      }
    }
  }
}
node {
  name: "model_1/dense_5/BiasAdd/ReadVariableOp"
  op: "Identity"
  input: "model_1/dense_5/BiasAdd/ReadVariableOp/resource"
  attr {
    key: "T"
    value {
      type: DT_FLOAT
    }
  }
}
node {
  name: "model_1/dense_5/BiasAdd"
  op: "BiasAdd"
  input: "model_1/dense_5/MatMul"
  input: "model_1/dense_5/BiasAdd/ReadVariableOp"
  attr {
    key: "T"
    value {
      type: DT_FLOAT
    }
  }
  attr {
    key: "data_format"
    value {
      s: "NHWC"
    }
  }
}
node {
  name: "model_1/activation_10/Relu"
  op: "Relu"
  input: "model_1/dense_5/BiasAdd"
  attr {
    key: "T"
    value {
      type: DT_FLOAT
    }
  }
}
node {
  name: "model_1/batch_normalization_10/batchnorm/ReadVariableOp/resource"
  op: "Const"
  attr {
    key: "dtype"
    value {
      type: DT_FLOAT
    }
  }
  attr {
    key: "value"
    value {
      tensor {
        dtype: DT_FLOAT
        tensor_shape {
          dim {
            size: 64
          }
        }
        tensor_content: "…"
      }
    }
  }
}
node {
  name: "model_1/batch_normalization_10/batchnorm/ReadVariableOp"
  op: "Identity"
  input: "model_1/batch_normalization_10/batchnorm/ReadVariableOp/resource"
  attr {
    key: "T"
    value {
      type: DT_FLOAT
    }
  }
}
node {
  name: "model_1/batch_normalization_10/batchnorm/add/y"
  op: "Const"
  attr {
    key: "dtype"
    value {
      type: DT_FLOAT
    }
  }
  attr {
    key: "value"
    value {
      tensor {
        dtype: DT_FLOAT
        tensor_shape {
        }
        float_val: 0.0010000000475
      }
    }
  }
}
node {
  name: "model_1/batch_normalization_10/batchnorm/add"
  op: "AddV2"
  input: "model_1/batch_normalization_10/batchnorm/ReadVariableOp"
  input: "model_1/batch_normalization_10/batchnorm/add/y"
  attr {
    key: "T"
    value {
      type: DT_FLOAT
    }
  }
}
node {
  name: "model_1/batch_normalization_10/batchnorm/Rsqrt"
  op: "Rsqrt"
  input: "model_1/batch_normalization_10/batchnorm/add"
  attr {
    key: "T"
    value {
      type: DT_FLOAT
    }
  }
}
node {
  name: "model_1/batch_normalization_10/batchnorm/mul/ReadVariableOp/resource"
  op: "Const"
  attr {
    key: "dtype"
    value {
      type: DT_FLOAT
    }
  }
  attr {
    key: "value"
    value {
      tensor {
        dtype: DT_FLOAT
        tensor_shape {
          dim {
            size: 64
          }
        }
        tensor_content: "…"
      }
    }
  }
}
node {
  name: "model_1/batch_normalization_10/batchnorm/mul/ReadVariableOp"
  op: "Identity"
  input: "model_1/batch_normalization_10/batchnorm/mul/ReadVariableOp/resource"
  attr {
    key: "T"
    value {
      type: DT_FLOAT
    }
  }
}
node {
  name: "model_1/batch_normalization_10/batchnorm/mul"
  op: "Mul"
  input: "model_1/batch_normalization_10/batchnorm/Rsqrt"
  input: "model_1/batch_normalization_10/batchnorm/mul/ReadVariableOp"
  attr {
    key: "T"
    value {
      type: DT_FLOAT
    }
  }
}
node {
  name: "model_1/batch_normalization_10/batchnorm/mul_1"
  op: "Mul"
  input: "model_1/activation_10/Relu"
  input: "model_1/batch_normalization_10/batchnorm/mul"
  attr {
    key: "T"
    value {
      type: DT_FLOAT
    }
  }
}
node {
  name: "model_1/batch_normalization_10/batchnorm/ReadVariableOp_2/resource"
  op: "Const"
  attr {
    key: "dtype"
    value {
      type: DT_FLOAT
    }
  }
  attr {
    key: "value"
    value {
      tensor {
        dtype: DT_FLOAT
        tensor_shape {
          dim {
            size: 64
          }
        }
        tensor_content: "…"
      }
    }
  }
}
node {
  name: "model_1/batch_normalization_10/batchnorm/ReadVariableOp_2"
  op: "Identity"
  input: "model_1/batch_normalization_10/batchnorm/ReadVariableOp_2/resource"
  attr {
    key: "T"
    value {
      type: DT_FLOAT
    }
  }
}
node {
  name: "model_1/batch_normalization_10/batchnorm/ReadVariableOp_1/resource"
  op: "Const"
  attr {
    key: "dtype"
    value {
      type: DT_FLOAT
    }
  }
  attr {
    key: "value"
    value {
      tensor {
        dtype: DT_FLOAT
        tensor_shape {
          dim {
            size: 64
          }
        }
        tensor_content: "…"
      }
    }
  }
}
node {
  name: "model_1/batch_normalization_10/batchnorm/ReadVariableOp_1"
  op: "Identity"
  input: "model_1/batch_normalization_10/batchnorm/ReadVariableOp_1/resource"
  attr {
    key: "T"
    value {
      type: DT_FLOAT
    }
  }
}
node {
  name: "model_1/batch_normalization_10/batchnorm/mul_2"
  op: "Mul"
  input: "model_1/batch_normalization_10/batchnorm/ReadVariableOp_1"
  input: "model_1/batch_normalization_10/batchnorm/mul"
  attr {
    key: "T"
    value {
      type: DT_FLOAT
    }
  }
}
node {
  name: "model_1/batch_normalization_10/batchnorm/sub"
  op: "Sub"
  input: "model_1/batch_normalization_10/batchnorm/ReadVariableOp_2"
  input: "model_1/batch_normalization_10/batchnorm/mul_2"
  attr {
    key: "T"
    value {
      type: DT_FLOAT
    }
  }
}
node {
  name: "model_1/batch_normalization_10/batchnorm/add_1"
  op: "AddV2"
  input: "model_1/batch_normalization_10/batchnorm/mul_1"
  input: "model_1/batch_normalization_10/batchnorm/sub"
  attr {
    key: "T"
    value {
      type: DT_FLOAT
    }
  }
}
node {
  name: "model_1/dropout_10/Identity"
  op: "Identity"
  input: "model_1/batch_normalization_10/batchnorm/add_1"
  attr {
    key: "T"
    value {
      type: DT_FLOAT
    }
  }
}
node {
  name: "model_1/dense_6/MatMul/ReadVariableOp/resource"
  op: "Const"
  attr {
    key: "dtype"
    value {
      type: DT_FLOAT
    }
  }
  attr {
    key: "value"
    value {
      tensor {
        dtype: DT_FLOAT
        tensor_shape {
          dim {
            size: 64
          }
          dim {
            size: 32
          }
        }
        tensor_content: "…"
      }
    }
  }
}
node {
  name: "model_1/dense_6/MatMul/ReadVariableOp"
  op: "Identity"
  input: "model_1/dense_6/MatMul/ReadVariableOp/resource"
  attr {
    key: "T"
    value {
      type: DT_FLOAT
    }
  }
}
node {
  name: "model_1/dense_6/MatMul"
  op: "MatMul"
  input: "model_1/dropout_10/Identity"
  input: "model_1/dense_6/MatMul/ReadVariableOp"
  attr {
    key: "T"
    value {
      type: DT_FLOAT
    }
  }
  attr {
    key: "transpose_a"
    value {
      b: false
    }
  }
  attr {
    key: "transpose_b"
    value {
      b: false
    }
  }
}
node {
  name: "model_1/dense_6/BiasAdd/ReadVariableOp/resource"
  op: "Const"
  attr {
    key: "dtype"
    value {
      type: DT_FLOAT
    }
  }
  attr {
    key: "value"
    value {
      tensor {
        dtype: DT_FLOAT
        tensor_shape {
          dim {
            size: 32
          }
        }
        tensor_content: "…"
      }
    }
  }
}
node {
  name: "model_1/dense_6/BiasAdd/ReadVariableOp"
  op: "Identity"
  input: "model_1/dense_6/BiasAdd/ReadVariableOp/resource"
  attr {
    key: "T"
    value {
      type: DT_FLOAT
    }
  }
}
node {
  name: "model_1/dense_6/BiasAdd"
  op: "BiasAdd"
  input: "model_1/dense_6/MatMul"
  input: "model_1/dense_6/BiasAdd/ReadVariableOp"
  attr {
    key: "T"
    value {
      type: DT_FLOAT
    }
  }
  attr {
    key: "data_format"
    value {
      s: "NHWC"
    }
  }
}
node {
  name: "model_1/activation_11/Relu"
  op: "Relu"
  input: "model_1/dense_6/BiasAdd"
  attr {
    key: "T"
    value {
      type: DT_FLOAT
    }
  }
}
node {
  name: "model_1/batch_normalization_11/batchnorm/ReadVariableOp/resource"
  op: "Const"
  attr {
    key: "dtype"
    value {
      type: DT_FLOAT
    }
  }
  attr {
    key: "value"
    value {
      tensor {
        dtype: DT_FLOAT
        tensor_shape {
          dim {
            size: 32
          }
        }
        tensor_content: "…"
      }
    }
  }
}
node {
  name: "model_1/batch_normalization_11/batchnorm/ReadVariableOp"
  op: "Identity"
  input: "model_1/batch_normalization_11/batchnorm/ReadVariableOp/resource"
  attr {
    key: "T"
    value {
      type: DT_FLOAT
    }
  }
}
node {
  name: "model_1/batch_normalization_11/batchnorm/add/y"
  op: "Const"
  attr {
    key: "dtype"
    value {
      type: DT_FLOAT
    }
  }
  attr {
    key: "value"
    value {
      tensor {
        dtype: DT_FLOAT
        tensor_shape {
        }
        float_val: 0.0010000000475
      }
    }
  }
}
node {
  name: "model_1/batch_normalization_11/batchnorm/add"
  op: "AddV2"
  input: "model_1/batch_normalization_11/batchnorm/ReadVariableOp"
  input: "model_1/batch_normalization_11/batchnorm/add/y"
  attr {
    key: "T"
    value {
      type: DT_FLOAT
    }
  }
}
node {
  name: "model_1/batch_normalization_11/batchnorm/Rsqrt"
  op: "Rsqrt"
  input: "model_1/batch_normalization_11/batchnorm/add"
  attr {
    key: "T"
    value {
      type: DT_FLOAT
    }
  }
}
node {
  name: "model_1/batch_normalization_11/batchnorm/mul/ReadVariableOp/resource"
  op: "Const"
  attr {
    key: "dtype"
    value {
      type: DT_FLOAT
    }
  }
  attr {
    key: "value"
    value {
      tensor {
        dtype: DT_FLOAT
        tensor_shape {
          dim {
            size: 32
          }
        }
        tensor_content: "…"
      }
    }
  }
}
node {
  name: "model_1/batch_normalization_11/batchnorm/mul/ReadVariableOp"
  op: "Identity"
  input: "model_1/batch_normalization_11/batchnorm/mul/ReadVariableOp/resource"
  attr {
    key: "T"
    value {
      type: DT_FLOAT
    }
  }
}
node {
  name: "model_1/batch_normalization_11/batchnorm/mul"
  op: "Mul"
  input: "model_1/batch_normalization_11/batchnorm/Rsqrt"
  input: "model_1/batch_normalization_11/batchnorm/mul/ReadVariableOp"
  attr {
    key: "T"
    value {
      type: DT_FLOAT
    }
  }
}
node {
  name: "model_1/batch_normalization_11/batchnorm/mul_1"
  op: "Mul"
  input: "model_1/activation_11/Relu"
  input: "model_1/batch_normalization_11/batchnorm/mul"
  attr {
    key: "T"
    value {
      type: DT_FLOAT
    }
  }
}
node {
  name: "model_1/batch_normalization_11/batchnorm/ReadVariableOp_2/resource"
  op: "Const"
  attr {
    key: "dtype"
    value {
      type: DT_FLOAT
    }
  }
  attr {
    key: "value"
    value {
      tensor {
        dtype: DT_FLOAT
        tensor_shape {
          dim {
            size: 32
          }
        }
        tensor_content: "…"
      }
    }
  }
}
node {
  name: "model_1/batch_normalization_11/batchnorm/ReadVariableOp_2"
  op: "Identity"
  input: "model_1/batch_normalization_11/batchnorm/ReadVariableOp_2/resource"
  attr {
    key: "T"
    value {
      type: DT_FLOAT
    }
  }
}
node {
  name: "model_1/batch_normalization_11/batchnorm/ReadVariableOp_1/resource"
  op: "Const"
  attr {
    key: "dtype"
    value {
      type: DT_FLOAT
    }
  }
  attr {
    key: "value"
    value {
      tensor {
        dtype: DT_FLOAT
        tensor_shape {
          dim {
            size: 32
          }
        }
        tensor_content: "…"
      }
    }
  }
}
node {
  name: "model_1/batch_normalization_11/batchnorm/ReadVariableOp_1"
  op: "Identity"
  input: "model_1/batch_normalization_11/batchnorm/ReadVariableOp_1/resource"
  attr {
    key: "T"
    value {
      type: DT_FLOAT
    }
  }
}
node {
  name: "model_1/batch_normalization_11/batchnorm/mul_2"
  op: "Mul"
  input: "model_1/batch_normalization_11/batchnorm/ReadVariableOp_1"
  input: "model_1/batch_normalization_11/batchnorm/mul"
  attr {
    key: "T"
    value {
      type: DT_FLOAT
    }
  }
}
node {
  name: "model_1/batch_normalization_11/batchnorm/sub"
  op: "Sub"
  input: "model_1/batch_normalization_11/batchnorm/ReadVariableOp_2"
  input: "model_1/batch_normalization_11/batchnorm/mul_2"
  attr {
    key: "T"
    value {
      type: DT_FLOAT
    }
  }
}
node {
  name: "model_1/batch_normalization_11/batchnorm/add_1"
  op: "AddV2"
  input: "model_1/batch_normalization_11/batchnorm/mul_1"
  input: "model_1/batch_normalization_11/batchnorm/sub"
  attr {
    key: "T"
    value {
      type: DT_FLOAT
    }
  }
}
node {
  name: "model_1/dropout_11/Identity"
  op: "Identity"
  input: "model_1/batch_normalization_11/batchnorm/add_1"
  attr {
    key: "T"
    value {
      type: DT_FLOAT
    }
  }
}
node {
  name: "model_1/dense_7/MatMul/ReadVariableOp/resource"
  op: "Const"
  attr {
    key: "dtype"
    value {
      type: DT_FLOAT
    }
  }
  attr {
    key: "value"
    value {
      tensor {
        dtype: DT_FLOAT
        tensor_shape {
          dim {
            size: 32
          }
          dim {
            size: 1
          }
        }
        tensor_content: "…"
      }
    }
  }
}
node {
  name: "model_1/dense_7/MatMul/ReadVariableOp"
  op: "Identity"
  input: "model_1/dense_7/MatMul/ReadVariableOp/resource"
  attr {
    key: "T"
    value {
      type: DT_FLOAT
    }
  }
}
node {
  name: "model_1/dense_7/MatMul"
  op: "MatMul"
  input: "model_1/dropout_11/Identity"
  input: "model_1/dense_7/MatMul/ReadVariableOp"
  attr {
    key: "T"
    value {
      type: DT_FLOAT
    }
  }
  attr {
    key: "transpose_a"
    value {
      b: false
    }
  }
  attr {
    key: "transpose_b"
    value {
      b: false
    }
  }
}
node {
  name: "model_1/dense_7/BiasAdd/ReadVariableOp/resource"
  op: "Const"
  attr {
    key: "dtype"
    value {
      type: DT_FLOAT
    }
  }
  attr {
    key: "value"
    value {
      tensor {
        dtype: DT_FLOAT
        tensor_shape {
          dim {
            size: 1
          }
        }
        float_val: -0.847699463367
      }
    }
  }
}
node {
  name: "model_1/dense_7/BiasAdd/ReadVariableOp"
  op: "Identity"
  input: "model_1/dense_7/BiasAdd/ReadVariableOp/resource"
  attr {
    key: "T"
    value {
      type: DT_FLOAT
    }
  }
}
node {
  name: "model_1/dense_7/BiasAdd"
  op: "BiasAdd"
  input: "model_1/dense_7/MatMul"
  input: "model_1/dense_7/BiasAdd/ReadVariableOp"
  attr {
    key: "T"
    value {
      type: DT_FLOAT
    }
  }
  attr {
    key: "data_format"
    value {
      s: "NHWC"
    }
  }
}
node {
  name: "Identity"
  op: "Identity"
  input: "model_1/dense_7/BiasAdd"
  input: "^model_1/batch_normalization_10/batchnorm/ReadVariableOp"
  input: "^model_1/batch_normalization_10/batchnorm/ReadVariableOp_1"
  input: "^model_1/batch_normalization_10/batchnorm/ReadVariableOp_2"
  input: "^model_1/batch_normalization_10/batchnorm/mul/ReadVariableOp"
  input: "^model_1/batch_normalization_11/batchnorm/ReadVariableOp"
  input: "^model_1/batch_normalization_11/batchnorm/ReadVariableOp_1"
  input: "^model_1/batch_normalization_11/batchnorm/ReadVariableOp_2"
  input: "^model_1/batch_normalization_11/batchnorm/mul/ReadVariableOp"
  input: "^model_1/batch_normalization_6/FusedBatchNormV3/ReadVariableOp"
  input: "^model_1/batch_normalization_6/FusedBatchNormV3/ReadVariableOp_1"
  input: "^model_1/batch_normalization_6/ReadVariableOp"
  input: "^model_1/batch_normalization_6/ReadVariableOp_1"
  input: "^model_1/batch_normalization_7/FusedBatchNormV3/ReadVariableOp"
  input: "^model_1/batch_normalization_7/FusedBatchNormV3/ReadVariableOp_1"
  input: "^model_1/batch_normalization_7/ReadVariableOp"
  input: "^model_1/batch_normalization_7/ReadVariableOp_1"
  input: "^model_1/batch_normalization_8/FusedBatchNormV3/ReadVariableOp"
  input: "^model_1/batch_normalization_8/FusedBatchNormV3/ReadVariableOp_1"
  input: "^model_1/batch_normalization_8/ReadVariableOp"
  input: "^model_1/batch_normalization_8/ReadVariableOp_1"
  input: "^model_1/batch_normalization_9/batchnorm/ReadVariableOp"
  input: "^model_1/batch_normalization_9/batchnorm/ReadVariableOp_1"
  input: "^model_1/batch_normalization_9/batchnorm/ReadVariableOp_2"
  input: "^model_1/batch_normalization_9/batchnorm/mul/ReadVariableOp"
  input: "^model_1/conv2d_3/BiasAdd/ReadVariableOp"
  input: "^model_1/conv2d_3/Conv2D/ReadVariableOp"
  input: "^model_1/conv2d_4/BiasAdd/ReadVariableOp"
  input: "^model_1/conv2d_4/Conv2D/ReadVariableOp"
  input: "^model_1/conv2d_5/BiasAdd/ReadVariableOp"
  input: "^model_1/conv2d_5/Conv2D/ReadVariableOp"
  input: "^model_1/dense_4/BiasAdd/ReadVariableOp"
  input: "^model_1/dense_4/MatMul/ReadVariableOp"
  input: "^model_1/dense_5/BiasAdd/ReadVariableOp"
  input: "^model_1/dense_5/MatMul/ReadVariableOp"
  input: "^model_1/dense_6/BiasAdd/ReadVariableOp"
  input: "^model_1/dense_6/MatMul/ReadVariableOp"
  input: "^model_1/dense_7/BiasAdd/ReadVariableOp"
  input: "^model_1/dense_7/MatMul/ReadVariableOp"
  attr {
    key: "T"
    value {
      type: DT_FLOAT
    }
  }
}
versions {
  producer: 175
}
